module @jit_func attributes {jax.uses_shape_polymorphism = false, mhlo.num_partitions = 1 : i32, mhlo.num_replicas = 1 : i32} {
  func.func public @main(%arg0: tensor<30522x128xf32> loc("states[0]"), %arg1: tensor<512x128xf32> loc("states[1]"), %arg2: tensor<2x128xf32> loc("states[2]"), %arg3: tensor<128xf32> loc("states[3]"), %arg4: tensor<128xf32> loc("states[4]"), %arg5: tensor<128x128xf32> loc("states[5]"), %arg6: tensor<128xf32> loc("states[6]"), %arg7: tensor<128x128xf32> loc("states[7]"), %arg8: tensor<128xf32> loc("states[8]"), %arg9: tensor<128x128xf32> loc("states[9]"), %arg10: tensor<128xf32> loc("states[10]"), %arg11: tensor<128x128xf32> loc("states[11]"), %arg12: tensor<128xf32> loc("states[12]"), %arg13: tensor<128xf32> loc("states[13]"), %arg14: tensor<128xf32> loc("states[14]"), %arg15: tensor<512x128xf32> loc("states[15]"), %arg16: tensor<512xf32> loc("states[16]"), %arg17: tensor<128x512xf32> loc("states[17]"), %arg18: tensor<128xf32> loc("states[18]"), %arg19: tensor<128xf32> loc("states[19]"), %arg20: tensor<128xf32> loc("states[20]"), %arg21: tensor<128x128xf32> loc("states[21]"), %arg22: tensor<128xf32> loc("states[22]"), %arg23: tensor<128x128xf32> loc("states[23]"), %arg24: tensor<128xf32> loc("states[24]"), %arg25: tensor<128x128xf32> loc("states[25]"), %arg26: tensor<128xf32> loc("states[26]"), %arg27: tensor<128x128xf32> loc("states[27]"), %arg28: tensor<128xf32> loc("states[28]"), %arg29: tensor<128xf32> loc("states[29]"), %arg30: tensor<128xf32> loc("states[30]"), %arg31: tensor<512x128xf32> loc("states[31]"), %arg32: tensor<512xf32> loc("states[32]"), %arg33: tensor<128x512xf32> loc("states[33]"), %arg34: tensor<128xf32> loc("states[34]"), %arg35: tensor<128xf32> loc("states[35]"), %arg36: tensor<128xf32> loc("states[36]"), %arg37: tensor<128x128xf32> loc("states[37]"), %arg38: tensor<128xf32> loc("states[38]"), %arg39: tensor<1x512xi32> loc("states[39]"), %arg40: tensor<1x512xi32> loc("states[40]"), %arg41: tensor<1x8xi32> loc("inputs[0][0]")) -> (tensor<1x8x128xf32> {jax.result_info = "result[0]"}, tensor<1x128xf32> {jax.result_info = "result[1]"}) {
    %cst = stablehlo.constant dense<1.12837911> : tensor<1x8x512xf32> loc(#loc)
    %cst_0 = stablehlo.constant dense<-0.37612626> : tensor<1x8x512xf32> loc(#loc)
    %cst_1 = stablehlo.constant dense<0.112835854> : tensor<1x8x512xf32> loc(#loc)
    %cst_2 = stablehlo.constant dense<-0.0268538129> : tensor<1x8x512xf32> loc(#loc)
    %cst_3 = stablehlo.constant dense<0.00518832775> : tensor<1x8x512xf32> loc(#loc)
    %cst_4 = stablehlo.constant dense<-8.0101937E-4> : tensor<1x8x512xf32> loc(#loc)
    %cst_5 = stablehlo.constant dense<7.85386146E-5> : tensor<1x8x512xf32> loc(#loc)
    %cst_6 = stablehlo.constant dense<0.000000e+00> : tensor<1x8x512xf32> loc(#loc)
    %cst_7 = stablehlo.constant dense<-88.7228394> : tensor<1x8x512xf32> loc(#loc)
    %cst_8 = stablehlo.constant dense<0.564189494> : tensor<1x8x512xf32> loc(#loc)
    %cst_9 = stablehlo.constant dense<-0.282076746> : tensor<1x8x512xf32> loc(#loc)
    %cst_10 = stablehlo.constant dense<0.42184633> : tensor<1x8x512xf32> loc(#loc)
    %cst_11 = stablehlo.constant dense<-1.01526523> : tensor<1x8x512xf32> loc(#loc)
    %cst_12 = stablehlo.constant dense<2.92101908> : tensor<1x8x512xf32> loc(#loc)
    %cst_13 = stablehlo.constant dense<-7.49551868> : tensor<1x8x512xf32> loc(#loc)
    %cst_14 = stablehlo.constant dense<1.297720e+01> : tensor<1x8x512xf32> loc(#loc)
    %cst_15 = stablehlo.constant dense<-10.477664> : tensor<1x8x512xf32> loc(#loc)
    %cst_16 = stablehlo.constant dense<0.563825965> : tensor<1x8x512xf32> loc(#loc)
    %cst_17 = stablehlo.constant dense<-0.274112701> : tensor<1x8x512xf32> loc(#loc)
    %cst_18 = stablehlo.constant dense<3.404880e-01> : tensor<1x8x512xf32> loc(#loc)
    %cst_19 = stablehlo.constant dense<-0.494451523> : tensor<1x8x512xf32> loc(#loc)
    %cst_20 = stablehlo.constant dense<0.621000468> : tensor<1x8x512xf32> loc(#loc)
    %cst_21 = stablehlo.constant dense<-0.582473278> : tensor<1x8x512xf32> loc(#loc)
    %cst_22 = stablehlo.constant dense<0.368742466> : tensor<1x8x512xf32> loc(#loc)
    %cst_23 = stablehlo.constant dense<-0.138703942> : tensor<1x8x512xf32> loc(#loc)
    %cst_24 = stablehlo.constant dense<2.326820e-02> : tensor<1x8x512xf32> loc(#loc)
    %cst_25 = stablehlo.constant dense<2.000000e+00> : tensor<1x8x512xf32> loc(#loc)
    %cst_26 = stablehlo.constant dense<1.000000e+00> : tensor<1x8x512xf32> loc(#loc)
    %cst_27 = stablehlo.constant dense<0.707106769> : tensor<f32> loc(#loc)
    %cst_28 = stablehlo.constant dense<5.000000e-01> : tensor<f32> loc(#loc)
    %c = stablehlo.constant dense<false> : tensor<i1> loc(#loc)
    %cst_29 = stablehlo.constant dense<0.353553385> : tensor<f32> loc(#loc)
    %cst_30 = stablehlo.constant dense<0xFF800000> : tensor<f32> loc(#loc)
    %cst_31 = stablehlo.constant dense<9.99999996E-13> : tensor<f32> loc(#loc)
    %cst_32 = stablehlo.constant dense<1.280000e+02> : tensor<f32> loc(#loc)
    %cst_33 = stablehlo.constant dense<0.000000e+00> : tensor<f32> loc(#loc)
    %cst_34 = stablehlo.constant dense<1.000000e+00> : tensor<f32> loc(#loc)
    %c_35 = stablehlo.constant dense<512> : tensor<i32> loc(#loc)
    %c_36 = stablehlo.constant dense<1> : tensor<i32> loc(#loc)
    %c_37 = stablehlo.constant dense<0> : tensor<i32> loc(#loc)
    %0 = stablehlo.slice %arg39 [0:1, 0:8] : (tensor<1x512xi32>) -> tensor<1x8xi32> loc(#loc166)
    %1 = stablehlo.iota dim = 0 : tensor<1xi32> loc(#loc245)
    %2 = stablehlo.reshape %1 : (tensor<1xi32>) -> tensor<1x1xi32> loc(#loc246)
    %3 = stablehlo.broadcast_in_dim %2, dims = [0, 1] : (tensor<1x1xi32>) -> tensor<1x8xi32> loc(#loc247)
    %4 = stablehlo.broadcast_in_dim %c_37, dims = [] : (tensor<i32>) -> tensor<1x8xi32> loc(#loc169)
    %5 = stablehlo.compare  LT, %3, %4,  SIGNED : (tensor<1x8xi32>, tensor<1x8xi32>) -> tensor<1x8xi1> loc(#loc169)
    %6 = stablehlo.broadcast_in_dim %c_36, dims = [] : (tensor<i32>) -> tensor<1x8xi32> loc(#loc170)
    %7 = stablehlo.add %3, %6 : tensor<1x8xi32> loc(#loc170)
    %8 = stablehlo.select %5, %7, %3 : tensor<1x8xi1>, tensor<1x8xi32> loc(#loc171)
    %9 = stablehlo.broadcast_in_dim %c_37, dims = [] : (tensor<i32>) -> tensor<1x8xi32> loc(#loc169)
    %10 = stablehlo.compare  LT, %0, %9,  SIGNED : (tensor<1x8xi32>, tensor<1x8xi32>) -> tensor<1x8xi1> loc(#loc169)
    %11 = stablehlo.broadcast_in_dim %c_35, dims = [] : (tensor<i32>) -> tensor<1x8xi32> loc(#loc170)
    %12 = stablehlo.add %0, %11 : tensor<1x8xi32> loc(#loc170)
    %13 = stablehlo.select %10, %12, %0 : tensor<1x8xi1>, tensor<1x8xi32> loc(#loc171)
    %14 = stablehlo.broadcast_in_dim %8, dims = [0, 1] : (tensor<1x8xi32>) -> tensor<1x8x1xi32> loc(#loc172)
    %15 = stablehlo.broadcast_in_dim %13, dims = [0, 1] : (tensor<1x8xi32>) -> tensor<1x8x1xi32> loc(#loc172)
    %16 = stablehlo.concatenate %14, %15, dim = 2 : (tensor<1x8x1xi32>, tensor<1x8x1xi32>) -> tensor<1x8x2xi32> loc(#loc173)
    %17 = "stablehlo.gather"(%arg40, %16) <{dimension_numbers = #stablehlo.gather<collapsed_slice_dims = [0, 1], start_index_map = [0, 1], index_vector_dim = 2>, slice_sizes = array<i64: 1, 1>}> : (tensor<1x512xi32>, tensor<1x8x2xi32>) -> tensor<1x8xi32> loc(#loc174)
    %18 = call @_take(%arg0, %arg41) : (tensor<30522x128xf32>, tensor<1x8xi32>) -> tensor<1x8x128xf32> loc(#loc175)
    %19 = call @_take_0(%arg2, %17) : (tensor<2x128xf32>, tensor<1x8xi32>) -> tensor<1x8x128xf32> loc(#loc175)
    %20 = stablehlo.broadcast_in_dim %cst_34, dims = [] : (tensor<f32>) -> tensor<1x8x128xf32> loc(#loc176)
    %21 = stablehlo.multiply %19, %20 : tensor<1x8x128xf32> loc(#loc176)
    %22 = stablehlo.add %18, %21 : tensor<1x8x128xf32> loc(#loc177)
    %23 = call @_take_1(%arg1, %0) : (tensor<512x128xf32>, tensor<1x8xi32>) -> tensor<1x8x128xf32> loc(#loc175)
    %24 = stablehlo.broadcast_in_dim %cst_34, dims = [] : (tensor<f32>) -> tensor<1x8x128xf32> loc(#loc176)
    %25 = stablehlo.multiply %23, %24 : tensor<1x8x128xf32> loc(#loc176)
    %26 = stablehlo.add %22, %25 : tensor<1x8x128xf32> loc(#loc177)
    %27 = stablehlo.reduce(%26 init: %cst_33) applies stablehlo.add across dimensions = [2] : (tensor<1x8x128xf32>, tensor<f32>) -> tensor<1x8xf32> loc(#loc178)
    %28 = stablehlo.broadcast_in_dim %27, dims = [0, 1] : (tensor<1x8xf32>) -> tensor<1x8x1xf32> loc(#loc179)
    %29 = stablehlo.broadcast_in_dim %cst_32, dims = [] : (tensor<f32>) -> tensor<1x8x1xf32> loc(#loc180)
    %30 = stablehlo.divide %28, %29 : tensor<1x8x1xf32> loc(#loc180)
    %31 = call @_var(%26, %c_37) : (tensor<1x8x128xf32>, tensor<i32>) -> tensor<1x8x1xf32> loc(#loc181)
    %32 = stablehlo.broadcast_in_dim %cst_31, dims = [] : (tensor<f32>) -> tensor<1x8x1xf32> loc(#loc182)
    %33 = stablehlo.add %31, %32 : tensor<1x8x1xf32> loc(#loc182)
    %34 = stablehlo.rsqrt %33 : tensor<1x8x1xf32> loc(#loc183)
    %35 = stablehlo.broadcast_in_dim %30, dims = [0, 1, 2] : (tensor<1x8x1xf32>) -> tensor<1x8x128xf32> loc(#loc184)
    %36 = stablehlo.subtract %26, %35 : tensor<1x8x128xf32> loc(#loc184)
    %37 = stablehlo.broadcast_in_dim %34, dims = [0, 1, 2] : (tensor<1x8x1xf32>) -> tensor<1x8x128xf32> loc(#loc185)
    %38 = stablehlo.multiply %36, %37 : tensor<1x8x128xf32> loc(#loc185)
    %39 = stablehlo.broadcast_in_dim %arg3, dims = [2] : (tensor<128xf32>) -> tensor<1x1x128xf32> loc(#loc186)
    %40 = stablehlo.broadcast_in_dim %39, dims = [0, 1, 2] : (tensor<1x1x128xf32>) -> tensor<1x8x128xf32> loc(#loc187)
    %41 = stablehlo.multiply %38, %40 : tensor<1x8x128xf32> loc(#loc187)
    %42 = stablehlo.broadcast_in_dim %arg4, dims = [2] : (tensor<128xf32>) -> tensor<1x1x128xf32> loc(#loc188)
    %43 = stablehlo.broadcast_in_dim %42, dims = [0, 1, 2] : (tensor<1x1x128xf32>) -> tensor<1x8x128xf32> loc(#loc189)
    %44 = stablehlo.add %41, %43 : tensor<1x8x128xf32> loc(#loc189)
    %45 = stablehlo.iota dim = 0 : tensor<8xi32> loc(#loc248)
    %46 = stablehlo.broadcast_in_dim %c_37, dims = [] : (tensor<i32>) -> tensor<8xi32> loc(#loc177)
    %47 = stablehlo.add %45, %46 : tensor<8xi32> loc(#loc177)
    %48 = stablehlo.broadcast_in_dim %47, dims = [1] : (tensor<8xi32>) -> tensor<1x8xi32> loc(#loc191)
    %49 = stablehlo.broadcast_in_dim %48, dims = [0, 2] : (tensor<1x8xi32>) -> tensor<1x1x8xi32> loc(#loc191)
    %50 = stablehlo.broadcast_in_dim %49, dims = [0, 1, 2] : (tensor<1x1x8xi32>) -> tensor<1x1x8x1xi32> loc(#loc191)
    %51 = stablehlo.broadcast_in_dim %c_37, dims = [] : (tensor<i32>) -> tensor<1x1x8x1xi32> loc(#loc192)
    %52 = stablehlo.compare  GE, %50, %51,  SIGNED : (tensor<1x1x8x1xi32>, tensor<1x1x8x1xi32>) -> tensor<1x1x8x1xi1> loc(#loc192)
    %53 = stablehlo.broadcast_in_dim %52, dims = [0, 1, 2, 3] : (tensor<1x1x8x1xi1>) -> tensor<1x1x8x8xi1> loc(#loc193)
    %54 = stablehlo.reshape %44 : (tensor<1x8x128xf32>) -> tensor<8x128xf32> loc(#loc194)
    %55 = stablehlo.transpose %arg5, dims = [1, 0] : (tensor<128x128xf32>) -> tensor<128x128xf32> loc(#loc195)
    %56 = stablehlo.broadcast_in_dim %cst_34, dims = [] : (tensor<f32>) -> tensor<128xf32> loc(#loc196)
    %57 = stablehlo.multiply %arg6, %56 : tensor<128xf32> loc(#loc196)
    %58 = stablehlo.dot_general %54, %55, contracting_dims = [1] x [0] : (tensor<8x128xf32>, tensor<128x128xf32>) -> tensor<8x128xf32> loc(#loc197)
    %59 = stablehlo.broadcast_in_dim %cst_34, dims = [] : (tensor<f32>) -> tensor<8x128xf32> loc(#loc198)
    %60 = stablehlo.multiply %59, %58 : tensor<8x128xf32> loc(#loc198)
    %61 = stablehlo.broadcast_in_dim %57, dims = [1] : (tensor<128xf32>) -> tensor<1x128xf32> loc(#loc199)
    %62 = stablehlo.broadcast_in_dim %61, dims = [0, 1] : (tensor<1x128xf32>) -> tensor<8x128xf32> loc(#loc200)
    %63 = stablehlo.add %62, %60 : tensor<8x128xf32> loc(#loc200)
    %64 = stablehlo.reshape %63 : (tensor<8x128xf32>) -> tensor<1x8x128xf32> loc(#loc194)
    %65 = stablehlo.reshape %64 : (tensor<1x8x128xf32>) -> tensor<1x8x2x64xf32> loc(#loc194)
    %66 = stablehlo.transpose %65, dims = [0, 2, 1, 3] : (tensor<1x8x2x64xf32>) -> tensor<1x2x8x64xf32> loc(#loc195)
    %67 = stablehlo.reshape %44 : (tensor<1x8x128xf32>) -> tensor<8x128xf32> loc(#loc194)
    %68 = stablehlo.transpose %arg7, dims = [1, 0] : (tensor<128x128xf32>) -> tensor<128x128xf32> loc(#loc195)
    %69 = stablehlo.broadcast_in_dim %cst_34, dims = [] : (tensor<f32>) -> tensor<128xf32> loc(#loc196)
    %70 = stablehlo.multiply %arg8, %69 : tensor<128xf32> loc(#loc196)
    %71 = stablehlo.dot_general %67, %68, contracting_dims = [1] x [0] : (tensor<8x128xf32>, tensor<128x128xf32>) -> tensor<8x128xf32> loc(#loc197)
    %72 = stablehlo.broadcast_in_dim %cst_34, dims = [] : (tensor<f32>) -> tensor<8x128xf32> loc(#loc198)
    %73 = stablehlo.multiply %72, %71 : tensor<8x128xf32> loc(#loc198)
    %74 = stablehlo.broadcast_in_dim %70, dims = [1] : (tensor<128xf32>) -> tensor<1x128xf32> loc(#loc199)
    %75 = stablehlo.broadcast_in_dim %74, dims = [0, 1] : (tensor<1x128xf32>) -> tensor<8x128xf32> loc(#loc200)
    %76 = stablehlo.add %75, %73 : tensor<8x128xf32> loc(#loc200)
    %77 = stablehlo.reshape %76 : (tensor<8x128xf32>) -> tensor<1x8x128xf32> loc(#loc194)
    %78 = stablehlo.reshape %77 : (tensor<1x8x128xf32>) -> tensor<1x8x2x64xf32> loc(#loc194)
    %79 = stablehlo.transpose %78, dims = [0, 2, 1, 3] : (tensor<1x8x2x64xf32>) -> tensor<1x2x8x64xf32> loc(#loc195)
    %80 = stablehlo.reshape %44 : (tensor<1x8x128xf32>) -> tensor<8x128xf32> loc(#loc194)
    %81 = stablehlo.transpose %arg9, dims = [1, 0] : (tensor<128x128xf32>) -> tensor<128x128xf32> loc(#loc195)
    %82 = stablehlo.broadcast_in_dim %cst_34, dims = [] : (tensor<f32>) -> tensor<128xf32> loc(#loc196)
    %83 = stablehlo.multiply %arg10, %82 : tensor<128xf32> loc(#loc196)
    %84 = stablehlo.dot_general %80, %81, contracting_dims = [1] x [0] : (tensor<8x128xf32>, tensor<128x128xf32>) -> tensor<8x128xf32> loc(#loc197)
    %85 = stablehlo.broadcast_in_dim %cst_34, dims = [] : (tensor<f32>) -> tensor<8x128xf32> loc(#loc198)
    %86 = stablehlo.multiply %85, %84 : tensor<8x128xf32> loc(#loc198)
    %87 = stablehlo.broadcast_in_dim %83, dims = [1] : (tensor<128xf32>) -> tensor<1x128xf32> loc(#loc199)
    %88 = stablehlo.broadcast_in_dim %87, dims = [0, 1] : (tensor<1x128xf32>) -> tensor<8x128xf32> loc(#loc200)
    %89 = stablehlo.add %88, %86 : tensor<8x128xf32> loc(#loc200)
    %90 = stablehlo.reshape %89 : (tensor<8x128xf32>) -> tensor<1x8x128xf32> loc(#loc194)
    %91 = stablehlo.reshape %90 : (tensor<1x8x128xf32>) -> tensor<1x8x2x64xf32> loc(#loc194)
    %92 = stablehlo.transpose %91, dims = [0, 2, 1, 3] : (tensor<1x8x2x64xf32>) -> tensor<1x2x8x64xf32> loc(#loc195)
    %93 = call @_where_3(%53, %cst_33, %cst_30) : (tensor<1x1x8x8xi1>, tensor<f32>, tensor<f32>) -> tensor<1x1x8x8xf32> loc(#loc201)
    %94 = stablehlo.broadcast_in_dim %cst_29, dims = [] : (tensor<f32>) -> tensor<1x2x8x64xf32> loc(#loc202)
    %95 = stablehlo.multiply %66, %94 : tensor<1x2x8x64xf32> loc(#loc202)
    %96 = stablehlo.transpose %79, dims = [0, 1, 3, 2] : (tensor<1x2x8x64xf32>) -> tensor<1x2x64x8xf32> loc(#loc195)
    %97 = stablehlo.broadcast_in_dim %cst_29, dims = [] : (tensor<f32>) -> tensor<1x2x64x8xf32> loc(#loc202)
    %98 = stablehlo.multiply %96, %97 : tensor<1x2x64x8xf32> loc(#loc202)
    %99 = stablehlo.reshape %95 : (tensor<1x2x8x64xf32>) -> tensor<2x8x64xf32> loc(#loc194)
    %100 = stablehlo.reshape %98 : (tensor<1x2x64x8xf32>) -> tensor<2x64x8xf32> loc(#loc194)
    %101 = stablehlo.dot_general %99, %100, batching_dims = [0] x [0], contracting_dims = [2] x [1] : (tensor<2x8x64xf32>, tensor<2x64x8xf32>) -> tensor<2x8x8xf32> loc(#loc203)
    %102 = stablehlo.reshape %101 : (tensor<2x8x8xf32>) -> tensor<1x2x8x8xf32> loc(#loc194)
    %103 = stablehlo.broadcast_in_dim %cst_34, dims = [] : (tensor<f32>) -> tensor<1x1x8x8xf32> loc(#loc176)
    %104 = stablehlo.multiply %93, %103 : tensor<1x1x8x8xf32> loc(#loc176)
    %105 = stablehlo.broadcast_in_dim %104, dims = [0, 1, 2, 3] : (tensor<1x1x8x8xf32>) -> tensor<1x2x8x8xf32> loc(#loc177)
    %106 = stablehlo.add %102, %105 : tensor<1x2x8x8xf32> loc(#loc177)
    %107 = stablehlo.reduce(%106 init: %cst_30) applies stablehlo.maximum across dimensions = [3] : (tensor<1x2x8x8xf32>, tensor<f32>) -> tensor<1x2x8xf32> loc(#loc204)
    %108 = stablehlo.broadcast_in_dim %cst_30, dims = [] : (tensor<f32>) -> tensor<1x2x8xf32> loc(#loc205)
    %109 = stablehlo.maximum %108, %107 : tensor<1x2x8xf32> loc(#loc205)
    %110 = stablehlo.broadcast_in_dim %109, dims = [0, 1, 2] : (tensor<1x2x8xf32>) -> tensor<1x2x8x1xf32> loc(#loc206)
    %111 = stablehlo.broadcast_in_dim %110, dims = [0, 1, 2, 3] : (tensor<1x2x8x1xf32>) -> tensor<1x2x8x8xf32> loc(#loc207)
    %112 = stablehlo.subtract %106, %111 : tensor<1x2x8x8xf32> loc(#loc207)
    %113 = stablehlo.exponential %112 : tensor<1x2x8x8xf32> loc(#loc208)
    %114 = stablehlo.reduce(%113 init: %cst_33) applies stablehlo.add across dimensions = [3] : (tensor<1x2x8x8xf32>, tensor<f32>) -> tensor<1x2x8xf32> loc(#loc209)
    %115 = stablehlo.broadcast_in_dim %114, dims = [0, 1, 2] : (tensor<1x2x8xf32>) -> tensor<1x2x8x1xf32> loc(#loc206)
    %116 = stablehlo.broadcast_in_dim %115, dims = [0, 1, 2, 3] : (tensor<1x2x8x1xf32>) -> tensor<1x2x8x8xf32> loc(#loc210)
    %117 = stablehlo.divide %113, %116 : tensor<1x2x8x8xf32> loc(#loc210)
    %118 = stablehlo.broadcast_in_dim %cst_30, dims = [] : (tensor<f32>) -> tensor<1x2x8x8xf32> loc(#loc211)
    %119 = stablehlo.compare  EQ, %106, %118,  FLOAT : (tensor<1x2x8x8xf32>, tensor<1x2x8x8xf32>) -> tensor<1x2x8x8xi1> loc(#loc211)
    %120 = stablehlo.not %119 : tensor<1x2x8x8xi1> loc(#loc212)
    %121 = stablehlo.reduce(%120 init: %c) applies stablehlo.or across dimensions = [3] : (tensor<1x2x8x8xi1>, tensor<i1>) -> tensor<1x2x8xi1> loc(#loc249)
    %122 = stablehlo.broadcast_in_dim %121, dims = [0, 1, 2] : (tensor<1x2x8xi1>) -> tensor<1x2x8x1xi1> loc(#loc250)
    %123 = stablehlo.not %122 : tensor<1x2x8x1xi1> loc(#loc212)
    %124 = stablehlo.broadcast_in_dim %cst_33, dims = [] : (tensor<f32>) -> tensor<1x2x8x8xf32> loc(#loc214)
    %125 = call @_where_4(%123, %124, %117) : (tensor<1x2x8x1xi1>, tensor<1x2x8x8xf32>, tensor<1x2x8x8xf32>) -> tensor<1x2x8x8xf32> loc(#loc201)
    %126 = stablehlo.reshape %125 : (tensor<1x2x8x8xf32>) -> tensor<2x8x8xf32> loc(#loc194)
    %127 = stablehlo.reshape %92 : (tensor<1x2x8x64xf32>) -> tensor<2x8x64xf32> loc(#loc194)
    %128 = stablehlo.dot_general %126, %127, batching_dims = [0] x [0], contracting_dims = [2] x [1] : (tensor<2x8x8xf32>, tensor<2x8x64xf32>) -> tensor<2x8x64xf32> loc(#loc203)
    %129 = stablehlo.reshape %128 : (tensor<2x8x64xf32>) -> tensor<1x2x8x64xf32> loc(#loc194)
    %130 = stablehlo.transpose %129, dims = [2, 0, 1, 3] : (tensor<1x2x8x64xf32>) -> tensor<8x1x2x64xf32> loc(#loc195)
    %131 = stablehlo.transpose %130, dims = [1, 2, 0, 3] : (tensor<8x1x2x64xf32>) -> tensor<1x2x8x64xf32> loc(#loc195)
    %132 = stablehlo.transpose %131, dims = [0, 2, 1, 3] : (tensor<1x2x8x64xf32>) -> tensor<1x8x2x64xf32> loc(#loc195)
    %133 = stablehlo.reshape %132 : (tensor<1x8x2x64xf32>) -> tensor<1x8x128xf32> loc(#loc194)
    %134 = stablehlo.reshape %133 : (tensor<1x8x128xf32>) -> tensor<8x128xf32> loc(#loc194)
    %135 = stablehlo.transpose %arg11, dims = [1, 0] : (tensor<128x128xf32>) -> tensor<128x128xf32> loc(#loc195)
    %136 = stablehlo.broadcast_in_dim %cst_34, dims = [] : (tensor<f32>) -> tensor<128xf32> loc(#loc196)
    %137 = stablehlo.multiply %arg12, %136 : tensor<128xf32> loc(#loc196)
    %138 = stablehlo.dot_general %134, %135, contracting_dims = [1] x [0] : (tensor<8x128xf32>, tensor<128x128xf32>) -> tensor<8x128xf32> loc(#loc197)
    %139 = stablehlo.broadcast_in_dim %cst_34, dims = [] : (tensor<f32>) -> tensor<8x128xf32> loc(#loc198)
    %140 = stablehlo.multiply %139, %138 : tensor<8x128xf32> loc(#loc198)
    %141 = stablehlo.broadcast_in_dim %137, dims = [1] : (tensor<128xf32>) -> tensor<1x128xf32> loc(#loc199)
    %142 = stablehlo.broadcast_in_dim %141, dims = [0, 1] : (tensor<1x128xf32>) -> tensor<8x128xf32> loc(#loc200)
    %143 = stablehlo.add %142, %140 : tensor<8x128xf32> loc(#loc200)
    %144 = stablehlo.reshape %143 : (tensor<8x128xf32>) -> tensor<1x8x128xf32> loc(#loc194)
    %145 = stablehlo.broadcast_in_dim %cst_34, dims = [] : (tensor<f32>) -> tensor<1x8x128xf32> loc(#loc176)
    %146 = stablehlo.multiply %44, %145 : tensor<1x8x128xf32> loc(#loc176)
    %147 = stablehlo.add %144, %146 : tensor<1x8x128xf32> loc(#loc177)
    %148 = stablehlo.reduce(%147 init: %cst_33) applies stablehlo.add across dimensions = [2] : (tensor<1x8x128xf32>, tensor<f32>) -> tensor<1x8xf32> loc(#loc178)
    %149 = stablehlo.broadcast_in_dim %148, dims = [0, 1] : (tensor<1x8xf32>) -> tensor<1x8x1xf32> loc(#loc179)
    %150 = stablehlo.broadcast_in_dim %cst_32, dims = [] : (tensor<f32>) -> tensor<1x8x1xf32> loc(#loc180)
    %151 = stablehlo.divide %149, %150 : tensor<1x8x1xf32> loc(#loc180)
    %152 = call @_var(%147, %c_37) : (tensor<1x8x128xf32>, tensor<i32>) -> tensor<1x8x1xf32> loc(#loc181)
    %153 = stablehlo.broadcast_in_dim %cst_31, dims = [] : (tensor<f32>) -> tensor<1x8x1xf32> loc(#loc182)
    %154 = stablehlo.add %152, %153 : tensor<1x8x1xf32> loc(#loc182)
    %155 = stablehlo.rsqrt %154 : tensor<1x8x1xf32> loc(#loc183)
    %156 = stablehlo.broadcast_in_dim %151, dims = [0, 1, 2] : (tensor<1x8x1xf32>) -> tensor<1x8x128xf32> loc(#loc184)
    %157 = stablehlo.subtract %147, %156 : tensor<1x8x128xf32> loc(#loc184)
    %158 = stablehlo.broadcast_in_dim %155, dims = [0, 1, 2] : (tensor<1x8x1xf32>) -> tensor<1x8x128xf32> loc(#loc185)
    %159 = stablehlo.multiply %157, %158 : tensor<1x8x128xf32> loc(#loc185)
    %160 = stablehlo.broadcast_in_dim %arg13, dims = [2] : (tensor<128xf32>) -> tensor<1x1x128xf32> loc(#loc186)
    %161 = stablehlo.broadcast_in_dim %160, dims = [0, 1, 2] : (tensor<1x1x128xf32>) -> tensor<1x8x128xf32> loc(#loc187)
    %162 = stablehlo.multiply %159, %161 : tensor<1x8x128xf32> loc(#loc187)
    %163 = stablehlo.broadcast_in_dim %arg14, dims = [2] : (tensor<128xf32>) -> tensor<1x1x128xf32> loc(#loc188)
    %164 = stablehlo.broadcast_in_dim %163, dims = [0, 1, 2] : (tensor<1x1x128xf32>) -> tensor<1x8x128xf32> loc(#loc189)
    %165 = stablehlo.add %162, %164 : tensor<1x8x128xf32> loc(#loc189)
    %166 = stablehlo.reshape %165 : (tensor<1x8x128xf32>) -> tensor<8x128xf32> loc(#loc194)
    %167 = stablehlo.transpose %arg15, dims = [1, 0] : (tensor<512x128xf32>) -> tensor<128x512xf32> loc(#loc195)
    %168 = stablehlo.broadcast_in_dim %cst_34, dims = [] : (tensor<f32>) -> tensor<512xf32> loc(#loc196)
    %169 = stablehlo.multiply %arg16, %168 : tensor<512xf32> loc(#loc196)
    %170 = stablehlo.dot_general %166, %167, contracting_dims = [1] x [0] : (tensor<8x128xf32>, tensor<128x512xf32>) -> tensor<8x512xf32> loc(#loc197)
    %171 = stablehlo.broadcast_in_dim %cst_34, dims = [] : (tensor<f32>) -> tensor<8x512xf32> loc(#loc198)
    %172 = stablehlo.multiply %171, %170 : tensor<8x512xf32> loc(#loc198)
    %173 = stablehlo.broadcast_in_dim %169, dims = [1] : (tensor<512xf32>) -> tensor<1x512xf32> loc(#loc199)
    %174 = stablehlo.broadcast_in_dim %173, dims = [0, 1] : (tensor<1x512xf32>) -> tensor<8x512xf32> loc(#loc200)
    %175 = stablehlo.add %174, %172 : tensor<8x512xf32> loc(#loc200)
    %176 = stablehlo.reshape %175 : (tensor<8x512xf32>) -> tensor<1x8x512xf32> loc(#loc194)
    %177 = stablehlo.broadcast_in_dim %cst_28, dims = [] : (tensor<f32>) -> tensor<1x8x512xf32> loc(#loc215)
    %178 = stablehlo.multiply %177, %176 : tensor<1x8x512xf32> loc(#loc215)
    %179 = stablehlo.negate %176 : tensor<1x8x512xf32> loc(#loc216)
    %180 = stablehlo.broadcast_in_dim %cst_27, dims = [] : (tensor<f32>) -> tensor<1x8x512xf32> loc(#loc215)
    %181 = stablehlo.multiply %179, %180 : tensor<1x8x512xf32> loc(#loc215)
    %182 = stablehlo.multiply %181, %181 : tensor<1x8x512xf32> loc(#loc217)
    %183 = stablehlo.negate %182 : tensor<1x8x512xf32> loc(#loc217)
    %184 = stablehlo.abs %181 : tensor<1x8x512xf32> loc(#loc217)
    %185 = stablehlo.divide %cst_26, %182 : tensor<1x8x512xf32> loc(#loc217)
    %186 = stablehlo.exponential %183 : tensor<1x8x512xf32> loc(#loc217)
    %187 = stablehlo.divide %cst_26, %184 : tensor<1x8x512xf32> loc(#loc217)
    %188 = stablehlo.multiply %186, %187 : tensor<1x8x512xf32> loc(#loc217)
    %189 = stablehlo.compare  LT, %184, %cst_25 : (tensor<1x8x512xf32>, tensor<1x8x512xf32>) -> tensor<1x8x512xi1> loc(#loc217)
    %190 = stablehlo.multiply %cst_24, %185 : tensor<1x8x512xf32> loc(#loc217)
    %191 = stablehlo.add %190, %cst_23 : tensor<1x8x512xf32> loc(#loc217)
    %192 = stablehlo.multiply %191, %185 : tensor<1x8x512xf32> loc(#loc217)
    %193 = stablehlo.add %192, %cst_22 : tensor<1x8x512xf32> loc(#loc217)
    %194 = stablehlo.multiply %193, %185 : tensor<1x8x512xf32> loc(#loc217)
    %195 = stablehlo.add %194, %cst_21 : tensor<1x8x512xf32> loc(#loc217)
    %196 = stablehlo.multiply %195, %185 : tensor<1x8x512xf32> loc(#loc217)
    %197 = stablehlo.add %196, %cst_20 : tensor<1x8x512xf32> loc(#loc217)
    %198 = stablehlo.multiply %197, %185 : tensor<1x8x512xf32> loc(#loc217)
    %199 = stablehlo.add %198, %cst_19 : tensor<1x8x512xf32> loc(#loc217)
    %200 = stablehlo.multiply %199, %185 : tensor<1x8x512xf32> loc(#loc217)
    %201 = stablehlo.add %200, %cst_18 : tensor<1x8x512xf32> loc(#loc217)
    %202 = stablehlo.multiply %201, %185 : tensor<1x8x512xf32> loc(#loc217)
    %203 = stablehlo.add %202, %cst_17 : tensor<1x8x512xf32> loc(#loc217)
    %204 = stablehlo.multiply %203, %185 : tensor<1x8x512xf32> loc(#loc217)
    %205 = stablehlo.add %204, %cst_16 : tensor<1x8x512xf32> loc(#loc217)
    %206 = stablehlo.multiply %cst_15, %185 : tensor<1x8x512xf32> loc(#loc217)
    %207 = stablehlo.add %206, %cst_14 : tensor<1x8x512xf32> loc(#loc217)
    %208 = stablehlo.multiply %207, %185 : tensor<1x8x512xf32> loc(#loc217)
    %209 = stablehlo.add %208, %cst_13 : tensor<1x8x512xf32> loc(#loc217)
    %210 = stablehlo.multiply %209, %185 : tensor<1x8x512xf32> loc(#loc217)
    %211 = stablehlo.add %210, %cst_12 : tensor<1x8x512xf32> loc(#loc217)
    %212 = stablehlo.multiply %211, %185 : tensor<1x8x512xf32> loc(#loc217)
    %213 = stablehlo.add %212, %cst_11 : tensor<1x8x512xf32> loc(#loc217)
    %214 = stablehlo.multiply %213, %185 : tensor<1x8x512xf32> loc(#loc217)
    %215 = stablehlo.add %214, %cst_10 : tensor<1x8x512xf32> loc(#loc217)
    %216 = stablehlo.multiply %215, %185 : tensor<1x8x512xf32> loc(#loc217)
    %217 = stablehlo.add %216, %cst_9 : tensor<1x8x512xf32> loc(#loc217)
    %218 = stablehlo.multiply %217, %185 : tensor<1x8x512xf32> loc(#loc217)
    %219 = stablehlo.add %218, %cst_8 : tensor<1x8x512xf32> loc(#loc217)
    %220 = stablehlo.select %189, %205, %219 : tensor<1x8x512xi1>, tensor<1x8x512xf32> loc(#loc217)
    %221 = stablehlo.multiply %188, %220 : tensor<1x8x512xf32> loc(#loc217)
    %222 = stablehlo.compare  LT, %183, %cst_7 : (tensor<1x8x512xf32>, tensor<1x8x512xf32>) -> tensor<1x8x512xi1> loc(#loc217)
    %223 = stablehlo.select %222, %cst_6, %221 : tensor<1x8x512xi1>, tensor<1x8x512xf32> loc(#loc217)
    %224 = stablehlo.compare  LT, %181, %cst_6 : (tensor<1x8x512xf32>, tensor<1x8x512xf32>) -> tensor<1x8x512xi1> loc(#loc217)
    %225 = stablehlo.subtract %cst_25, %223 : tensor<1x8x512xf32> loc(#loc217)
    %226 = stablehlo.select %224, %225, %223 : tensor<1x8x512xi1>, tensor<1x8x512xf32> loc(#loc217)
    %227 = stablehlo.multiply %181, %181 : tensor<1x8x512xf32> loc(#loc217)
    %228 = stablehlo.multiply %cst_5, %227 : tensor<1x8x512xf32> loc(#loc217)
    %229 = stablehlo.add %228, %cst_4 : tensor<1x8x512xf32> loc(#loc217)
    %230 = stablehlo.multiply %229, %227 : tensor<1x8x512xf32> loc(#loc217)
    %231 = stablehlo.add %230, %cst_3 : tensor<1x8x512xf32> loc(#loc217)
    %232 = stablehlo.multiply %231, %227 : tensor<1x8x512xf32> loc(#loc217)
    %233 = stablehlo.add %232, %cst_2 : tensor<1x8x512xf32> loc(#loc217)
    %234 = stablehlo.multiply %233, %227 : tensor<1x8x512xf32> loc(#loc217)
    %235 = stablehlo.add %234, %cst_1 : tensor<1x8x512xf32> loc(#loc217)
    %236 = stablehlo.multiply %235, %227 : tensor<1x8x512xf32> loc(#loc217)
    %237 = stablehlo.add %236, %cst_0 : tensor<1x8x512xf32> loc(#loc217)
    %238 = stablehlo.multiply %237, %227 : tensor<1x8x512xf32> loc(#loc217)
    %239 = stablehlo.add %238, %cst : tensor<1x8x512xf32> loc(#loc217)
    %240 = stablehlo.multiply %181, %239 : tensor<1x8x512xf32> loc(#loc217)
    %241 = stablehlo.subtract %cst_26, %240 : tensor<1x8x512xf32> loc(#loc217)
    %242 = stablehlo.abs %181 : tensor<1x8x512xf32> loc(#loc217)
    %243 = stablehlo.compare  LT, %242, %cst_26 : (tensor<1x8x512xf32>, tensor<1x8x512xf32>) -> tensor<1x8x512xi1> loc(#loc217)
    %244 = stablehlo.select %243, %241, %226 : tensor<1x8x512xi1>, tensor<1x8x512xf32> loc(#loc217)
    %245 = stablehlo.multiply %178, %244 : tensor<1x8x512xf32> loc(#loc215)
    %246 = stablehlo.reshape %245 : (tensor<1x8x512xf32>) -> tensor<8x512xf32> loc(#loc194)
    %247 = stablehlo.transpose %arg17, dims = [1, 0] : (tensor<128x512xf32>) -> tensor<512x128xf32> loc(#loc195)
    %248 = stablehlo.broadcast_in_dim %cst_34, dims = [] : (tensor<f32>) -> tensor<128xf32> loc(#loc196)
    %249 = stablehlo.multiply %arg18, %248 : tensor<128xf32> loc(#loc196)
    %250 = stablehlo.dot_general %246, %247, contracting_dims = [1] x [0] : (tensor<8x512xf32>, tensor<512x128xf32>) -> tensor<8x128xf32> loc(#loc197)
    %251 = stablehlo.broadcast_in_dim %cst_34, dims = [] : (tensor<f32>) -> tensor<8x128xf32> loc(#loc198)
    %252 = stablehlo.multiply %251, %250 : tensor<8x128xf32> loc(#loc198)
    %253 = stablehlo.broadcast_in_dim %249, dims = [1] : (tensor<128xf32>) -> tensor<1x128xf32> loc(#loc199)
    %254 = stablehlo.broadcast_in_dim %253, dims = [0, 1] : (tensor<1x128xf32>) -> tensor<8x128xf32> loc(#loc200)
    %255 = stablehlo.add %254, %252 : tensor<8x128xf32> loc(#loc200)
    %256 = stablehlo.reshape %255 : (tensor<8x128xf32>) -> tensor<1x8x128xf32> loc(#loc194)
    %257 = stablehlo.broadcast_in_dim %cst_34, dims = [] : (tensor<f32>) -> tensor<1x8x128xf32> loc(#loc176)
    %258 = stablehlo.multiply %165, %257 : tensor<1x8x128xf32> loc(#loc176)
    %259 = stablehlo.add %256, %258 : tensor<1x8x128xf32> loc(#loc177)
    %260 = stablehlo.reduce(%259 init: %cst_33) applies stablehlo.add across dimensions = [2] : (tensor<1x8x128xf32>, tensor<f32>) -> tensor<1x8xf32> loc(#loc178)
    %261 = stablehlo.broadcast_in_dim %260, dims = [0, 1] : (tensor<1x8xf32>) -> tensor<1x8x1xf32> loc(#loc179)
    %262 = stablehlo.broadcast_in_dim %cst_32, dims = [] : (tensor<f32>) -> tensor<1x8x1xf32> loc(#loc180)
    %263 = stablehlo.divide %261, %262 : tensor<1x8x1xf32> loc(#loc180)
    %264 = call @_var(%259, %c_37) : (tensor<1x8x128xf32>, tensor<i32>) -> tensor<1x8x1xf32> loc(#loc181)
    %265 = stablehlo.broadcast_in_dim %cst_31, dims = [] : (tensor<f32>) -> tensor<1x8x1xf32> loc(#loc182)
    %266 = stablehlo.add %264, %265 : tensor<1x8x1xf32> loc(#loc182)
    %267 = stablehlo.rsqrt %266 : tensor<1x8x1xf32> loc(#loc183)
    %268 = stablehlo.broadcast_in_dim %263, dims = [0, 1, 2] : (tensor<1x8x1xf32>) -> tensor<1x8x128xf32> loc(#loc184)
    %269 = stablehlo.subtract %259, %268 : tensor<1x8x128xf32> loc(#loc184)
    %270 = stablehlo.broadcast_in_dim %267, dims = [0, 1, 2] : (tensor<1x8x1xf32>) -> tensor<1x8x128xf32> loc(#loc185)
    %271 = stablehlo.multiply %269, %270 : tensor<1x8x128xf32> loc(#loc185)
    %272 = stablehlo.broadcast_in_dim %arg19, dims = [2] : (tensor<128xf32>) -> tensor<1x1x128xf32> loc(#loc186)
    %273 = stablehlo.broadcast_in_dim %272, dims = [0, 1, 2] : (tensor<1x1x128xf32>) -> tensor<1x8x128xf32> loc(#loc187)
    %274 = stablehlo.multiply %271, %273 : tensor<1x8x128xf32> loc(#loc187)
    %275 = stablehlo.broadcast_in_dim %arg20, dims = [2] : (tensor<128xf32>) -> tensor<1x1x128xf32> loc(#loc188)
    %276 = stablehlo.broadcast_in_dim %275, dims = [0, 1, 2] : (tensor<1x1x128xf32>) -> tensor<1x8x128xf32> loc(#loc189)
    %277 = stablehlo.add %274, %276 : tensor<1x8x128xf32> loc(#loc189)
    %278 = stablehlo.reshape %277 : (tensor<1x8x128xf32>) -> tensor<8x128xf32> loc(#loc194)
    %279 = stablehlo.transpose %arg21, dims = [1, 0] : (tensor<128x128xf32>) -> tensor<128x128xf32> loc(#loc195)
    %280 = stablehlo.broadcast_in_dim %cst_34, dims = [] : (tensor<f32>) -> tensor<128xf32> loc(#loc196)
    %281 = stablehlo.multiply %arg22, %280 : tensor<128xf32> loc(#loc196)
    %282 = stablehlo.dot_general %278, %279, contracting_dims = [1] x [0] : (tensor<8x128xf32>, tensor<128x128xf32>) -> tensor<8x128xf32> loc(#loc197)
    %283 = stablehlo.broadcast_in_dim %cst_34, dims = [] : (tensor<f32>) -> tensor<8x128xf32> loc(#loc198)
    %284 = stablehlo.multiply %283, %282 : tensor<8x128xf32> loc(#loc198)
    %285 = stablehlo.broadcast_in_dim %281, dims = [1] : (tensor<128xf32>) -> tensor<1x128xf32> loc(#loc199)
    %286 = stablehlo.broadcast_in_dim %285, dims = [0, 1] : (tensor<1x128xf32>) -> tensor<8x128xf32> loc(#loc200)
    %287 = stablehlo.add %286, %284 : tensor<8x128xf32> loc(#loc200)
    %288 = stablehlo.reshape %287 : (tensor<8x128xf32>) -> tensor<1x8x128xf32> loc(#loc194)
    %289 = stablehlo.reshape %288 : (tensor<1x8x128xf32>) -> tensor<1x8x2x64xf32> loc(#loc194)
    %290 = stablehlo.transpose %289, dims = [0, 2, 1, 3] : (tensor<1x8x2x64xf32>) -> tensor<1x2x8x64xf32> loc(#loc195)
    %291 = stablehlo.reshape %277 : (tensor<1x8x128xf32>) -> tensor<8x128xf32> loc(#loc194)
    %292 = stablehlo.transpose %arg23, dims = [1, 0] : (tensor<128x128xf32>) -> tensor<128x128xf32> loc(#loc195)
    %293 = stablehlo.broadcast_in_dim %cst_34, dims = [] : (tensor<f32>) -> tensor<128xf32> loc(#loc196)
    %294 = stablehlo.multiply %arg24, %293 : tensor<128xf32> loc(#loc196)
    %295 = stablehlo.dot_general %291, %292, contracting_dims = [1] x [0] : (tensor<8x128xf32>, tensor<128x128xf32>) -> tensor<8x128xf32> loc(#loc197)
    %296 = stablehlo.broadcast_in_dim %cst_34, dims = [] : (tensor<f32>) -> tensor<8x128xf32> loc(#loc198)
    %297 = stablehlo.multiply %296, %295 : tensor<8x128xf32> loc(#loc198)
    %298 = stablehlo.broadcast_in_dim %294, dims = [1] : (tensor<128xf32>) -> tensor<1x128xf32> loc(#loc199)
    %299 = stablehlo.broadcast_in_dim %298, dims = [0, 1] : (tensor<1x128xf32>) -> tensor<8x128xf32> loc(#loc200)
    %300 = stablehlo.add %299, %297 : tensor<8x128xf32> loc(#loc200)
    %301 = stablehlo.reshape %300 : (tensor<8x128xf32>) -> tensor<1x8x128xf32> loc(#loc194)
    %302 = stablehlo.reshape %301 : (tensor<1x8x128xf32>) -> tensor<1x8x2x64xf32> loc(#loc194)
    %303 = stablehlo.transpose %302, dims = [0, 2, 1, 3] : (tensor<1x8x2x64xf32>) -> tensor<1x2x8x64xf32> loc(#loc195)
    %304 = stablehlo.reshape %277 : (tensor<1x8x128xf32>) -> tensor<8x128xf32> loc(#loc194)
    %305 = stablehlo.transpose %arg25, dims = [1, 0] : (tensor<128x128xf32>) -> tensor<128x128xf32> loc(#loc195)
    %306 = stablehlo.broadcast_in_dim %cst_34, dims = [] : (tensor<f32>) -> tensor<128xf32> loc(#loc196)
    %307 = stablehlo.multiply %arg26, %306 : tensor<128xf32> loc(#loc196)
    %308 = stablehlo.dot_general %304, %305, contracting_dims = [1] x [0] : (tensor<8x128xf32>, tensor<128x128xf32>) -> tensor<8x128xf32> loc(#loc197)
    %309 = stablehlo.broadcast_in_dim %cst_34, dims = [] : (tensor<f32>) -> tensor<8x128xf32> loc(#loc198)
    %310 = stablehlo.multiply %309, %308 : tensor<8x128xf32> loc(#loc198)
    %311 = stablehlo.broadcast_in_dim %307, dims = [1] : (tensor<128xf32>) -> tensor<1x128xf32> loc(#loc199)
    %312 = stablehlo.broadcast_in_dim %311, dims = [0, 1] : (tensor<1x128xf32>) -> tensor<8x128xf32> loc(#loc200)
    %313 = stablehlo.add %312, %310 : tensor<8x128xf32> loc(#loc200)
    %314 = stablehlo.reshape %313 : (tensor<8x128xf32>) -> tensor<1x8x128xf32> loc(#loc194)
    %315 = stablehlo.reshape %314 : (tensor<1x8x128xf32>) -> tensor<1x8x2x64xf32> loc(#loc194)
    %316 = stablehlo.transpose %315, dims = [0, 2, 1, 3] : (tensor<1x8x2x64xf32>) -> tensor<1x2x8x64xf32> loc(#loc195)
    %317 = call @_where_3(%53, %cst_33, %cst_30) : (tensor<1x1x8x8xi1>, tensor<f32>, tensor<f32>) -> tensor<1x1x8x8xf32> loc(#loc201)
    %318 = stablehlo.broadcast_in_dim %cst_29, dims = [] : (tensor<f32>) -> tensor<1x2x8x64xf32> loc(#loc202)
    %319 = stablehlo.multiply %290, %318 : tensor<1x2x8x64xf32> loc(#loc202)
    %320 = stablehlo.transpose %303, dims = [0, 1, 3, 2] : (tensor<1x2x8x64xf32>) -> tensor<1x2x64x8xf32> loc(#loc195)
    %321 = stablehlo.broadcast_in_dim %cst_29, dims = [] : (tensor<f32>) -> tensor<1x2x64x8xf32> loc(#loc202)
    %322 = stablehlo.multiply %320, %321 : tensor<1x2x64x8xf32> loc(#loc202)
    %323 = stablehlo.reshape %319 : (tensor<1x2x8x64xf32>) -> tensor<2x8x64xf32> loc(#loc194)
    %324 = stablehlo.reshape %322 : (tensor<1x2x64x8xf32>) -> tensor<2x64x8xf32> loc(#loc194)
    %325 = stablehlo.dot_general %323, %324, batching_dims = [0] x [0], contracting_dims = [2] x [1] : (tensor<2x8x64xf32>, tensor<2x64x8xf32>) -> tensor<2x8x8xf32> loc(#loc203)
    %326 = stablehlo.reshape %325 : (tensor<2x8x8xf32>) -> tensor<1x2x8x8xf32> loc(#loc194)
    %327 = stablehlo.broadcast_in_dim %cst_34, dims = [] : (tensor<f32>) -> tensor<1x1x8x8xf32> loc(#loc176)
    %328 = stablehlo.multiply %317, %327 : tensor<1x1x8x8xf32> loc(#loc176)
    %329 = stablehlo.broadcast_in_dim %328, dims = [0, 1, 2, 3] : (tensor<1x1x8x8xf32>) -> tensor<1x2x8x8xf32> loc(#loc177)
    %330 = stablehlo.add %326, %329 : tensor<1x2x8x8xf32> loc(#loc177)
    %331 = stablehlo.reduce(%330 init: %cst_30) applies stablehlo.maximum across dimensions = [3] : (tensor<1x2x8x8xf32>, tensor<f32>) -> tensor<1x2x8xf32> loc(#loc204)
    %332 = stablehlo.broadcast_in_dim %cst_30, dims = [] : (tensor<f32>) -> tensor<1x2x8xf32> loc(#loc205)
    %333 = stablehlo.maximum %332, %331 : tensor<1x2x8xf32> loc(#loc205)
    %334 = stablehlo.broadcast_in_dim %333, dims = [0, 1, 2] : (tensor<1x2x8xf32>) -> tensor<1x2x8x1xf32> loc(#loc206)
    %335 = stablehlo.broadcast_in_dim %334, dims = [0, 1, 2, 3] : (tensor<1x2x8x1xf32>) -> tensor<1x2x8x8xf32> loc(#loc207)
    %336 = stablehlo.subtract %330, %335 : tensor<1x2x8x8xf32> loc(#loc207)
    %337 = stablehlo.exponential %336 : tensor<1x2x8x8xf32> loc(#loc208)
    %338 = stablehlo.reduce(%337 init: %cst_33) applies stablehlo.add across dimensions = [3] : (tensor<1x2x8x8xf32>, tensor<f32>) -> tensor<1x2x8xf32> loc(#loc209)
    %339 = stablehlo.broadcast_in_dim %338, dims = [0, 1, 2] : (tensor<1x2x8xf32>) -> tensor<1x2x8x1xf32> loc(#loc206)
    %340 = stablehlo.broadcast_in_dim %339, dims = [0, 1, 2, 3] : (tensor<1x2x8x1xf32>) -> tensor<1x2x8x8xf32> loc(#loc210)
    %341 = stablehlo.divide %337, %340 : tensor<1x2x8x8xf32> loc(#loc210)
    %342 = stablehlo.broadcast_in_dim %cst_30, dims = [] : (tensor<f32>) -> tensor<1x2x8x8xf32> loc(#loc211)
    %343 = stablehlo.compare  EQ, %330, %342,  FLOAT : (tensor<1x2x8x8xf32>, tensor<1x2x8x8xf32>) -> tensor<1x2x8x8xi1> loc(#loc211)
    %344 = stablehlo.not %343 : tensor<1x2x8x8xi1> loc(#loc212)
    %345 = stablehlo.reduce(%344 init: %c) applies stablehlo.or across dimensions = [3] : (tensor<1x2x8x8xi1>, tensor<i1>) -> tensor<1x2x8xi1> loc(#loc249)
    %346 = stablehlo.broadcast_in_dim %345, dims = [0, 1, 2] : (tensor<1x2x8xi1>) -> tensor<1x2x8x1xi1> loc(#loc250)
    %347 = stablehlo.not %346 : tensor<1x2x8x1xi1> loc(#loc212)
    %348 = stablehlo.broadcast_in_dim %cst_33, dims = [] : (tensor<f32>) -> tensor<1x2x8x8xf32> loc(#loc214)
    %349 = call @_where_4(%347, %348, %341) : (tensor<1x2x8x1xi1>, tensor<1x2x8x8xf32>, tensor<1x2x8x8xf32>) -> tensor<1x2x8x8xf32> loc(#loc201)
    %350 = stablehlo.reshape %349 : (tensor<1x2x8x8xf32>) -> tensor<2x8x8xf32> loc(#loc194)
    %351 = stablehlo.reshape %316 : (tensor<1x2x8x64xf32>) -> tensor<2x8x64xf32> loc(#loc194)
    %352 = stablehlo.dot_general %350, %351, batching_dims = [0] x [0], contracting_dims = [2] x [1] : (tensor<2x8x8xf32>, tensor<2x8x64xf32>) -> tensor<2x8x64xf32> loc(#loc203)
    %353 = stablehlo.reshape %352 : (tensor<2x8x64xf32>) -> tensor<1x2x8x64xf32> loc(#loc194)
    %354 = stablehlo.transpose %353, dims = [2, 0, 1, 3] : (tensor<1x2x8x64xf32>) -> tensor<8x1x2x64xf32> loc(#loc195)
    %355 = stablehlo.transpose %354, dims = [1, 2, 0, 3] : (tensor<8x1x2x64xf32>) -> tensor<1x2x8x64xf32> loc(#loc195)
    %356 = stablehlo.transpose %355, dims = [0, 2, 1, 3] : (tensor<1x2x8x64xf32>) -> tensor<1x8x2x64xf32> loc(#loc195)
    %357 = stablehlo.reshape %356 : (tensor<1x8x2x64xf32>) -> tensor<1x8x128xf32> loc(#loc194)
    %358 = stablehlo.reshape %357 : (tensor<1x8x128xf32>) -> tensor<8x128xf32> loc(#loc194)
    %359 = stablehlo.transpose %arg27, dims = [1, 0] : (tensor<128x128xf32>) -> tensor<128x128xf32> loc(#loc195)
    %360 = stablehlo.broadcast_in_dim %cst_34, dims = [] : (tensor<f32>) -> tensor<128xf32> loc(#loc196)
    %361 = stablehlo.multiply %arg28, %360 : tensor<128xf32> loc(#loc196)
    %362 = stablehlo.dot_general %358, %359, contracting_dims = [1] x [0] : (tensor<8x128xf32>, tensor<128x128xf32>) -> tensor<8x128xf32> loc(#loc197)
    %363 = stablehlo.broadcast_in_dim %cst_34, dims = [] : (tensor<f32>) -> tensor<8x128xf32> loc(#loc198)
    %364 = stablehlo.multiply %363, %362 : tensor<8x128xf32> loc(#loc198)
    %365 = stablehlo.broadcast_in_dim %361, dims = [1] : (tensor<128xf32>) -> tensor<1x128xf32> loc(#loc199)
    %366 = stablehlo.broadcast_in_dim %365, dims = [0, 1] : (tensor<1x128xf32>) -> tensor<8x128xf32> loc(#loc200)
    %367 = stablehlo.add %366, %364 : tensor<8x128xf32> loc(#loc200)
    %368 = stablehlo.reshape %367 : (tensor<8x128xf32>) -> tensor<1x8x128xf32> loc(#loc194)
    %369 = stablehlo.broadcast_in_dim %cst_34, dims = [] : (tensor<f32>) -> tensor<1x8x128xf32> loc(#loc176)
    %370 = stablehlo.multiply %277, %369 : tensor<1x8x128xf32> loc(#loc176)
    %371 = stablehlo.add %368, %370 : tensor<1x8x128xf32> loc(#loc177)
    %372 = stablehlo.reduce(%371 init: %cst_33) applies stablehlo.add across dimensions = [2] : (tensor<1x8x128xf32>, tensor<f32>) -> tensor<1x8xf32> loc(#loc178)
    %373 = stablehlo.broadcast_in_dim %372, dims = [0, 1] : (tensor<1x8xf32>) -> tensor<1x8x1xf32> loc(#loc179)
    %374 = stablehlo.broadcast_in_dim %cst_32, dims = [] : (tensor<f32>) -> tensor<1x8x1xf32> loc(#loc180)
    %375 = stablehlo.divide %373, %374 : tensor<1x8x1xf32> loc(#loc180)
    %376 = call @_var(%371, %c_37) : (tensor<1x8x128xf32>, tensor<i32>) -> tensor<1x8x1xf32> loc(#loc181)
    %377 = stablehlo.broadcast_in_dim %cst_31, dims = [] : (tensor<f32>) -> tensor<1x8x1xf32> loc(#loc182)
    %378 = stablehlo.add %376, %377 : tensor<1x8x1xf32> loc(#loc182)
    %379 = stablehlo.rsqrt %378 : tensor<1x8x1xf32> loc(#loc183)
    %380 = stablehlo.broadcast_in_dim %375, dims = [0, 1, 2] : (tensor<1x8x1xf32>) -> tensor<1x8x128xf32> loc(#loc184)
    %381 = stablehlo.subtract %371, %380 : tensor<1x8x128xf32> loc(#loc184)
    %382 = stablehlo.broadcast_in_dim %379, dims = [0, 1, 2] : (tensor<1x8x1xf32>) -> tensor<1x8x128xf32> loc(#loc185)
    %383 = stablehlo.multiply %381, %382 : tensor<1x8x128xf32> loc(#loc185)
    %384 = stablehlo.broadcast_in_dim %arg29, dims = [2] : (tensor<128xf32>) -> tensor<1x1x128xf32> loc(#loc186)
    %385 = stablehlo.broadcast_in_dim %384, dims = [0, 1, 2] : (tensor<1x1x128xf32>) -> tensor<1x8x128xf32> loc(#loc187)
    %386 = stablehlo.multiply %383, %385 : tensor<1x8x128xf32> loc(#loc187)
    %387 = stablehlo.broadcast_in_dim %arg30, dims = [2] : (tensor<128xf32>) -> tensor<1x1x128xf32> loc(#loc188)
    %388 = stablehlo.broadcast_in_dim %387, dims = [0, 1, 2] : (tensor<1x1x128xf32>) -> tensor<1x8x128xf32> loc(#loc189)
    %389 = stablehlo.add %386, %388 : tensor<1x8x128xf32> loc(#loc189)
    %390 = stablehlo.reshape %389 : (tensor<1x8x128xf32>) -> tensor<8x128xf32> loc(#loc194)
    %391 = stablehlo.transpose %arg31, dims = [1, 0] : (tensor<512x128xf32>) -> tensor<128x512xf32> loc(#loc195)
    %392 = stablehlo.broadcast_in_dim %cst_34, dims = [] : (tensor<f32>) -> tensor<512xf32> loc(#loc196)
    %393 = stablehlo.multiply %arg32, %392 : tensor<512xf32> loc(#loc196)
    %394 = stablehlo.dot_general %390, %391, contracting_dims = [1] x [0] : (tensor<8x128xf32>, tensor<128x512xf32>) -> tensor<8x512xf32> loc(#loc197)
    %395 = stablehlo.broadcast_in_dim %cst_34, dims = [] : (tensor<f32>) -> tensor<8x512xf32> loc(#loc198)
    %396 = stablehlo.multiply %395, %394 : tensor<8x512xf32> loc(#loc198)
    %397 = stablehlo.broadcast_in_dim %393, dims = [1] : (tensor<512xf32>) -> tensor<1x512xf32> loc(#loc199)
    %398 = stablehlo.broadcast_in_dim %397, dims = [0, 1] : (tensor<1x512xf32>) -> tensor<8x512xf32> loc(#loc200)
    %399 = stablehlo.add %398, %396 : tensor<8x512xf32> loc(#loc200)
    %400 = stablehlo.reshape %399 : (tensor<8x512xf32>) -> tensor<1x8x512xf32> loc(#loc194)
    %401 = stablehlo.broadcast_in_dim %cst_28, dims = [] : (tensor<f32>) -> tensor<1x8x512xf32> loc(#loc215)
    %402 = stablehlo.multiply %401, %400 : tensor<1x8x512xf32> loc(#loc215)
    %403 = stablehlo.negate %400 : tensor<1x8x512xf32> loc(#loc216)
    %404 = stablehlo.broadcast_in_dim %cst_27, dims = [] : (tensor<f32>) -> tensor<1x8x512xf32> loc(#loc215)
    %405 = stablehlo.multiply %403, %404 : tensor<1x8x512xf32> loc(#loc215)
    %406 = stablehlo.multiply %405, %405 : tensor<1x8x512xf32> loc(#loc217)
    %407 = stablehlo.negate %406 : tensor<1x8x512xf32> loc(#loc217)
    %408 = stablehlo.abs %405 : tensor<1x8x512xf32> loc(#loc217)
    %409 = stablehlo.divide %cst_26, %406 : tensor<1x8x512xf32> loc(#loc217)
    %410 = stablehlo.exponential %407 : tensor<1x8x512xf32> loc(#loc217)
    %411 = stablehlo.divide %cst_26, %408 : tensor<1x8x512xf32> loc(#loc217)
    %412 = stablehlo.multiply %410, %411 : tensor<1x8x512xf32> loc(#loc217)
    %413 = stablehlo.compare  LT, %408, %cst_25 : (tensor<1x8x512xf32>, tensor<1x8x512xf32>) -> tensor<1x8x512xi1> loc(#loc217)
    %414 = stablehlo.multiply %cst_24, %409 : tensor<1x8x512xf32> loc(#loc217)
    %415 = stablehlo.add %414, %cst_23 : tensor<1x8x512xf32> loc(#loc217)
    %416 = stablehlo.multiply %415, %409 : tensor<1x8x512xf32> loc(#loc217)
    %417 = stablehlo.add %416, %cst_22 : tensor<1x8x512xf32> loc(#loc217)
    %418 = stablehlo.multiply %417, %409 : tensor<1x8x512xf32> loc(#loc217)
    %419 = stablehlo.add %418, %cst_21 : tensor<1x8x512xf32> loc(#loc217)
    %420 = stablehlo.multiply %419, %409 : tensor<1x8x512xf32> loc(#loc217)
    %421 = stablehlo.add %420, %cst_20 : tensor<1x8x512xf32> loc(#loc217)
    %422 = stablehlo.multiply %421, %409 : tensor<1x8x512xf32> loc(#loc217)
    %423 = stablehlo.add %422, %cst_19 : tensor<1x8x512xf32> loc(#loc217)
    %424 = stablehlo.multiply %423, %409 : tensor<1x8x512xf32> loc(#loc217)
    %425 = stablehlo.add %424, %cst_18 : tensor<1x8x512xf32> loc(#loc217)
    %426 = stablehlo.multiply %425, %409 : tensor<1x8x512xf32> loc(#loc217)
    %427 = stablehlo.add %426, %cst_17 : tensor<1x8x512xf32> loc(#loc217)
    %428 = stablehlo.multiply %427, %409 : tensor<1x8x512xf32> loc(#loc217)
    %429 = stablehlo.add %428, %cst_16 : tensor<1x8x512xf32> loc(#loc217)
    %430 = stablehlo.multiply %cst_15, %409 : tensor<1x8x512xf32> loc(#loc217)
    %431 = stablehlo.add %430, %cst_14 : tensor<1x8x512xf32> loc(#loc217)
    %432 = stablehlo.multiply %431, %409 : tensor<1x8x512xf32> loc(#loc217)
    %433 = stablehlo.add %432, %cst_13 : tensor<1x8x512xf32> loc(#loc217)
    %434 = stablehlo.multiply %433, %409 : tensor<1x8x512xf32> loc(#loc217)
    %435 = stablehlo.add %434, %cst_12 : tensor<1x8x512xf32> loc(#loc217)
    %436 = stablehlo.multiply %435, %409 : tensor<1x8x512xf32> loc(#loc217)
    %437 = stablehlo.add %436, %cst_11 : tensor<1x8x512xf32> loc(#loc217)
    %438 = stablehlo.multiply %437, %409 : tensor<1x8x512xf32> loc(#loc217)
    %439 = stablehlo.add %438, %cst_10 : tensor<1x8x512xf32> loc(#loc217)
    %440 = stablehlo.multiply %439, %409 : tensor<1x8x512xf32> loc(#loc217)
    %441 = stablehlo.add %440, %cst_9 : tensor<1x8x512xf32> loc(#loc217)
    %442 = stablehlo.multiply %441, %409 : tensor<1x8x512xf32> loc(#loc217)
    %443 = stablehlo.add %442, %cst_8 : tensor<1x8x512xf32> loc(#loc217)
    %444 = stablehlo.select %413, %429, %443 : tensor<1x8x512xi1>, tensor<1x8x512xf32> loc(#loc217)
    %445 = stablehlo.multiply %412, %444 : tensor<1x8x512xf32> loc(#loc217)
    %446 = stablehlo.compare  LT, %407, %cst_7 : (tensor<1x8x512xf32>, tensor<1x8x512xf32>) -> tensor<1x8x512xi1> loc(#loc217)
    %447 = stablehlo.select %446, %cst_6, %445 : tensor<1x8x512xi1>, tensor<1x8x512xf32> loc(#loc217)
    %448 = stablehlo.compare  LT, %405, %cst_6 : (tensor<1x8x512xf32>, tensor<1x8x512xf32>) -> tensor<1x8x512xi1> loc(#loc217)
    %449 = stablehlo.subtract %cst_25, %447 : tensor<1x8x512xf32> loc(#loc217)
    %450 = stablehlo.select %448, %449, %447 : tensor<1x8x512xi1>, tensor<1x8x512xf32> loc(#loc217)
    %451 = stablehlo.multiply %405, %405 : tensor<1x8x512xf32> loc(#loc217)
    %452 = stablehlo.multiply %cst_5, %451 : tensor<1x8x512xf32> loc(#loc217)
    %453 = stablehlo.add %452, %cst_4 : tensor<1x8x512xf32> loc(#loc217)
    %454 = stablehlo.multiply %453, %451 : tensor<1x8x512xf32> loc(#loc217)
    %455 = stablehlo.add %454, %cst_3 : tensor<1x8x512xf32> loc(#loc217)
    %456 = stablehlo.multiply %455, %451 : tensor<1x8x512xf32> loc(#loc217)
    %457 = stablehlo.add %456, %cst_2 : tensor<1x8x512xf32> loc(#loc217)
    %458 = stablehlo.multiply %457, %451 : tensor<1x8x512xf32> loc(#loc217)
    %459 = stablehlo.add %458, %cst_1 : tensor<1x8x512xf32> loc(#loc217)
    %460 = stablehlo.multiply %459, %451 : tensor<1x8x512xf32> loc(#loc217)
    %461 = stablehlo.add %460, %cst_0 : tensor<1x8x512xf32> loc(#loc217)
    %462 = stablehlo.multiply %461, %451 : tensor<1x8x512xf32> loc(#loc217)
    %463 = stablehlo.add %462, %cst : tensor<1x8x512xf32> loc(#loc217)
    %464 = stablehlo.multiply %405, %463 : tensor<1x8x512xf32> loc(#loc217)
    %465 = stablehlo.subtract %cst_26, %464 : tensor<1x8x512xf32> loc(#loc217)
    %466 = stablehlo.abs %405 : tensor<1x8x512xf32> loc(#loc217)
    %467 = stablehlo.compare  LT, %466, %cst_26 : (tensor<1x8x512xf32>, tensor<1x8x512xf32>) -> tensor<1x8x512xi1> loc(#loc217)
    %468 = stablehlo.select %467, %465, %450 : tensor<1x8x512xi1>, tensor<1x8x512xf32> loc(#loc217)
    %469 = stablehlo.multiply %402, %468 : tensor<1x8x512xf32> loc(#loc215)
    %470 = stablehlo.reshape %469 : (tensor<1x8x512xf32>) -> tensor<8x512xf32> loc(#loc194)
    %471 = stablehlo.transpose %arg33, dims = [1, 0] : (tensor<128x512xf32>) -> tensor<512x128xf32> loc(#loc195)
    %472 = stablehlo.broadcast_in_dim %cst_34, dims = [] : (tensor<f32>) -> tensor<128xf32> loc(#loc196)
    %473 = stablehlo.multiply %arg34, %472 : tensor<128xf32> loc(#loc196)
    %474 = stablehlo.dot_general %470, %471, contracting_dims = [1] x [0] : (tensor<8x512xf32>, tensor<512x128xf32>) -> tensor<8x128xf32> loc(#loc197)
    %475 = stablehlo.broadcast_in_dim %cst_34, dims = [] : (tensor<f32>) -> tensor<8x128xf32> loc(#loc198)
    %476 = stablehlo.multiply %475, %474 : tensor<8x128xf32> loc(#loc198)
    %477 = stablehlo.broadcast_in_dim %473, dims = [1] : (tensor<128xf32>) -> tensor<1x128xf32> loc(#loc199)
    %478 = stablehlo.broadcast_in_dim %477, dims = [0, 1] : (tensor<1x128xf32>) -> tensor<8x128xf32> loc(#loc200)
    %479 = stablehlo.add %478, %476 : tensor<8x128xf32> loc(#loc200)
    %480 = stablehlo.reshape %479 : (tensor<8x128xf32>) -> tensor<1x8x128xf32> loc(#loc194)
    %481 = stablehlo.broadcast_in_dim %cst_34, dims = [] : (tensor<f32>) -> tensor<1x8x128xf32> loc(#loc176)
    %482 = stablehlo.multiply %389, %481 : tensor<1x8x128xf32> loc(#loc176)
    %483 = stablehlo.add %480, %482 : tensor<1x8x128xf32> loc(#loc177)
    %484 = stablehlo.reduce(%483 init: %cst_33) applies stablehlo.add across dimensions = [2] : (tensor<1x8x128xf32>, tensor<f32>) -> tensor<1x8xf32> loc(#loc178)
    %485 = stablehlo.broadcast_in_dim %484, dims = [0, 1] : (tensor<1x8xf32>) -> tensor<1x8x1xf32> loc(#loc179)
    %486 = stablehlo.broadcast_in_dim %cst_32, dims = [] : (tensor<f32>) -> tensor<1x8x1xf32> loc(#loc180)
    %487 = stablehlo.divide %485, %486 : tensor<1x8x1xf32> loc(#loc180)
    %488 = call @_var(%483, %c_37) : (tensor<1x8x128xf32>, tensor<i32>) -> tensor<1x8x1xf32> loc(#loc181)
    %489 = stablehlo.broadcast_in_dim %cst_31, dims = [] : (tensor<f32>) -> tensor<1x8x1xf32> loc(#loc182)
    %490 = stablehlo.add %488, %489 : tensor<1x8x1xf32> loc(#loc182)
    %491 = stablehlo.rsqrt %490 : tensor<1x8x1xf32> loc(#loc183)
    %492 = stablehlo.broadcast_in_dim %487, dims = [0, 1, 2] : (tensor<1x8x1xf32>) -> tensor<1x8x128xf32> loc(#loc184)
    %493 = stablehlo.subtract %483, %492 : tensor<1x8x128xf32> loc(#loc184)
    %494 = stablehlo.broadcast_in_dim %491, dims = [0, 1, 2] : (tensor<1x8x1xf32>) -> tensor<1x8x128xf32> loc(#loc185)
    %495 = stablehlo.multiply %493, %494 : tensor<1x8x128xf32> loc(#loc185)
    %496 = stablehlo.broadcast_in_dim %arg35, dims = [2] : (tensor<128xf32>) -> tensor<1x1x128xf32> loc(#loc186)
    %497 = stablehlo.broadcast_in_dim %496, dims = [0, 1, 2] : (tensor<1x1x128xf32>) -> tensor<1x8x128xf32> loc(#loc187)
    %498 = stablehlo.multiply %495, %497 : tensor<1x8x128xf32> loc(#loc187)
    %499 = stablehlo.broadcast_in_dim %arg36, dims = [2] : (tensor<128xf32>) -> tensor<1x1x128xf32> loc(#loc188)
    %500 = stablehlo.broadcast_in_dim %499, dims = [0, 1, 2] : (tensor<1x1x128xf32>) -> tensor<1x8x128xf32> loc(#loc189)
    %501 = stablehlo.add %498, %500 : tensor<1x8x128xf32> loc(#loc189)
    %502 = stablehlo.slice %501 [0:1, 0:1, 0:128] : (tensor<1x8x128xf32>) -> tensor<1x1x128xf32> loc(#loc218)
    %503 = stablehlo.reshape %502 : (tensor<1x1x128xf32>) -> tensor<1x128xf32> loc(#loc219)
    %504 = stablehlo.transpose %arg37, dims = [1, 0] : (tensor<128x128xf32>) -> tensor<128x128xf32> loc(#loc195)
    %505 = stablehlo.broadcast_in_dim %cst_34, dims = [] : (tensor<f32>) -> tensor<128xf32> loc(#loc196)
    %506 = stablehlo.multiply %arg38, %505 : tensor<128xf32> loc(#loc196)
    %507 = stablehlo.dot_general %503, %504, contracting_dims = [1] x [0] : (tensor<1x128xf32>, tensor<128x128xf32>) -> tensor<1x128xf32> loc(#loc197)
    %508 = stablehlo.broadcast_in_dim %cst_34, dims = [] : (tensor<f32>) -> tensor<1x128xf32> loc(#loc198)
    %509 = stablehlo.multiply %508, %507 : tensor<1x128xf32> loc(#loc198)
    %510 = stablehlo.broadcast_in_dim %506, dims = [1] : (tensor<128xf32>) -> tensor<1x128xf32> loc(#loc199)
    %511 = stablehlo.add %510, %509 : tensor<1x128xf32> loc(#loc200)
    %512 = stablehlo.tanh %511 : tensor<1x128xf32> loc(#loc251)
    return %501, %512 : tensor<1x8x128xf32>, tensor<1x128xf32> loc(#loc)
  } loc(#loc)
  func.func private @_take(%arg0: tensor<30522x128xf32> loc("jit(func)/jit(main)/pjit"(#loc139)), %arg1: tensor<1x8xi32> loc("jit(func)/jit(main)/pjit"(#loc139))) -> tensor<1x8x128xf32> {
    %cst = stablehlo.constant dense<0x7FC00000> : tensor<f32> loc(#loc)
    %c = stablehlo.constant dense<true> : tensor<i1> loc(#loc)
    %c_0 = stablehlo.constant dense<30521> : tensor<1xi32> loc(#loc)
    %c_1 = stablehlo.constant dense<30522> : tensor<i32> loc(#loc)
    %c_2 = stablehlo.constant dense<0> : tensor<i32> loc(#loc)
    %0 = stablehlo.broadcast_in_dim %c_2, dims = [] : (tensor<i32>) -> tensor<1x8xi32> loc(#loc221)
    %1 = stablehlo.compare  LT, %arg1, %0,  SIGNED : (tensor<1x8xi32>, tensor<1x8xi32>) -> tensor<1x8xi1> loc(#loc221)
    %2 = stablehlo.broadcast_in_dim %c_1, dims = [] : (tensor<i32>) -> tensor<1x8xi32> loc(#loc222)
    %3 = stablehlo.add %arg1, %2 : tensor<1x8xi32> loc(#loc222)
    %4 = call @_where(%1, %3, %arg1) : (tensor<1x8xi1>, tensor<1x8xi32>, tensor<1x8xi32>) -> tensor<1x8xi32> loc(#loc223)
    %5 = stablehlo.broadcast_in_dim %4, dims = [0, 1] : (tensor<1x8xi32>) -> tensor<1x8x1xi32> loc(#loc224)
    %6 = stablehlo.broadcast_in_dim %c_2, dims = [] : (tensor<i32>) -> tensor<1x8x1xi32> loc(#loc225)
    %7 = stablehlo.compare  GE, %5, %6,  SIGNED : (tensor<1x8x1xi32>, tensor<1x8x1xi32>) -> tensor<1x8x1xi1> loc(#loc225)
    %8 = stablehlo.broadcast_in_dim %c_0, dims = [2] : (tensor<1xi32>) -> tensor<1x1x1xi32> loc(#loc224)
    %9 = stablehlo.broadcast_in_dim %8, dims = [0, 1, 2] : (tensor<1x1x1xi32>) -> tensor<1x8x1xi32> loc(#loc226)
    %10 = stablehlo.compare  LE, %5, %9,  SIGNED : (tensor<1x8x1xi32>, tensor<1x8x1xi32>) -> tensor<1x8x1xi1> loc(#loc226)
    %11 = stablehlo.and %7, %10 : tensor<1x8x1xi1> loc(#loc227)
    %12 = stablehlo.reduce(%11 init: %c) applies stablehlo.and across dimensions = [2] : (tensor<1x8x1xi1>, tensor<i1>) -> tensor<1x8xi1> loc(#loc228)
    %13 = "stablehlo.gather"(%arg0, %5) <{dimension_numbers = #stablehlo.gather<offset_dims = [2], collapsed_slice_dims = [0], start_index_map = [0], index_vector_dim = 2>, slice_sizes = array<i64: 1, 128>}> : (tensor<30522x128xf32>, tensor<1x8x1xi32>) -> tensor<1x8x128xf32> loc(#loc229)
    %14 = stablehlo.broadcast_in_dim %12, dims = [0, 1] : (tensor<1x8xi1>) -> tensor<1x8x128xi1> loc(#loc224)
    %15 = stablehlo.broadcast_in_dim %cst, dims = [] : (tensor<f32>) -> tensor<1x8x128xf32> loc(#loc224)
    %16 = stablehlo.select %14, %13, %15 : tensor<1x8x128xi1>, tensor<1x8x128xf32> loc(#loc230)
    return %16 : tensor<1x8x128xf32> loc(#loc175)
  } loc(#loc175)
  func.func private @_where(%arg0: tensor<1x8xi1> loc("jit(func)/jit(main)/jit(_take)/pjit"(#loc139)), %arg1: tensor<1x8xi32> loc("jit(func)/jit(main)/jit(_take)/pjit"(#loc139)), %arg2: tensor<1x8xi32> loc("jit(func)/jit(main)/jit(_take)/pjit"(#loc139))) -> tensor<1x8xi32> {
    %0 = stablehlo.select %arg0, %arg1, %arg2 : tensor<1x8xi1>, tensor<1x8xi32> loc(#loc231)
    return %0 : tensor<1x8xi32> loc(#loc223)
  } loc(#loc223)
  func.func private @_take_0(%arg0: tensor<2x128xf32> loc("jit(func)/jit(main)/pjit"(#loc139)), %arg1: tensor<1x8xi32> loc("jit(func)/jit(main)/pjit"(#loc139))) -> tensor<1x8x128xf32> {
    %cst = stablehlo.constant dense<0x7FC00000> : tensor<f32> loc(#loc)
    %c = stablehlo.constant dense<true> : tensor<i1> loc(#loc)
    %c_0 = stablehlo.constant dense<1> : tensor<1xi32> loc(#loc)
    %c_1 = stablehlo.constant dense<2> : tensor<i32> loc(#loc)
    %c_2 = stablehlo.constant dense<0> : tensor<i32> loc(#loc)
    %0 = stablehlo.broadcast_in_dim %c_2, dims = [] : (tensor<i32>) -> tensor<1x8xi32> loc(#loc221)
    %1 = stablehlo.compare  LT, %arg1, %0,  SIGNED : (tensor<1x8xi32>, tensor<1x8xi32>) -> tensor<1x8xi1> loc(#loc221)
    %2 = stablehlo.broadcast_in_dim %c_1, dims = [] : (tensor<i32>) -> tensor<1x8xi32> loc(#loc222)
    %3 = stablehlo.add %arg1, %2 : tensor<1x8xi32> loc(#loc222)
    %4 = call @_where(%1, %3, %arg1) : (tensor<1x8xi1>, tensor<1x8xi32>, tensor<1x8xi32>) -> tensor<1x8xi32> loc(#loc223)
    %5 = stablehlo.broadcast_in_dim %4, dims = [0, 1] : (tensor<1x8xi32>) -> tensor<1x8x1xi32> loc(#loc224)
    %6 = stablehlo.broadcast_in_dim %c_2, dims = [] : (tensor<i32>) -> tensor<1x8x1xi32> loc(#loc225)
    %7 = stablehlo.compare  GE, %5, %6,  SIGNED : (tensor<1x8x1xi32>, tensor<1x8x1xi32>) -> tensor<1x8x1xi1> loc(#loc225)
    %8 = stablehlo.broadcast_in_dim %c_0, dims = [2] : (tensor<1xi32>) -> tensor<1x1x1xi32> loc(#loc224)
    %9 = stablehlo.broadcast_in_dim %8, dims = [0, 1, 2] : (tensor<1x1x1xi32>) -> tensor<1x8x1xi32> loc(#loc226)
    %10 = stablehlo.compare  LE, %5, %9,  SIGNED : (tensor<1x8x1xi32>, tensor<1x8x1xi32>) -> tensor<1x8x1xi1> loc(#loc226)
    %11 = stablehlo.and %7, %10 : tensor<1x8x1xi1> loc(#loc227)
    %12 = stablehlo.reduce(%11 init: %c) applies stablehlo.and across dimensions = [2] : (tensor<1x8x1xi1>, tensor<i1>) -> tensor<1x8xi1> loc(#loc228)
    %13 = "stablehlo.gather"(%arg0, %5) <{dimension_numbers = #stablehlo.gather<offset_dims = [2], collapsed_slice_dims = [0], start_index_map = [0], index_vector_dim = 2>, slice_sizes = array<i64: 1, 128>}> : (tensor<2x128xf32>, tensor<1x8x1xi32>) -> tensor<1x8x128xf32> loc(#loc229)
    %14 = stablehlo.broadcast_in_dim %12, dims = [0, 1] : (tensor<1x8xi1>) -> tensor<1x8x128xi1> loc(#loc224)
    %15 = stablehlo.broadcast_in_dim %cst, dims = [] : (tensor<f32>) -> tensor<1x8x128xf32> loc(#loc224)
    %16 = stablehlo.select %14, %13, %15 : tensor<1x8x128xi1>, tensor<1x8x128xf32> loc(#loc230)
    return %16 : tensor<1x8x128xf32> loc(#loc175)
  } loc(#loc175)
  func.func private @_take_1(%arg0: tensor<512x128xf32> loc("jit(func)/jit(main)/pjit"(#loc139)), %arg1: tensor<1x8xi32> loc("jit(func)/jit(main)/pjit"(#loc139))) -> tensor<1x8x128xf32> {
    %cst = stablehlo.constant dense<0x7FC00000> : tensor<f32> loc(#loc)
    %c = stablehlo.constant dense<true> : tensor<i1> loc(#loc)
    %c_0 = stablehlo.constant dense<511> : tensor<1xi32> loc(#loc)
    %c_1 = stablehlo.constant dense<512> : tensor<i32> loc(#loc)
    %c_2 = stablehlo.constant dense<0> : tensor<i32> loc(#loc)
    %0 = stablehlo.broadcast_in_dim %c_2, dims = [] : (tensor<i32>) -> tensor<1x8xi32> loc(#loc221)
    %1 = stablehlo.compare  LT, %arg1, %0,  SIGNED : (tensor<1x8xi32>, tensor<1x8xi32>) -> tensor<1x8xi1> loc(#loc221)
    %2 = stablehlo.broadcast_in_dim %c_1, dims = [] : (tensor<i32>) -> tensor<1x8xi32> loc(#loc222)
    %3 = stablehlo.add %arg1, %2 : tensor<1x8xi32> loc(#loc222)
    %4 = call @_where(%1, %3, %arg1) : (tensor<1x8xi1>, tensor<1x8xi32>, tensor<1x8xi32>) -> tensor<1x8xi32> loc(#loc223)
    %5 = stablehlo.broadcast_in_dim %4, dims = [0, 1] : (tensor<1x8xi32>) -> tensor<1x8x1xi32> loc(#loc224)
    %6 = stablehlo.broadcast_in_dim %c_2, dims = [] : (tensor<i32>) -> tensor<1x8x1xi32> loc(#loc225)
    %7 = stablehlo.compare  GE, %5, %6,  SIGNED : (tensor<1x8x1xi32>, tensor<1x8x1xi32>) -> tensor<1x8x1xi1> loc(#loc225)
    %8 = stablehlo.broadcast_in_dim %c_0, dims = [2] : (tensor<1xi32>) -> tensor<1x1x1xi32> loc(#loc224)
    %9 = stablehlo.broadcast_in_dim %8, dims = [0, 1, 2] : (tensor<1x1x1xi32>) -> tensor<1x8x1xi32> loc(#loc226)
    %10 = stablehlo.compare  LE, %5, %9,  SIGNED : (tensor<1x8x1xi32>, tensor<1x8x1xi32>) -> tensor<1x8x1xi1> loc(#loc226)
    %11 = stablehlo.and %7, %10 : tensor<1x8x1xi1> loc(#loc227)
    %12 = stablehlo.reduce(%11 init: %c) applies stablehlo.and across dimensions = [2] : (tensor<1x8x1xi1>, tensor<i1>) -> tensor<1x8xi1> loc(#loc228)
    %13 = "stablehlo.gather"(%arg0, %5) <{dimension_numbers = #stablehlo.gather<offset_dims = [2], collapsed_slice_dims = [0], start_index_map = [0], index_vector_dim = 2>, slice_sizes = array<i64: 1, 128>}> : (tensor<512x128xf32>, tensor<1x8x1xi32>) -> tensor<1x8x128xf32> loc(#loc229)
    %14 = stablehlo.broadcast_in_dim %12, dims = [0, 1] : (tensor<1x8xi1>) -> tensor<1x8x128xi1> loc(#loc224)
    %15 = stablehlo.broadcast_in_dim %cst, dims = [] : (tensor<f32>) -> tensor<1x8x128xf32> loc(#loc224)
    %16 = stablehlo.select %14, %13, %15 : tensor<1x8x128xi1>, tensor<1x8x128xf32> loc(#loc230)
    return %16 : tensor<1x8x128xf32> loc(#loc175)
  } loc(#loc175)
  func.func private @_var(%arg0: tensor<1x8x128xf32> loc("jit(func)/jit(main)/pjit"(#loc142)), %arg1: tensor<i32> loc("jit(func)/jit(main)/pjit"(#loc142))) -> tensor<1x8x1xf32> {
    %cst = stablehlo.constant dense<0x7FC00000> : tensor<f32> loc(#loc)
    %cst_0 = stablehlo.constant dense<1.280000e+02> : tensor<f32> loc(#loc)
    %cst_1 = stablehlo.constant dense<0.000000e+00> : tensor<f32> loc(#loc)
    %0 = stablehlo.reduce(%arg0 init: %cst_1) applies stablehlo.add across dimensions = [2] : (tensor<1x8x128xf32>, tensor<f32>) -> tensor<1x8xf32> loc(#loc232)
    %1 = stablehlo.broadcast_in_dim %0, dims = [0, 1] : (tensor<1x8xf32>) -> tensor<1x8x1xf32> loc(#loc233)
    %2 = stablehlo.broadcast_in_dim %cst_0, dims = [] : (tensor<f32>) -> tensor<1x8x1xf32> loc(#loc234)
    %3 = stablehlo.divide %1, %2 : tensor<1x8x1xf32> loc(#loc234)
    %4 = stablehlo.broadcast_in_dim %3, dims = [0, 1, 2] : (tensor<1x8x1xf32>) -> tensor<1x8x128xf32> loc(#loc235)
    %5 = stablehlo.subtract %arg0, %4 : tensor<1x8x128xf32> loc(#loc235)
    %6 = stablehlo.multiply %5, %5 : tensor<1x8x128xf32> loc(#loc236)
    %7 = stablehlo.convert %arg1 : (tensor<i32>) -> tensor<f32> loc(#loc237)
    %8 = stablehlo.subtract %cst_0, %7 : tensor<f32> loc(#loc235)
    %9 = stablehlo.reduce(%6 init: %cst_1) applies stablehlo.add across dimensions = [2] : (tensor<1x8x128xf32>, tensor<f32>) -> tensor<1x8xf32> loc(#loc232)
    %10 = stablehlo.broadcast_in_dim %9, dims = [0, 1] : (tensor<1x8xf32>) -> tensor<1x8x1xf32> loc(#loc233)
    %11 = stablehlo.broadcast_in_dim %8, dims = [] : (tensor<f32>) -> tensor<1x8x1xf32> loc(#loc234)
    %12 = stablehlo.divide %10, %11 : tensor<1x8x1xf32> loc(#loc234)
    %13 = stablehlo.compare  GT, %8, %cst_1,  FLOAT : (tensor<f32>, tensor<f32>) -> tensor<i1> loc(#loc238)
    %14 = call @_where_2(%13, %12, %cst) : (tensor<i1>, tensor<1x8x1xf32>, tensor<f32>) -> tensor<1x8x1xf32> loc(#loc239)
    return %14 : tensor<1x8x1xf32> loc(#loc181)
  } loc(#loc181)
  func.func private @_where_2(%arg0: tensor<i1> loc("jit(func)/jit(main)/jit(_var)/pjit"(#loc142)), %arg1: tensor<1x8x1xf32> loc("jit(func)/jit(main)/jit(_var)/pjit"(#loc142)), %arg2: tensor<f32> loc("jit(func)/jit(main)/jit(_var)/pjit"(#loc142))) -> tensor<1x8x1xf32> {
    %0 = stablehlo.convert %arg2 : tensor<f32> loc(#loc240)
    %1 = stablehlo.broadcast_in_dim %0, dims = [] : (tensor<f32>) -> tensor<1x8x1xf32> loc(#loc241)
    %2 = stablehlo.select %arg0, %arg1, %1 : tensor<i1>, tensor<1x8x1xf32> loc(#loc242)
    return %2 : tensor<1x8x1xf32> loc(#loc239)
  } loc(#loc239)
  func.func private @_where_3(%arg0: tensor<1x1x8x8xi1> loc("jit(func)/jit(main)/pjit"(#loc155)), %arg1: tensor<f32> loc("jit(func)/jit(main)/pjit"(#loc155)), %arg2: tensor<f32> loc("jit(func)/jit(main)/pjit"(#loc155))) -> tensor<1x1x8x8xf32> {
    %0 = stablehlo.broadcast_in_dim %arg1, dims = [] : (tensor<f32>) -> tensor<1x1x8x8xf32> loc(#loc243)
    %1 = stablehlo.broadcast_in_dim %arg2, dims = [] : (tensor<f32>) -> tensor<1x1x8x8xf32> loc(#loc243)
    %2 = stablehlo.select %arg0, %0, %1 : tensor<1x1x8x8xi1>, tensor<1x1x8x8xf32> loc(#loc244)
    return %2 : tensor<1x1x8x8xf32> loc(#loc201)
  } loc(#loc201)
  func.func private @_where_4(%arg0: tensor<1x2x8x1xi1> loc("jit(func)/jit(main)/pjit"(#loc155)), %arg1: tensor<1x2x8x8xf32> loc("jit(func)/jit(main)/pjit"(#loc155)), %arg2: tensor<1x2x8x8xf32> loc("jit(func)/jit(main)/pjit"(#loc155))) -> tensor<1x2x8x8xf32> {
    %0 = stablehlo.broadcast_in_dim %arg0, dims = [0, 1, 2, 3] : (tensor<1x2x8x1xi1>) -> tensor<1x2x8x8xi1> loc(#loc243)
    %1 = stablehlo.select %0, %arg1, %arg2 : tensor<1x2x8x8xi1>, tensor<1x2x8x8xf32> loc(#loc244)
    return %1 : tensor<1x2x8x8xf32> loc(#loc201)
  } loc(#loc201)
} loc(#loc)