module @jit_func attributes {jax.uses_shape_polymorphism = false, mhlo.num_partitions = 1 : i32, mhlo.num_replicas = 1 : i32} {
  func.func public @main(%arg0: tensor<1124x32xf32> loc("states[0]"), %arg1: tensor<512x32xf32> loc("states[1]"), %arg2: tensor<16x32xf32> loc("states[2]"), %arg3: tensor<32xf32> loc("states[3]"), %arg4: tensor<32xf32> loc("states[4]"), %arg5: tensor<32x32xf32> loc("states[5]"), %arg6: tensor<32xf32> loc("states[6]"), %arg7: tensor<32x32xf32> loc("states[7]"), %arg8: tensor<32xf32> loc("states[8]"), %arg9: tensor<32x32xf32> loc("states[9]"), %arg10: tensor<32xf32> loc("states[10]"), %arg11: tensor<32x32xf32> loc("states[11]"), %arg12: tensor<32xf32> loc("states[12]"), %arg13: tensor<32xf32> loc("states[13]"), %arg14: tensor<32xf32> loc("states[14]"), %arg15: tensor<37x32xf32> loc("states[15]"), %arg16: tensor<37xf32> loc("states[16]"), %arg17: tensor<32x37xf32> loc("states[17]"), %arg18: tensor<32xf32> loc("states[18]"), %arg19: tensor<32xf32> loc("states[19]"), %arg20: tensor<32xf32> loc("states[20]"), %arg21: tensor<32x32xf32> loc("states[21]"), %arg22: tensor<32xf32> loc("states[22]"), %arg23: tensor<32x32xf32> loc("states[23]"), %arg24: tensor<32xf32> loc("states[24]"), %arg25: tensor<32x32xf32> loc("states[25]"), %arg26: tensor<32xf32> loc("states[26]"), %arg27: tensor<32x32xf32> loc("states[27]"), %arg28: tensor<32xf32> loc("states[28]"), %arg29: tensor<32xf32> loc("states[29]"), %arg30: tensor<32xf32> loc("states[30]"), %arg31: tensor<37x32xf32> loc("states[31]"), %arg32: tensor<37xf32> loc("states[32]"), %arg33: tensor<32x37xf32> loc("states[33]"), %arg34: tensor<32xf32> loc("states[34]"), %arg35: tensor<32xf32> loc("states[35]"), %arg36: tensor<32xf32> loc("states[36]"), %arg37: tensor<32x32xf32> loc("states[37]"), %arg38: tensor<32xf32> loc("states[38]"), %arg39: tensor<32x32xf32> loc("states[39]"), %arg40: tensor<32xf32> loc("states[40]"), %arg41: tensor<32x32xf32> loc("states[41]"), %arg42: tensor<32xf32> loc("states[42]"), %arg43: tensor<32x32xf32> loc("states[43]"), %arg44: tensor<32xf32> loc("states[44]"), %arg45: tensor<32xf32> loc("states[45]"), %arg46: tensor<32xf32> loc("states[46]"), %arg47: tensor<37x32xf32> loc("states[47]"), %arg48: tensor<37xf32> loc("states[48]"), %arg49: tensor<32x37xf32> loc("states[49]"), %arg50: tensor<32xf32> loc("states[50]"), %arg51: tensor<32xf32> loc("states[51]"), %arg52: tensor<32xf32> loc("states[52]"), %arg53: tensor<32x32xf32> loc("states[53]"), %arg54: tensor<32xf32> loc("states[54]"), %arg55: tensor<32x32xf32> loc("states[55]"), %arg56: tensor<32xf32> loc("states[56]"), %arg57: tensor<32x32xf32> loc("states[57]"), %arg58: tensor<32xf32> loc("states[58]"), %arg59: tensor<32x32xf32> loc("states[59]"), %arg60: tensor<32xf32> loc("states[60]"), %arg61: tensor<32xf32> loc("states[61]"), %arg62: tensor<32xf32> loc("states[62]"), %arg63: tensor<37x32xf32> loc("states[63]"), %arg64: tensor<37xf32> loc("states[64]"), %arg65: tensor<32x37xf32> loc("states[65]"), %arg66: tensor<32xf32> loc("states[66]"), %arg67: tensor<32xf32> loc("states[67]"), %arg68: tensor<32xf32> loc("states[68]"), %arg69: tensor<32x32xf32> loc("states[69]"), %arg70: tensor<32xf32> loc("states[70]"), %arg71: tensor<32x32xf32> loc("states[71]"), %arg72: tensor<32xf32> loc("states[72]"), %arg73: tensor<32x32xf32> loc("states[73]"), %arg74: tensor<32xf32> loc("states[74]"), %arg75: tensor<32x32xf32> loc("states[75]"), %arg76: tensor<32xf32> loc("states[76]"), %arg77: tensor<32xf32> loc("states[77]"), %arg78: tensor<32xf32> loc("states[78]"), %arg79: tensor<37x32xf32> loc("states[79]"), %arg80: tensor<37xf32> loc("states[80]"), %arg81: tensor<32x37xf32> loc("states[81]"), %arg82: tensor<32xf32> loc("states[82]"), %arg83: tensor<32xf32> loc("states[83]"), %arg84: tensor<32xf32> loc("states[84]"), %arg85: tensor<32x32xf32> loc("states[85]"), %arg86: tensor<32xf32> loc("states[86]"), %arg87: tensor<1x512xi32> loc("states[87]"), %arg88: tensor<1x512xi32> loc("states[88]"), %arg89: tensor<1x32xi32> loc("inputs[0][0]"), %arg90: tensor<1x32xi32> loc("inputs[0][1]")) -> (tensor<1x32x32xf32> {jax.result_info = "result[0]"}, tensor<1x32xf32> {jax.result_info = "result[1]"}) {
    %cst = stablehlo.constant dense<1.12837911> : tensor<1x32x37xf32> loc(#loc)
    %cst_0 = stablehlo.constant dense<-0.37612626> : tensor<1x32x37xf32> loc(#loc)
    %cst_1 = stablehlo.constant dense<0.112835854> : tensor<1x32x37xf32> loc(#loc)
    %cst_2 = stablehlo.constant dense<-0.0268538129> : tensor<1x32x37xf32> loc(#loc)
    %cst_3 = stablehlo.constant dense<0.00518832775> : tensor<1x32x37xf32> loc(#loc)
    %cst_4 = stablehlo.constant dense<-8.0101937E-4> : tensor<1x32x37xf32> loc(#loc)
    %cst_5 = stablehlo.constant dense<7.85386146E-5> : tensor<1x32x37xf32> loc(#loc)
    %cst_6 = stablehlo.constant dense<0.000000e+00> : tensor<1x32x37xf32> loc(#loc)
    %cst_7 = stablehlo.constant dense<-88.7228394> : tensor<1x32x37xf32> loc(#loc)
    %cst_8 = stablehlo.constant dense<0.564189494> : tensor<1x32x37xf32> loc(#loc)
    %cst_9 = stablehlo.constant dense<-0.282076746> : tensor<1x32x37xf32> loc(#loc)
    %cst_10 = stablehlo.constant dense<0.42184633> : tensor<1x32x37xf32> loc(#loc)
    %cst_11 = stablehlo.constant dense<-1.01526523> : tensor<1x32x37xf32> loc(#loc)
    %cst_12 = stablehlo.constant dense<2.92101908> : tensor<1x32x37xf32> loc(#loc)
    %cst_13 = stablehlo.constant dense<-7.49551868> : tensor<1x32x37xf32> loc(#loc)
    %cst_14 = stablehlo.constant dense<1.297720e+01> : tensor<1x32x37xf32> loc(#loc)
    %cst_15 = stablehlo.constant dense<-10.477664> : tensor<1x32x37xf32> loc(#loc)
    %cst_16 = stablehlo.constant dense<0.563825965> : tensor<1x32x37xf32> loc(#loc)
    %cst_17 = stablehlo.constant dense<-0.274112701> : tensor<1x32x37xf32> loc(#loc)
    %cst_18 = stablehlo.constant dense<3.404880e-01> : tensor<1x32x37xf32> loc(#loc)
    %cst_19 = stablehlo.constant dense<-0.494451523> : tensor<1x32x37xf32> loc(#loc)
    %cst_20 = stablehlo.constant dense<0.621000468> : tensor<1x32x37xf32> loc(#loc)
    %cst_21 = stablehlo.constant dense<-0.582473278> : tensor<1x32x37xf32> loc(#loc)
    %cst_22 = stablehlo.constant dense<0.368742466> : tensor<1x32x37xf32> loc(#loc)
    %cst_23 = stablehlo.constant dense<-0.138703942> : tensor<1x32x37xf32> loc(#loc)
    %cst_24 = stablehlo.constant dense<2.326820e-02> : tensor<1x32x37xf32> loc(#loc)
    %cst_25 = stablehlo.constant dense<2.000000e+00> : tensor<1x32x37xf32> loc(#loc)
    %cst_26 = stablehlo.constant dense<1.000000e+00> : tensor<1x32x37xf32> loc(#loc)
    %cst_27 = stablehlo.constant dense<0.707106769> : tensor<f32> loc(#loc)
    %cst_28 = stablehlo.constant dense<5.000000e-01> : tensor<f32> loc(#loc)
    %c = stablehlo.constant dense<false> : tensor<i1> loc(#loc)
    %cst_29 = stablehlo.constant dense<0.594603539> : tensor<f32> loc(#loc)
    %cst_30 = stablehlo.constant dense<0xFF800000> : tensor<f32> loc(#loc)
    %c_31 = stablehlo.constant dense<32> : tensor<i32> loc(#loc)
    %c_32 = stablehlo.constant dense<true> : tensor<i1> loc(#loc)
    %cst_33 = stablehlo.constant dense<9.99999996E-13> : tensor<f32> loc(#loc)
    %cst_34 = stablehlo.constant dense<3.200000e+01> : tensor<f32> loc(#loc)
    %cst_35 = stablehlo.constant dense<0.000000e+00> : tensor<f32> loc(#loc)
    %cst_36 = stablehlo.constant dense<1.000000e+00> : tensor<f32> loc(#loc)
    %c_37 = stablehlo.constant dense<512> : tensor<i32> loc(#loc)
    %c_38 = stablehlo.constant dense<1> : tensor<i32> loc(#loc)
    %c_39 = stablehlo.constant dense<0> : tensor<i32> loc(#loc)
    %0 = stablehlo.slice %arg87 [0:1, 0:32] : (tensor<1x512xi32>) -> tensor<1x32xi32> loc(#loc221)
    %1 = stablehlo.iota dim = 0 : tensor<1xi32> loc(#loc307)
    %2 = stablehlo.reshape %1 : (tensor<1xi32>) -> tensor<1x1xi32> loc(#loc308)
    %3 = stablehlo.broadcast_in_dim %2, dims = [0, 1] : (tensor<1x1xi32>) -> tensor<1x32xi32> loc(#loc309)
    %4 = stablehlo.broadcast_in_dim %c_39, dims = [] : (tensor<i32>) -> tensor<1x32xi32> loc(#loc224)
    %5 = stablehlo.compare  LT, %3, %4,  SIGNED : (tensor<1x32xi32>, tensor<1x32xi32>) -> tensor<1x32xi1> loc(#loc224)
    %6 = stablehlo.broadcast_in_dim %c_38, dims = [] : (tensor<i32>) -> tensor<1x32xi32> loc(#loc225)
    %7 = stablehlo.add %3, %6 : tensor<1x32xi32> loc(#loc225)
    %8 = stablehlo.select %5, %7, %3 : tensor<1x32xi1>, tensor<1x32xi32> loc(#loc226)
    %9 = stablehlo.broadcast_in_dim %c_39, dims = [] : (tensor<i32>) -> tensor<1x32xi32> loc(#loc224)
    %10 = stablehlo.compare  LT, %0, %9,  SIGNED : (tensor<1x32xi32>, tensor<1x32xi32>) -> tensor<1x32xi1> loc(#loc224)
    %11 = stablehlo.broadcast_in_dim %c_37, dims = [] : (tensor<i32>) -> tensor<1x32xi32> loc(#loc225)
    %12 = stablehlo.add %0, %11 : tensor<1x32xi32> loc(#loc225)
    %13 = stablehlo.select %10, %12, %0 : tensor<1x32xi1>, tensor<1x32xi32> loc(#loc226)
    %14 = stablehlo.broadcast_in_dim %8, dims = [0, 1] : (tensor<1x32xi32>) -> tensor<1x32x1xi32> loc(#loc227)
    %15 = stablehlo.broadcast_in_dim %13, dims = [0, 1] : (tensor<1x32xi32>) -> tensor<1x32x1xi32> loc(#loc227)
    %16 = stablehlo.concatenate %14, %15, dim = 2 : (tensor<1x32x1xi32>, tensor<1x32x1xi32>) -> tensor<1x32x2xi32> loc(#loc228)
    %17 = "stablehlo.gather"(%arg88, %16) <{dimension_numbers = #stablehlo.gather<collapsed_slice_dims = [0, 1], start_index_map = [0, 1], index_vector_dim = 2>, slice_sizes = array<i64: 1, 1>}> : (tensor<1x512xi32>, tensor<1x32x2xi32>) -> tensor<1x32xi32> loc(#loc229)
    %18 = call @_take(%arg0, %arg89) : (tensor<1124x32xf32>, tensor<1x32xi32>) -> tensor<1x32x32xf32> loc(#loc230)
    %19 = call @_take_0(%arg2, %17) : (tensor<16x32xf32>, tensor<1x32xi32>) -> tensor<1x32x32xf32> loc(#loc230)
    %20 = stablehlo.broadcast_in_dim %cst_36, dims = [] : (tensor<f32>) -> tensor<1x32x32xf32> loc(#loc231)
    %21 = stablehlo.multiply %19, %20 : tensor<1x32x32xf32> loc(#loc231)
    %22 = stablehlo.add %18, %21 : tensor<1x32x32xf32> loc(#loc232)
    %23 = call @_take_1(%arg1, %0) : (tensor<512x32xf32>, tensor<1x32xi32>) -> tensor<1x32x32xf32> loc(#loc230)
    %24 = stablehlo.broadcast_in_dim %cst_36, dims = [] : (tensor<f32>) -> tensor<1x32x32xf32> loc(#loc231)
    %25 = stablehlo.multiply %23, %24 : tensor<1x32x32xf32> loc(#loc231)
    %26 = stablehlo.add %22, %25 : tensor<1x32x32xf32> loc(#loc232)
    %27 = stablehlo.reduce(%26 init: %cst_35) applies stablehlo.add across dimensions = [2] : (tensor<1x32x32xf32>, tensor<f32>) -> tensor<1x32xf32> loc(#loc233)
    %28 = stablehlo.broadcast_in_dim %27, dims = [0, 1] : (tensor<1x32xf32>) -> tensor<1x32x1xf32> loc(#loc234)
    %29 = stablehlo.broadcast_in_dim %cst_34, dims = [] : (tensor<f32>) -> tensor<1x32x1xf32> loc(#loc235)
    %30 = stablehlo.divide %28, %29 : tensor<1x32x1xf32> loc(#loc235)
    %31 = call @_var(%26, %c_39) : (tensor<1x32x32xf32>, tensor<i32>) -> tensor<1x32x1xf32> loc(#loc236)
    %32 = stablehlo.broadcast_in_dim %cst_33, dims = [] : (tensor<f32>) -> tensor<1x32x1xf32> loc(#loc237)
    %33 = stablehlo.add %31, %32 : tensor<1x32x1xf32> loc(#loc237)
    %34 = stablehlo.rsqrt %33 : tensor<1x32x1xf32> loc(#loc238)
    %35 = stablehlo.broadcast_in_dim %30, dims = [0, 1, 2] : (tensor<1x32x1xf32>) -> tensor<1x32x32xf32> loc(#loc239)
    %36 = stablehlo.subtract %26, %35 : tensor<1x32x32xf32> loc(#loc239)
    %37 = stablehlo.broadcast_in_dim %34, dims = [0, 1, 2] : (tensor<1x32x1xf32>) -> tensor<1x32x32xf32> loc(#loc240)
    %38 = stablehlo.multiply %36, %37 : tensor<1x32x32xf32> loc(#loc240)
    %39 = stablehlo.broadcast_in_dim %arg3, dims = [2] : (tensor<32xf32>) -> tensor<1x1x32xf32> loc(#loc241)
    %40 = stablehlo.broadcast_in_dim %39, dims = [0, 1, 2] : (tensor<1x1x32xf32>) -> tensor<1x32x32xf32> loc(#loc242)
    %41 = stablehlo.multiply %38, %40 : tensor<1x32x32xf32> loc(#loc242)
    %42 = stablehlo.broadcast_in_dim %arg4, dims = [2] : (tensor<32xf32>) -> tensor<1x1x32xf32> loc(#loc243)
    %43 = stablehlo.broadcast_in_dim %42, dims = [0, 1, 2] : (tensor<1x1x32xf32>) -> tensor<1x32x32xf32> loc(#loc244)
    %44 = stablehlo.add %41, %43 : tensor<1x32x32xf32> loc(#loc244)
    %45 = stablehlo.broadcast_in_dim %c_39, dims = [] : (tensor<i32>) -> tensor<1x32xi32> loc(#loc245)
    %46 = stablehlo.compare  NE, %arg90, %45,  SIGNED : (tensor<1x32xi32>, tensor<1x32xi32>) -> tensor<1x32xi1> loc(#loc245)
    %47 = stablehlo.convert %46 : tensor<1x32xi1> loc(#loc245)
    %48 = stablehlo.iota dim = 0 : tensor<1xi32> loc(#loc310)
    %49 = stablehlo.iota dim = 0 : tensor<32xi32> loc(#loc310)
    %50 = stablehlo.broadcast_in_dim %c_39, dims = [] : (tensor<i32>) -> tensor<32xi32> loc(#loc232)
    %51 = stablehlo.add %49, %50 : tensor<32xi32> loc(#loc232)
    %52 = stablehlo.iota dim = 0 : tensor<32xi32> loc(#loc310)
    %53 = stablehlo.broadcast_in_dim %c_39, dims = [] : (tensor<i32>) -> tensor<32xi32> loc(#loc232)
    %54 = stablehlo.add %52, %53 : tensor<32xi32> loc(#loc232)
    %55 = stablehlo.broadcast_in_dim %48, dims = [0] : (tensor<1xi32>) -> tensor<1x1xi32> loc(#loc247)
    %56 = stablehlo.broadcast_in_dim %55, dims = [0, 1] : (tensor<1x1xi32>) -> tensor<1x1x1xi32> loc(#loc247)
    %57 = stablehlo.broadcast_in_dim %56, dims = [0, 1, 2] : (tensor<1x1x1xi32>) -> tensor<1x1x1x1xi32> loc(#loc247)
    %58 = stablehlo.broadcast_in_dim %51, dims = [1] : (tensor<32xi32>) -> tensor<1x32xi32> loc(#loc247)
    %59 = stablehlo.broadcast_in_dim %58, dims = [0, 2] : (tensor<1x32xi32>) -> tensor<1x1x32xi32> loc(#loc247)
    %60 = stablehlo.broadcast_in_dim %59, dims = [0, 1, 2] : (tensor<1x1x32xi32>) -> tensor<1x1x32x1xi32> loc(#loc247)
    %61 = stablehlo.broadcast_in_dim %54, dims = [1] : (tensor<32xi32>) -> tensor<1x32xi32> loc(#loc247)
    %62 = stablehlo.broadcast_in_dim %61, dims = [0, 2] : (tensor<1x32xi32>) -> tensor<1x1x32xi32> loc(#loc247)
    %63 = stablehlo.broadcast_in_dim %62, dims = [0, 1, 3] : (tensor<1x1x32xi32>) -> tensor<1x1x1x32xi32> loc(#loc247)
    %64 = stablehlo.broadcast_in_dim %c_39, dims = [] : (tensor<i32>) -> tensor<1x1x32x1xi32> loc(#loc248)
    %65 = stablehlo.compare  GE, %60, %64,  SIGNED : (tensor<1x1x32x1xi32>, tensor<1x1x32x1xi32>) -> tensor<1x1x32x1xi1> loc(#loc248)
    %66 = stablehlo.broadcast_in_dim %c_32, dims = [] : (tensor<i1>) -> tensor<1x1x32x1xi1> loc(#loc249)
    %67 = stablehlo.and %66, %65 : tensor<1x1x32x1xi1> loc(#loc249)
    %68 = stablehlo.broadcast_in_dim %c_39, dims = [] : (tensor<i32>) -> tensor<1x1x1x1xi32> loc(#loc250)
    %69 = stablehlo.compare  LT, %57, %68,  SIGNED : (tensor<1x1x1x1xi32>, tensor<1x1x1x1xi32>) -> tensor<1x1x1x1xi1> loc(#loc250)
    %70 = stablehlo.broadcast_in_dim %c_38, dims = [] : (tensor<i32>) -> tensor<1x1x1x1xi32> loc(#loc251)
    %71 = stablehlo.add %57, %70 : tensor<1x1x1x1xi32> loc(#loc251)
    %72 = stablehlo.select %69, %71, %57 : tensor<1x1x1x1xi1>, tensor<1x1x1x1xi32> loc(#loc252)
    %73 = stablehlo.broadcast_in_dim %c_39, dims = [] : (tensor<i32>) -> tensor<1x1x1x32xi32> loc(#loc250)
    %74 = stablehlo.compare  LT, %63, %73,  SIGNED : (tensor<1x1x1x32xi32>, tensor<1x1x1x32xi32>) -> tensor<1x1x1x32xi1> loc(#loc250)
    %75 = stablehlo.broadcast_in_dim %c_31, dims = [] : (tensor<i32>) -> tensor<1x1x1x32xi32> loc(#loc251)
    %76 = stablehlo.add %63, %75 : tensor<1x1x1x32xi32> loc(#loc251)
    %77 = stablehlo.select %74, %76, %63 : tensor<1x1x1x32xi1>, tensor<1x1x1x32xi32> loc(#loc252)
    %78 = stablehlo.broadcast_in_dim %72, dims = [0, 1, 2, 3] : (tensor<1x1x1x1xi32>) -> tensor<1x1x1x32xi32> loc(#loc253)
    %79 = stablehlo.broadcast_in_dim %78, dims = [0, 1, 2, 3] : (tensor<1x1x1x32xi32>) -> tensor<1x1x1x32x1xi32> loc(#loc253)
    %80 = stablehlo.broadcast_in_dim %77, dims = [0, 1, 2, 3] : (tensor<1x1x1x32xi32>) -> tensor<1x1x1x32x1xi32> loc(#loc253)
    %81 = stablehlo.concatenate %79, %80, dim = 4 : (tensor<1x1x1x32x1xi32>, tensor<1x1x1x32x1xi32>) -> tensor<1x1x1x32x2xi32> loc(#loc254)
    %82 = "stablehlo.gather"(%47, %81) <{dimension_numbers = #stablehlo.gather<collapsed_slice_dims = [0, 1], start_index_map = [0, 1], index_vector_dim = 4>, slice_sizes = array<i64: 1, 1>}> : (tensor<1x32xi1>, tensor<1x1x1x32x2xi32>) -> tensor<1x1x1x32xi1> loc(#loc255)
    %83 = stablehlo.broadcast_in_dim %67, dims = [0, 1, 2, 3] : (tensor<1x1x32x1xi1>) -> tensor<1x1x32x32xi1> loc(#loc249)
    %84 = stablehlo.broadcast_in_dim %82, dims = [0, 1, 2, 3] : (tensor<1x1x1x32xi1>) -> tensor<1x1x32x32xi1> loc(#loc249)
    %85 = stablehlo.and %83, %84 : tensor<1x1x32x32xi1> loc(#loc249)
    %86 = stablehlo.reshape %44 : (tensor<1x32x32xf32>) -> tensor<32x32xf32> loc(#loc256)
    %87 = stablehlo.transpose %arg5, dims = [1, 0] : (tensor<32x32xf32>) -> tensor<32x32xf32> loc(#loc257)
    %88 = stablehlo.broadcast_in_dim %cst_36, dims = [] : (tensor<f32>) -> tensor<32xf32> loc(#loc258)
    %89 = stablehlo.multiply %arg6, %88 : tensor<32xf32> loc(#loc258)
    %90 = stablehlo.dot_general %86, %87, contracting_dims = [1] x [0] : (tensor<32x32xf32>, tensor<32x32xf32>) -> tensor<32x32xf32> loc(#loc259)
    %91 = stablehlo.broadcast_in_dim %cst_36, dims = [] : (tensor<f32>) -> tensor<32x32xf32> loc(#loc260)
    %92 = stablehlo.multiply %91, %90 : tensor<32x32xf32> loc(#loc260)
    %93 = stablehlo.broadcast_in_dim %89, dims = [1] : (tensor<32xf32>) -> tensor<1x32xf32> loc(#loc261)
    %94 = stablehlo.broadcast_in_dim %93, dims = [0, 1] : (tensor<1x32xf32>) -> tensor<32x32xf32> loc(#loc262)
    %95 = stablehlo.add %94, %92 : tensor<32x32xf32> loc(#loc262)
    %96 = stablehlo.reshape %95 : (tensor<32x32xf32>) -> tensor<1x32x32xf32> loc(#loc256)
    %97 = stablehlo.reshape %96 : (tensor<1x32x32xf32>) -> tensor<1x32x4x8xf32> loc(#loc256)
    %98 = stablehlo.transpose %97, dims = [0, 2, 1, 3] : (tensor<1x32x4x8xf32>) -> tensor<1x4x32x8xf32> loc(#loc257)
    %99 = stablehlo.reshape %44 : (tensor<1x32x32xf32>) -> tensor<32x32xf32> loc(#loc256)
    %100 = stablehlo.transpose %arg7, dims = [1, 0] : (tensor<32x32xf32>) -> tensor<32x32xf32> loc(#loc257)
    %101 = stablehlo.broadcast_in_dim %cst_36, dims = [] : (tensor<f32>) -> tensor<32xf32> loc(#loc258)
    %102 = stablehlo.multiply %arg8, %101 : tensor<32xf32> loc(#loc258)
    %103 = stablehlo.dot_general %99, %100, contracting_dims = [1] x [0] : (tensor<32x32xf32>, tensor<32x32xf32>) -> tensor<32x32xf32> loc(#loc259)
    %104 = stablehlo.broadcast_in_dim %cst_36, dims = [] : (tensor<f32>) -> tensor<32x32xf32> loc(#loc260)
    %105 = stablehlo.multiply %104, %103 : tensor<32x32xf32> loc(#loc260)
    %106 = stablehlo.broadcast_in_dim %102, dims = [1] : (tensor<32xf32>) -> tensor<1x32xf32> loc(#loc261)
    %107 = stablehlo.broadcast_in_dim %106, dims = [0, 1] : (tensor<1x32xf32>) -> tensor<32x32xf32> loc(#loc262)
    %108 = stablehlo.add %107, %105 : tensor<32x32xf32> loc(#loc262)
    %109 = stablehlo.reshape %108 : (tensor<32x32xf32>) -> tensor<1x32x32xf32> loc(#loc256)
    %110 = stablehlo.reshape %109 : (tensor<1x32x32xf32>) -> tensor<1x32x4x8xf32> loc(#loc256)
    %111 = stablehlo.transpose %110, dims = [0, 2, 1, 3] : (tensor<1x32x4x8xf32>) -> tensor<1x4x32x8xf32> loc(#loc257)
    %112 = stablehlo.reshape %44 : (tensor<1x32x32xf32>) -> tensor<32x32xf32> loc(#loc256)
    %113 = stablehlo.transpose %arg9, dims = [1, 0] : (tensor<32x32xf32>) -> tensor<32x32xf32> loc(#loc257)
    %114 = stablehlo.broadcast_in_dim %cst_36, dims = [] : (tensor<f32>) -> tensor<32xf32> loc(#loc258)
    %115 = stablehlo.multiply %arg10, %114 : tensor<32xf32> loc(#loc258)
    %116 = stablehlo.dot_general %112, %113, contracting_dims = [1] x [0] : (tensor<32x32xf32>, tensor<32x32xf32>) -> tensor<32x32xf32> loc(#loc259)
    %117 = stablehlo.broadcast_in_dim %cst_36, dims = [] : (tensor<f32>) -> tensor<32x32xf32> loc(#loc260)
    %118 = stablehlo.multiply %117, %116 : tensor<32x32xf32> loc(#loc260)
    %119 = stablehlo.broadcast_in_dim %115, dims = [1] : (tensor<32xf32>) -> tensor<1x32xf32> loc(#loc261)
    %120 = stablehlo.broadcast_in_dim %119, dims = [0, 1] : (tensor<1x32xf32>) -> tensor<32x32xf32> loc(#loc262)
    %121 = stablehlo.add %120, %118 : tensor<32x32xf32> loc(#loc262)
    %122 = stablehlo.reshape %121 : (tensor<32x32xf32>) -> tensor<1x32x32xf32> loc(#loc256)
    %123 = stablehlo.reshape %122 : (tensor<1x32x32xf32>) -> tensor<1x32x4x8xf32> loc(#loc256)
    %124 = stablehlo.transpose %123, dims = [0, 2, 1, 3] : (tensor<1x32x4x8xf32>) -> tensor<1x4x32x8xf32> loc(#loc257)
    %125 = call @_where_3(%85, %cst_35, %cst_30) : (tensor<1x1x32x32xi1>, tensor<f32>, tensor<f32>) -> tensor<1x1x32x32xf32> loc(#loc263)
    %126 = stablehlo.broadcast_in_dim %cst_29, dims = [] : (tensor<f32>) -> tensor<1x4x32x8xf32> loc(#loc264)
    %127 = stablehlo.multiply %98, %126 : tensor<1x4x32x8xf32> loc(#loc264)
    %128 = stablehlo.transpose %111, dims = [0, 1, 3, 2] : (tensor<1x4x32x8xf32>) -> tensor<1x4x8x32xf32> loc(#loc257)
    %129 = stablehlo.broadcast_in_dim %cst_29, dims = [] : (tensor<f32>) -> tensor<1x4x8x32xf32> loc(#loc264)
    %130 = stablehlo.multiply %128, %129 : tensor<1x4x8x32xf32> loc(#loc264)
    %131 = stablehlo.reshape %127 : (tensor<1x4x32x8xf32>) -> tensor<4x32x8xf32> loc(#loc256)
    %132 = stablehlo.reshape %130 : (tensor<1x4x8x32xf32>) -> tensor<4x8x32xf32> loc(#loc256)
    %133 = stablehlo.dot_general %131, %132, batching_dims = [0] x [0], contracting_dims = [2] x [1] : (tensor<4x32x8xf32>, tensor<4x8x32xf32>) -> tensor<4x32x32xf32> loc(#loc265)
    %134 = stablehlo.reshape %133 : (tensor<4x32x32xf32>) -> tensor<1x4x32x32xf32> loc(#loc256)
    %135 = stablehlo.broadcast_in_dim %cst_36, dims = [] : (tensor<f32>) -> tensor<1x1x32x32xf32> loc(#loc231)
    %136 = stablehlo.multiply %125, %135 : tensor<1x1x32x32xf32> loc(#loc231)
    %137 = stablehlo.broadcast_in_dim %136, dims = [0, 1, 2, 3] : (tensor<1x1x32x32xf32>) -> tensor<1x4x32x32xf32> loc(#loc232)
    %138 = stablehlo.add %134, %137 : tensor<1x4x32x32xf32> loc(#loc232)
    %139 = stablehlo.reduce(%138 init: %cst_30) applies stablehlo.maximum across dimensions = [3] : (tensor<1x4x32x32xf32>, tensor<f32>) -> tensor<1x4x32xf32> loc(#loc266)
    %140 = stablehlo.broadcast_in_dim %cst_30, dims = [] : (tensor<f32>) -> tensor<1x4x32xf32> loc(#loc267)
    %141 = stablehlo.maximum %140, %139 : tensor<1x4x32xf32> loc(#loc267)
    %142 = stablehlo.broadcast_in_dim %141, dims = [0, 1, 2] : (tensor<1x4x32xf32>) -> tensor<1x4x32x1xf32> loc(#loc268)
    %143 = stablehlo.broadcast_in_dim %142, dims = [0, 1, 2, 3] : (tensor<1x4x32x1xf32>) -> tensor<1x4x32x32xf32> loc(#loc269)
    %144 = stablehlo.subtract %138, %143 : tensor<1x4x32x32xf32> loc(#loc269)
    %145 = stablehlo.exponential %144 : tensor<1x4x32x32xf32> loc(#loc270)
    %146 = stablehlo.reduce(%145 init: %cst_35) applies stablehlo.add across dimensions = [3] : (tensor<1x4x32x32xf32>, tensor<f32>) -> tensor<1x4x32xf32> loc(#loc271)
    %147 = stablehlo.broadcast_in_dim %146, dims = [0, 1, 2] : (tensor<1x4x32xf32>) -> tensor<1x4x32x1xf32> loc(#loc268)
    %148 = stablehlo.broadcast_in_dim %147, dims = [0, 1, 2, 3] : (tensor<1x4x32x1xf32>) -> tensor<1x4x32x32xf32> loc(#loc272)
    %149 = stablehlo.divide %145, %148 : tensor<1x4x32x32xf32> loc(#loc272)
    %150 = stablehlo.broadcast_in_dim %cst_30, dims = [] : (tensor<f32>) -> tensor<1x4x32x32xf32> loc(#loc273)
    %151 = stablehlo.compare  EQ, %138, %150,  FLOAT : (tensor<1x4x32x32xf32>, tensor<1x4x32x32xf32>) -> tensor<1x4x32x32xi1> loc(#loc273)
    %152 = stablehlo.not %151 : tensor<1x4x32x32xi1> loc(#loc274)
    %153 = stablehlo.reduce(%152 init: %c) applies stablehlo.or across dimensions = [3] : (tensor<1x4x32x32xi1>, tensor<i1>) -> tensor<1x4x32xi1> loc(#loc311)
    %154 = stablehlo.broadcast_in_dim %153, dims = [0, 1, 2] : (tensor<1x4x32xi1>) -> tensor<1x4x32x1xi1> loc(#loc312)
    %155 = stablehlo.not %154 : tensor<1x4x32x1xi1> loc(#loc274)
    %156 = stablehlo.broadcast_in_dim %cst_35, dims = [] : (tensor<f32>) -> tensor<1x4x32x32xf32> loc(#loc276)
    %157 = call @_where_4(%155, %156, %149) : (tensor<1x4x32x1xi1>, tensor<1x4x32x32xf32>, tensor<1x4x32x32xf32>) -> tensor<1x4x32x32xf32> loc(#loc263)
    %158 = stablehlo.reshape %157 : (tensor<1x4x32x32xf32>) -> tensor<4x32x32xf32> loc(#loc256)
    %159 = stablehlo.reshape %124 : (tensor<1x4x32x8xf32>) -> tensor<4x32x8xf32> loc(#loc256)
    %160 = stablehlo.dot_general %158, %159, batching_dims = [0] x [0], contracting_dims = [2] x [1] : (tensor<4x32x32xf32>, tensor<4x32x8xf32>) -> tensor<4x32x8xf32> loc(#loc265)
    %161 = stablehlo.reshape %160 : (tensor<4x32x8xf32>) -> tensor<1x4x32x8xf32> loc(#loc256)
    %162 = stablehlo.transpose %161, dims = [2, 0, 1, 3] : (tensor<1x4x32x8xf32>) -> tensor<32x1x4x8xf32> loc(#loc257)
    %163 = stablehlo.transpose %162, dims = [1, 2, 0, 3] : (tensor<32x1x4x8xf32>) -> tensor<1x4x32x8xf32> loc(#loc257)
    %164 = stablehlo.transpose %163, dims = [0, 2, 1, 3] : (tensor<1x4x32x8xf32>) -> tensor<1x32x4x8xf32> loc(#loc257)
    %165 = stablehlo.reshape %164 : (tensor<1x32x4x8xf32>) -> tensor<1x32x32xf32> loc(#loc256)
    %166 = stablehlo.reshape %165 : (tensor<1x32x32xf32>) -> tensor<32x32xf32> loc(#loc256)
    %167 = stablehlo.transpose %arg11, dims = [1, 0] : (tensor<32x32xf32>) -> tensor<32x32xf32> loc(#loc257)
    %168 = stablehlo.broadcast_in_dim %cst_36, dims = [] : (tensor<f32>) -> tensor<32xf32> loc(#loc258)
    %169 = stablehlo.multiply %arg12, %168 : tensor<32xf32> loc(#loc258)
    %170 = stablehlo.dot_general %166, %167, contracting_dims = [1] x [0] : (tensor<32x32xf32>, tensor<32x32xf32>) -> tensor<32x32xf32> loc(#loc259)
    %171 = stablehlo.broadcast_in_dim %cst_36, dims = [] : (tensor<f32>) -> tensor<32x32xf32> loc(#loc260)
    %172 = stablehlo.multiply %171, %170 : tensor<32x32xf32> loc(#loc260)
    %173 = stablehlo.broadcast_in_dim %169, dims = [1] : (tensor<32xf32>) -> tensor<1x32xf32> loc(#loc261)
    %174 = stablehlo.broadcast_in_dim %173, dims = [0, 1] : (tensor<1x32xf32>) -> tensor<32x32xf32> loc(#loc262)
    %175 = stablehlo.add %174, %172 : tensor<32x32xf32> loc(#loc262)
    %176 = stablehlo.reshape %175 : (tensor<32x32xf32>) -> tensor<1x32x32xf32> loc(#loc256)
    %177 = stablehlo.broadcast_in_dim %cst_36, dims = [] : (tensor<f32>) -> tensor<1x32x32xf32> loc(#loc231)
    %178 = stablehlo.multiply %44, %177 : tensor<1x32x32xf32> loc(#loc231)
    %179 = stablehlo.add %176, %178 : tensor<1x32x32xf32> loc(#loc232)
    %180 = stablehlo.reduce(%179 init: %cst_35) applies stablehlo.add across dimensions = [2] : (tensor<1x32x32xf32>, tensor<f32>) -> tensor<1x32xf32> loc(#loc233)
    %181 = stablehlo.broadcast_in_dim %180, dims = [0, 1] : (tensor<1x32xf32>) -> tensor<1x32x1xf32> loc(#loc234)
    %182 = stablehlo.broadcast_in_dim %cst_34, dims = [] : (tensor<f32>) -> tensor<1x32x1xf32> loc(#loc235)
    %183 = stablehlo.divide %181, %182 : tensor<1x32x1xf32> loc(#loc235)
    %184 = call @_var(%179, %c_39) : (tensor<1x32x32xf32>, tensor<i32>) -> tensor<1x32x1xf32> loc(#loc236)
    %185 = stablehlo.broadcast_in_dim %cst_33, dims = [] : (tensor<f32>) -> tensor<1x32x1xf32> loc(#loc237)
    %186 = stablehlo.add %184, %185 : tensor<1x32x1xf32> loc(#loc237)
    %187 = stablehlo.rsqrt %186 : tensor<1x32x1xf32> loc(#loc238)
    %188 = stablehlo.broadcast_in_dim %183, dims = [0, 1, 2] : (tensor<1x32x1xf32>) -> tensor<1x32x32xf32> loc(#loc239)
    %189 = stablehlo.subtract %179, %188 : tensor<1x32x32xf32> loc(#loc239)
    %190 = stablehlo.broadcast_in_dim %187, dims = [0, 1, 2] : (tensor<1x32x1xf32>) -> tensor<1x32x32xf32> loc(#loc240)
    %191 = stablehlo.multiply %189, %190 : tensor<1x32x32xf32> loc(#loc240)
    %192 = stablehlo.broadcast_in_dim %arg13, dims = [2] : (tensor<32xf32>) -> tensor<1x1x32xf32> loc(#loc241)
    %193 = stablehlo.broadcast_in_dim %192, dims = [0, 1, 2] : (tensor<1x1x32xf32>) -> tensor<1x32x32xf32> loc(#loc242)
    %194 = stablehlo.multiply %191, %193 : tensor<1x32x32xf32> loc(#loc242)
    %195 = stablehlo.broadcast_in_dim %arg14, dims = [2] : (tensor<32xf32>) -> tensor<1x1x32xf32> loc(#loc243)
    %196 = stablehlo.broadcast_in_dim %195, dims = [0, 1, 2] : (tensor<1x1x32xf32>) -> tensor<1x32x32xf32> loc(#loc244)
    %197 = stablehlo.add %194, %196 : tensor<1x32x32xf32> loc(#loc244)
    %198 = stablehlo.reshape %197 : (tensor<1x32x32xf32>) -> tensor<32x32xf32> loc(#loc256)
    %199 = stablehlo.transpose %arg15, dims = [1, 0] : (tensor<37x32xf32>) -> tensor<32x37xf32> loc(#loc257)
    %200 = stablehlo.broadcast_in_dim %cst_36, dims = [] : (tensor<f32>) -> tensor<37xf32> loc(#loc258)
    %201 = stablehlo.multiply %arg16, %200 : tensor<37xf32> loc(#loc258)
    %202 = stablehlo.dot_general %198, %199, contracting_dims = [1] x [0] : (tensor<32x32xf32>, tensor<32x37xf32>) -> tensor<32x37xf32> loc(#loc259)
    %203 = stablehlo.broadcast_in_dim %cst_36, dims = [] : (tensor<f32>) -> tensor<32x37xf32> loc(#loc260)
    %204 = stablehlo.multiply %203, %202 : tensor<32x37xf32> loc(#loc260)
    %205 = stablehlo.broadcast_in_dim %201, dims = [1] : (tensor<37xf32>) -> tensor<1x37xf32> loc(#loc261)
    %206 = stablehlo.broadcast_in_dim %205, dims = [0, 1] : (tensor<1x37xf32>) -> tensor<32x37xf32> loc(#loc262)
    %207 = stablehlo.add %206, %204 : tensor<32x37xf32> loc(#loc262)
    %208 = stablehlo.reshape %207 : (tensor<32x37xf32>) -> tensor<1x32x37xf32> loc(#loc256)
    %209 = stablehlo.broadcast_in_dim %cst_28, dims = [] : (tensor<f32>) -> tensor<1x32x37xf32> loc(#loc277)
    %210 = stablehlo.multiply %209, %208 : tensor<1x32x37xf32> loc(#loc277)
    %211 = stablehlo.negate %208 : tensor<1x32x37xf32> loc(#loc278)
    %212 = stablehlo.broadcast_in_dim %cst_27, dims = [] : (tensor<f32>) -> tensor<1x32x37xf32> loc(#loc277)
    %213 = stablehlo.multiply %211, %212 : tensor<1x32x37xf32> loc(#loc277)
    %214 = stablehlo.multiply %213, %213 : tensor<1x32x37xf32> loc(#loc279)
    %215 = stablehlo.negate %214 : tensor<1x32x37xf32> loc(#loc279)
    %216 = stablehlo.abs %213 : tensor<1x32x37xf32> loc(#loc279)
    %217 = stablehlo.divide %cst_26, %214 : tensor<1x32x37xf32> loc(#loc279)
    %218 = stablehlo.exponential %215 : tensor<1x32x37xf32> loc(#loc279)
    %219 = stablehlo.divide %cst_26, %216 : tensor<1x32x37xf32> loc(#loc279)
    %220 = stablehlo.multiply %218, %219 : tensor<1x32x37xf32> loc(#loc279)
    %221 = stablehlo.compare  LT, %216, %cst_25 : (tensor<1x32x37xf32>, tensor<1x32x37xf32>) -> tensor<1x32x37xi1> loc(#loc279)
    %222 = stablehlo.multiply %cst_24, %217 : tensor<1x32x37xf32> loc(#loc279)
    %223 = stablehlo.add %222, %cst_23 : tensor<1x32x37xf32> loc(#loc279)
    %224 = stablehlo.multiply %223, %217 : tensor<1x32x37xf32> loc(#loc279)
    %225 = stablehlo.add %224, %cst_22 : tensor<1x32x37xf32> loc(#loc279)
    %226 = stablehlo.multiply %225, %217 : tensor<1x32x37xf32> loc(#loc279)
    %227 = stablehlo.add %226, %cst_21 : tensor<1x32x37xf32> loc(#loc279)
    %228 = stablehlo.multiply %227, %217 : tensor<1x32x37xf32> loc(#loc279)
    %229 = stablehlo.add %228, %cst_20 : tensor<1x32x37xf32> loc(#loc279)
    %230 = stablehlo.multiply %229, %217 : tensor<1x32x37xf32> loc(#loc279)
    %231 = stablehlo.add %230, %cst_19 : tensor<1x32x37xf32> loc(#loc279)
    %232 = stablehlo.multiply %231, %217 : tensor<1x32x37xf32> loc(#loc279)
    %233 = stablehlo.add %232, %cst_18 : tensor<1x32x37xf32> loc(#loc279)
    %234 = stablehlo.multiply %233, %217 : tensor<1x32x37xf32> loc(#loc279)
    %235 = stablehlo.add %234, %cst_17 : tensor<1x32x37xf32> loc(#loc279)
    %236 = stablehlo.multiply %235, %217 : tensor<1x32x37xf32> loc(#loc279)
    %237 = stablehlo.add %236, %cst_16 : tensor<1x32x37xf32> loc(#loc279)
    %238 = stablehlo.multiply %cst_15, %217 : tensor<1x32x37xf32> loc(#loc279)
    %239 = stablehlo.add %238, %cst_14 : tensor<1x32x37xf32> loc(#loc279)
    %240 = stablehlo.multiply %239, %217 : tensor<1x32x37xf32> loc(#loc279)
    %241 = stablehlo.add %240, %cst_13 : tensor<1x32x37xf32> loc(#loc279)
    %242 = stablehlo.multiply %241, %217 : tensor<1x32x37xf32> loc(#loc279)
    %243 = stablehlo.add %242, %cst_12 : tensor<1x32x37xf32> loc(#loc279)
    %244 = stablehlo.multiply %243, %217 : tensor<1x32x37xf32> loc(#loc279)
    %245 = stablehlo.add %244, %cst_11 : tensor<1x32x37xf32> loc(#loc279)
    %246 = stablehlo.multiply %245, %217 : tensor<1x32x37xf32> loc(#loc279)
    %247 = stablehlo.add %246, %cst_10 : tensor<1x32x37xf32> loc(#loc279)
    %248 = stablehlo.multiply %247, %217 : tensor<1x32x37xf32> loc(#loc279)
    %249 = stablehlo.add %248, %cst_9 : tensor<1x32x37xf32> loc(#loc279)
    %250 = stablehlo.multiply %249, %217 : tensor<1x32x37xf32> loc(#loc279)
    %251 = stablehlo.add %250, %cst_8 : tensor<1x32x37xf32> loc(#loc279)
    %252 = stablehlo.select %221, %237, %251 : tensor<1x32x37xi1>, tensor<1x32x37xf32> loc(#loc279)
    %253 = stablehlo.multiply %220, %252 : tensor<1x32x37xf32> loc(#loc279)
    %254 = stablehlo.compare  LT, %215, %cst_7 : (tensor<1x32x37xf32>, tensor<1x32x37xf32>) -> tensor<1x32x37xi1> loc(#loc279)
    %255 = stablehlo.select %254, %cst_6, %253 : tensor<1x32x37xi1>, tensor<1x32x37xf32> loc(#loc279)
    %256 = stablehlo.compare  LT, %213, %cst_6 : (tensor<1x32x37xf32>, tensor<1x32x37xf32>) -> tensor<1x32x37xi1> loc(#loc279)
    %257 = stablehlo.subtract %cst_25, %255 : tensor<1x32x37xf32> loc(#loc279)
    %258 = stablehlo.select %256, %257, %255 : tensor<1x32x37xi1>, tensor<1x32x37xf32> loc(#loc279)
    %259 = stablehlo.multiply %213, %213 : tensor<1x32x37xf32> loc(#loc279)
    %260 = stablehlo.multiply %cst_5, %259 : tensor<1x32x37xf32> loc(#loc279)
    %261 = stablehlo.add %260, %cst_4 : tensor<1x32x37xf32> loc(#loc279)
    %262 = stablehlo.multiply %261, %259 : tensor<1x32x37xf32> loc(#loc279)
    %263 = stablehlo.add %262, %cst_3 : tensor<1x32x37xf32> loc(#loc279)
    %264 = stablehlo.multiply %263, %259 : tensor<1x32x37xf32> loc(#loc279)
    %265 = stablehlo.add %264, %cst_2 : tensor<1x32x37xf32> loc(#loc279)
    %266 = stablehlo.multiply %265, %259 : tensor<1x32x37xf32> loc(#loc279)
    %267 = stablehlo.add %266, %cst_1 : tensor<1x32x37xf32> loc(#loc279)
    %268 = stablehlo.multiply %267, %259 : tensor<1x32x37xf32> loc(#loc279)
    %269 = stablehlo.add %268, %cst_0 : tensor<1x32x37xf32> loc(#loc279)
    %270 = stablehlo.multiply %269, %259 : tensor<1x32x37xf32> loc(#loc279)
    %271 = stablehlo.add %270, %cst : tensor<1x32x37xf32> loc(#loc279)
    %272 = stablehlo.multiply %213, %271 : tensor<1x32x37xf32> loc(#loc279)
    %273 = stablehlo.subtract %cst_26, %272 : tensor<1x32x37xf32> loc(#loc279)
    %274 = stablehlo.abs %213 : tensor<1x32x37xf32> loc(#loc279)
    %275 = stablehlo.compare  LT, %274, %cst_26 : (tensor<1x32x37xf32>, tensor<1x32x37xf32>) -> tensor<1x32x37xi1> loc(#loc279)
    %276 = stablehlo.select %275, %273, %258 : tensor<1x32x37xi1>, tensor<1x32x37xf32> loc(#loc279)
    %277 = stablehlo.multiply %210, %276 : tensor<1x32x37xf32> loc(#loc277)
    %278 = stablehlo.reshape %277 : (tensor<1x32x37xf32>) -> tensor<32x37xf32> loc(#loc256)
    %279 = stablehlo.transpose %arg17, dims = [1, 0] : (tensor<32x37xf32>) -> tensor<37x32xf32> loc(#loc257)
    %280 = stablehlo.broadcast_in_dim %cst_36, dims = [] : (tensor<f32>) -> tensor<32xf32> loc(#loc258)
    %281 = stablehlo.multiply %arg18, %280 : tensor<32xf32> loc(#loc258)
    %282 = stablehlo.dot_general %278, %279, contracting_dims = [1] x [0] : (tensor<32x37xf32>, tensor<37x32xf32>) -> tensor<32x32xf32> loc(#loc259)
    %283 = stablehlo.broadcast_in_dim %cst_36, dims = [] : (tensor<f32>) -> tensor<32x32xf32> loc(#loc260)
    %284 = stablehlo.multiply %283, %282 : tensor<32x32xf32> loc(#loc260)
    %285 = stablehlo.broadcast_in_dim %281, dims = [1] : (tensor<32xf32>) -> tensor<1x32xf32> loc(#loc261)
    %286 = stablehlo.broadcast_in_dim %285, dims = [0, 1] : (tensor<1x32xf32>) -> tensor<32x32xf32> loc(#loc262)
    %287 = stablehlo.add %286, %284 : tensor<32x32xf32> loc(#loc262)
    %288 = stablehlo.reshape %287 : (tensor<32x32xf32>) -> tensor<1x32x32xf32> loc(#loc256)
    %289 = stablehlo.broadcast_in_dim %cst_36, dims = [] : (tensor<f32>) -> tensor<1x32x32xf32> loc(#loc231)
    %290 = stablehlo.multiply %197, %289 : tensor<1x32x32xf32> loc(#loc231)
    %291 = stablehlo.add %288, %290 : tensor<1x32x32xf32> loc(#loc232)
    %292 = stablehlo.reduce(%291 init: %cst_35) applies stablehlo.add across dimensions = [2] : (tensor<1x32x32xf32>, tensor<f32>) -> tensor<1x32xf32> loc(#loc233)
    %293 = stablehlo.broadcast_in_dim %292, dims = [0, 1] : (tensor<1x32xf32>) -> tensor<1x32x1xf32> loc(#loc234)
    %294 = stablehlo.broadcast_in_dim %cst_34, dims = [] : (tensor<f32>) -> tensor<1x32x1xf32> loc(#loc235)
    %295 = stablehlo.divide %293, %294 : tensor<1x32x1xf32> loc(#loc235)
    %296 = call @_var(%291, %c_39) : (tensor<1x32x32xf32>, tensor<i32>) -> tensor<1x32x1xf32> loc(#loc236)
    %297 = stablehlo.broadcast_in_dim %cst_33, dims = [] : (tensor<f32>) -> tensor<1x32x1xf32> loc(#loc237)
    %298 = stablehlo.add %296, %297 : tensor<1x32x1xf32> loc(#loc237)
    %299 = stablehlo.rsqrt %298 : tensor<1x32x1xf32> loc(#loc238)
    %300 = stablehlo.broadcast_in_dim %295, dims = [0, 1, 2] : (tensor<1x32x1xf32>) -> tensor<1x32x32xf32> loc(#loc239)
    %301 = stablehlo.subtract %291, %300 : tensor<1x32x32xf32> loc(#loc239)
    %302 = stablehlo.broadcast_in_dim %299, dims = [0, 1, 2] : (tensor<1x32x1xf32>) -> tensor<1x32x32xf32> loc(#loc240)
    %303 = stablehlo.multiply %301, %302 : tensor<1x32x32xf32> loc(#loc240)
    %304 = stablehlo.broadcast_in_dim %arg19, dims = [2] : (tensor<32xf32>) -> tensor<1x1x32xf32> loc(#loc241)
    %305 = stablehlo.broadcast_in_dim %304, dims = [0, 1, 2] : (tensor<1x1x32xf32>) -> tensor<1x32x32xf32> loc(#loc242)
    %306 = stablehlo.multiply %303, %305 : tensor<1x32x32xf32> loc(#loc242)
    %307 = stablehlo.broadcast_in_dim %arg20, dims = [2] : (tensor<32xf32>) -> tensor<1x1x32xf32> loc(#loc243)
    %308 = stablehlo.broadcast_in_dim %307, dims = [0, 1, 2] : (tensor<1x1x32xf32>) -> tensor<1x32x32xf32> loc(#loc244)
    %309 = stablehlo.add %306, %308 : tensor<1x32x32xf32> loc(#loc244)
    %310 = stablehlo.reshape %309 : (tensor<1x32x32xf32>) -> tensor<32x32xf32> loc(#loc256)
    %311 = stablehlo.transpose %arg21, dims = [1, 0] : (tensor<32x32xf32>) -> tensor<32x32xf32> loc(#loc257)
    %312 = stablehlo.broadcast_in_dim %cst_36, dims = [] : (tensor<f32>) -> tensor<32xf32> loc(#loc258)
    %313 = stablehlo.multiply %arg22, %312 : tensor<32xf32> loc(#loc258)
    %314 = stablehlo.dot_general %310, %311, contracting_dims = [1] x [0] : (tensor<32x32xf32>, tensor<32x32xf32>) -> tensor<32x32xf32> loc(#loc259)
    %315 = stablehlo.broadcast_in_dim %cst_36, dims = [] : (tensor<f32>) -> tensor<32x32xf32> loc(#loc260)
    %316 = stablehlo.multiply %315, %314 : tensor<32x32xf32> loc(#loc260)
    %317 = stablehlo.broadcast_in_dim %313, dims = [1] : (tensor<32xf32>) -> tensor<1x32xf32> loc(#loc261)
    %318 = stablehlo.broadcast_in_dim %317, dims = [0, 1] : (tensor<1x32xf32>) -> tensor<32x32xf32> loc(#loc262)
    %319 = stablehlo.add %318, %316 : tensor<32x32xf32> loc(#loc262)
    %320 = stablehlo.reshape %319 : (tensor<32x32xf32>) -> tensor<1x32x32xf32> loc(#loc256)
    %321 = stablehlo.reshape %320 : (tensor<1x32x32xf32>) -> tensor<1x32x4x8xf32> loc(#loc256)
    %322 = stablehlo.transpose %321, dims = [0, 2, 1, 3] : (tensor<1x32x4x8xf32>) -> tensor<1x4x32x8xf32> loc(#loc257)
    %323 = stablehlo.reshape %309 : (tensor<1x32x32xf32>) -> tensor<32x32xf32> loc(#loc256)
    %324 = stablehlo.transpose %arg23, dims = [1, 0] : (tensor<32x32xf32>) -> tensor<32x32xf32> loc(#loc257)
    %325 = stablehlo.broadcast_in_dim %cst_36, dims = [] : (tensor<f32>) -> tensor<32xf32> loc(#loc258)
    %326 = stablehlo.multiply %arg24, %325 : tensor<32xf32> loc(#loc258)
    %327 = stablehlo.dot_general %323, %324, contracting_dims = [1] x [0] : (tensor<32x32xf32>, tensor<32x32xf32>) -> tensor<32x32xf32> loc(#loc259)
    %328 = stablehlo.broadcast_in_dim %cst_36, dims = [] : (tensor<f32>) -> tensor<32x32xf32> loc(#loc260)
    %329 = stablehlo.multiply %328, %327 : tensor<32x32xf32> loc(#loc260)
    %330 = stablehlo.broadcast_in_dim %326, dims = [1] : (tensor<32xf32>) -> tensor<1x32xf32> loc(#loc261)
    %331 = stablehlo.broadcast_in_dim %330, dims = [0, 1] : (tensor<1x32xf32>) -> tensor<32x32xf32> loc(#loc262)
    %332 = stablehlo.add %331, %329 : tensor<32x32xf32> loc(#loc262)
    %333 = stablehlo.reshape %332 : (tensor<32x32xf32>) -> tensor<1x32x32xf32> loc(#loc256)
    %334 = stablehlo.reshape %333 : (tensor<1x32x32xf32>) -> tensor<1x32x4x8xf32> loc(#loc256)
    %335 = stablehlo.transpose %334, dims = [0, 2, 1, 3] : (tensor<1x32x4x8xf32>) -> tensor<1x4x32x8xf32> loc(#loc257)
    %336 = stablehlo.reshape %309 : (tensor<1x32x32xf32>) -> tensor<32x32xf32> loc(#loc256)
    %337 = stablehlo.transpose %arg25, dims = [1, 0] : (tensor<32x32xf32>) -> tensor<32x32xf32> loc(#loc257)
    %338 = stablehlo.broadcast_in_dim %cst_36, dims = [] : (tensor<f32>) -> tensor<32xf32> loc(#loc258)
    %339 = stablehlo.multiply %arg26, %338 : tensor<32xf32> loc(#loc258)
    %340 = stablehlo.dot_general %336, %337, contracting_dims = [1] x [0] : (tensor<32x32xf32>, tensor<32x32xf32>) -> tensor<32x32xf32> loc(#loc259)
    %341 = stablehlo.broadcast_in_dim %cst_36, dims = [] : (tensor<f32>) -> tensor<32x32xf32> loc(#loc260)
    %342 = stablehlo.multiply %341, %340 : tensor<32x32xf32> loc(#loc260)
    %343 = stablehlo.broadcast_in_dim %339, dims = [1] : (tensor<32xf32>) -> tensor<1x32xf32> loc(#loc261)
    %344 = stablehlo.broadcast_in_dim %343, dims = [0, 1] : (tensor<1x32xf32>) -> tensor<32x32xf32> loc(#loc262)
    %345 = stablehlo.add %344, %342 : tensor<32x32xf32> loc(#loc262)
    %346 = stablehlo.reshape %345 : (tensor<32x32xf32>) -> tensor<1x32x32xf32> loc(#loc256)
    %347 = stablehlo.reshape %346 : (tensor<1x32x32xf32>) -> tensor<1x32x4x8xf32> loc(#loc256)
    %348 = stablehlo.transpose %347, dims = [0, 2, 1, 3] : (tensor<1x32x4x8xf32>) -> tensor<1x4x32x8xf32> loc(#loc257)
    %349 = call @_where_3(%85, %cst_35, %cst_30) : (tensor<1x1x32x32xi1>, tensor<f32>, tensor<f32>) -> tensor<1x1x32x32xf32> loc(#loc263)
    %350 = stablehlo.broadcast_in_dim %cst_29, dims = [] : (tensor<f32>) -> tensor<1x4x32x8xf32> loc(#loc264)
    %351 = stablehlo.multiply %322, %350 : tensor<1x4x32x8xf32> loc(#loc264)
    %352 = stablehlo.transpose %335, dims = [0, 1, 3, 2] : (tensor<1x4x32x8xf32>) -> tensor<1x4x8x32xf32> loc(#loc257)
    %353 = stablehlo.broadcast_in_dim %cst_29, dims = [] : (tensor<f32>) -> tensor<1x4x8x32xf32> loc(#loc264)
    %354 = stablehlo.multiply %352, %353 : tensor<1x4x8x32xf32> loc(#loc264)
    %355 = stablehlo.reshape %351 : (tensor<1x4x32x8xf32>) -> tensor<4x32x8xf32> loc(#loc256)
    %356 = stablehlo.reshape %354 : (tensor<1x4x8x32xf32>) -> tensor<4x8x32xf32> loc(#loc256)
    %357 = stablehlo.dot_general %355, %356, batching_dims = [0] x [0], contracting_dims = [2] x [1] : (tensor<4x32x8xf32>, tensor<4x8x32xf32>) -> tensor<4x32x32xf32> loc(#loc265)
    %358 = stablehlo.reshape %357 : (tensor<4x32x32xf32>) -> tensor<1x4x32x32xf32> loc(#loc256)
    %359 = stablehlo.broadcast_in_dim %cst_36, dims = [] : (tensor<f32>) -> tensor<1x1x32x32xf32> loc(#loc231)
    %360 = stablehlo.multiply %349, %359 : tensor<1x1x32x32xf32> loc(#loc231)
    %361 = stablehlo.broadcast_in_dim %360, dims = [0, 1, 2, 3] : (tensor<1x1x32x32xf32>) -> tensor<1x4x32x32xf32> loc(#loc232)
    %362 = stablehlo.add %358, %361 : tensor<1x4x32x32xf32> loc(#loc232)
    %363 = stablehlo.reduce(%362 init: %cst_30) applies stablehlo.maximum across dimensions = [3] : (tensor<1x4x32x32xf32>, tensor<f32>) -> tensor<1x4x32xf32> loc(#loc266)
    %364 = stablehlo.broadcast_in_dim %cst_30, dims = [] : (tensor<f32>) -> tensor<1x4x32xf32> loc(#loc267)
    %365 = stablehlo.maximum %364, %363 : tensor<1x4x32xf32> loc(#loc267)
    %366 = stablehlo.broadcast_in_dim %365, dims = [0, 1, 2] : (tensor<1x4x32xf32>) -> tensor<1x4x32x1xf32> loc(#loc268)
    %367 = stablehlo.broadcast_in_dim %366, dims = [0, 1, 2, 3] : (tensor<1x4x32x1xf32>) -> tensor<1x4x32x32xf32> loc(#loc269)
    %368 = stablehlo.subtract %362, %367 : tensor<1x4x32x32xf32> loc(#loc269)
    %369 = stablehlo.exponential %368 : tensor<1x4x32x32xf32> loc(#loc270)
    %370 = stablehlo.reduce(%369 init: %cst_35) applies stablehlo.add across dimensions = [3] : (tensor<1x4x32x32xf32>, tensor<f32>) -> tensor<1x4x32xf32> loc(#loc271)
    %371 = stablehlo.broadcast_in_dim %370, dims = [0, 1, 2] : (tensor<1x4x32xf32>) -> tensor<1x4x32x1xf32> loc(#loc268)
    %372 = stablehlo.broadcast_in_dim %371, dims = [0, 1, 2, 3] : (tensor<1x4x32x1xf32>) -> tensor<1x4x32x32xf32> loc(#loc272)
    %373 = stablehlo.divide %369, %372 : tensor<1x4x32x32xf32> loc(#loc272)
    %374 = stablehlo.broadcast_in_dim %cst_30, dims = [] : (tensor<f32>) -> tensor<1x4x32x32xf32> loc(#loc273)
    %375 = stablehlo.compare  EQ, %362, %374,  FLOAT : (tensor<1x4x32x32xf32>, tensor<1x4x32x32xf32>) -> tensor<1x4x32x32xi1> loc(#loc273)
    %376 = stablehlo.not %375 : tensor<1x4x32x32xi1> loc(#loc274)
    %377 = stablehlo.reduce(%376 init: %c) applies stablehlo.or across dimensions = [3] : (tensor<1x4x32x32xi1>, tensor<i1>) -> tensor<1x4x32xi1> loc(#loc311)
    %378 = stablehlo.broadcast_in_dim %377, dims = [0, 1, 2] : (tensor<1x4x32xi1>) -> tensor<1x4x32x1xi1> loc(#loc312)
    %379 = stablehlo.not %378 : tensor<1x4x32x1xi1> loc(#loc274)
    %380 = stablehlo.broadcast_in_dim %cst_35, dims = [] : (tensor<f32>) -> tensor<1x4x32x32xf32> loc(#loc276)
    %381 = call @_where_4(%379, %380, %373) : (tensor<1x4x32x1xi1>, tensor<1x4x32x32xf32>, tensor<1x4x32x32xf32>) -> tensor<1x4x32x32xf32> loc(#loc263)
    %382 = stablehlo.reshape %381 : (tensor<1x4x32x32xf32>) -> tensor<4x32x32xf32> loc(#loc256)
    %383 = stablehlo.reshape %348 : (tensor<1x4x32x8xf32>) -> tensor<4x32x8xf32> loc(#loc256)
    %384 = stablehlo.dot_general %382, %383, batching_dims = [0] x [0], contracting_dims = [2] x [1] : (tensor<4x32x32xf32>, tensor<4x32x8xf32>) -> tensor<4x32x8xf32> loc(#loc265)
    %385 = stablehlo.reshape %384 : (tensor<4x32x8xf32>) -> tensor<1x4x32x8xf32> loc(#loc256)
    %386 = stablehlo.transpose %385, dims = [2, 0, 1, 3] : (tensor<1x4x32x8xf32>) -> tensor<32x1x4x8xf32> loc(#loc257)
    %387 = stablehlo.transpose %386, dims = [1, 2, 0, 3] : (tensor<32x1x4x8xf32>) -> tensor<1x4x32x8xf32> loc(#loc257)
    %388 = stablehlo.transpose %387, dims = [0, 2, 1, 3] : (tensor<1x4x32x8xf32>) -> tensor<1x32x4x8xf32> loc(#loc257)
    %389 = stablehlo.reshape %388 : (tensor<1x32x4x8xf32>) -> tensor<1x32x32xf32> loc(#loc256)
    %390 = stablehlo.reshape %389 : (tensor<1x32x32xf32>) -> tensor<32x32xf32> loc(#loc256)
    %391 = stablehlo.transpose %arg27, dims = [1, 0] : (tensor<32x32xf32>) -> tensor<32x32xf32> loc(#loc257)
    %392 = stablehlo.broadcast_in_dim %cst_36, dims = [] : (tensor<f32>) -> tensor<32xf32> loc(#loc258)
    %393 = stablehlo.multiply %arg28, %392 : tensor<32xf32> loc(#loc258)
    %394 = stablehlo.dot_general %390, %391, contracting_dims = [1] x [0] : (tensor<32x32xf32>, tensor<32x32xf32>) -> tensor<32x32xf32> loc(#loc259)
    %395 = stablehlo.broadcast_in_dim %cst_36, dims = [] : (tensor<f32>) -> tensor<32x32xf32> loc(#loc260)
    %396 = stablehlo.multiply %395, %394 : tensor<32x32xf32> loc(#loc260)
    %397 = stablehlo.broadcast_in_dim %393, dims = [1] : (tensor<32xf32>) -> tensor<1x32xf32> loc(#loc261)
    %398 = stablehlo.broadcast_in_dim %397, dims = [0, 1] : (tensor<1x32xf32>) -> tensor<32x32xf32> loc(#loc262)
    %399 = stablehlo.add %398, %396 : tensor<32x32xf32> loc(#loc262)
    %400 = stablehlo.reshape %399 : (tensor<32x32xf32>) -> tensor<1x32x32xf32> loc(#loc256)
    %401 = stablehlo.broadcast_in_dim %cst_36, dims = [] : (tensor<f32>) -> tensor<1x32x32xf32> loc(#loc231)
    %402 = stablehlo.multiply %309, %401 : tensor<1x32x32xf32> loc(#loc231)
    %403 = stablehlo.add %400, %402 : tensor<1x32x32xf32> loc(#loc232)
    %404 = stablehlo.reduce(%403 init: %cst_35) applies stablehlo.add across dimensions = [2] : (tensor<1x32x32xf32>, tensor<f32>) -> tensor<1x32xf32> loc(#loc233)
    %405 = stablehlo.broadcast_in_dim %404, dims = [0, 1] : (tensor<1x32xf32>) -> tensor<1x32x1xf32> loc(#loc234)
    %406 = stablehlo.broadcast_in_dim %cst_34, dims = [] : (tensor<f32>) -> tensor<1x32x1xf32> loc(#loc235)
    %407 = stablehlo.divide %405, %406 : tensor<1x32x1xf32> loc(#loc235)
    %408 = call @_var(%403, %c_39) : (tensor<1x32x32xf32>, tensor<i32>) -> tensor<1x32x1xf32> loc(#loc236)
    %409 = stablehlo.broadcast_in_dim %cst_33, dims = [] : (tensor<f32>) -> tensor<1x32x1xf32> loc(#loc237)
    %410 = stablehlo.add %408, %409 : tensor<1x32x1xf32> loc(#loc237)
    %411 = stablehlo.rsqrt %410 : tensor<1x32x1xf32> loc(#loc238)
    %412 = stablehlo.broadcast_in_dim %407, dims = [0, 1, 2] : (tensor<1x32x1xf32>) -> tensor<1x32x32xf32> loc(#loc239)
    %413 = stablehlo.subtract %403, %412 : tensor<1x32x32xf32> loc(#loc239)
    %414 = stablehlo.broadcast_in_dim %411, dims = [0, 1, 2] : (tensor<1x32x1xf32>) -> tensor<1x32x32xf32> loc(#loc240)
    %415 = stablehlo.multiply %413, %414 : tensor<1x32x32xf32> loc(#loc240)
    %416 = stablehlo.broadcast_in_dim %arg29, dims = [2] : (tensor<32xf32>) -> tensor<1x1x32xf32> loc(#loc241)
    %417 = stablehlo.broadcast_in_dim %416, dims = [0, 1, 2] : (tensor<1x1x32xf32>) -> tensor<1x32x32xf32> loc(#loc242)
    %418 = stablehlo.multiply %415, %417 : tensor<1x32x32xf32> loc(#loc242)
    %419 = stablehlo.broadcast_in_dim %arg30, dims = [2] : (tensor<32xf32>) -> tensor<1x1x32xf32> loc(#loc243)
    %420 = stablehlo.broadcast_in_dim %419, dims = [0, 1, 2] : (tensor<1x1x32xf32>) -> tensor<1x32x32xf32> loc(#loc244)
    %421 = stablehlo.add %418, %420 : tensor<1x32x32xf32> loc(#loc244)
    %422 = stablehlo.reshape %421 : (tensor<1x32x32xf32>) -> tensor<32x32xf32> loc(#loc256)
    %423 = stablehlo.transpose %arg31, dims = [1, 0] : (tensor<37x32xf32>) -> tensor<32x37xf32> loc(#loc257)
    %424 = stablehlo.broadcast_in_dim %cst_36, dims = [] : (tensor<f32>) -> tensor<37xf32> loc(#loc258)
    %425 = stablehlo.multiply %arg32, %424 : tensor<37xf32> loc(#loc258)
    %426 = stablehlo.dot_general %422, %423, contracting_dims = [1] x [0] : (tensor<32x32xf32>, tensor<32x37xf32>) -> tensor<32x37xf32> loc(#loc259)
    %427 = stablehlo.broadcast_in_dim %cst_36, dims = [] : (tensor<f32>) -> tensor<32x37xf32> loc(#loc260)
    %428 = stablehlo.multiply %427, %426 : tensor<32x37xf32> loc(#loc260)
    %429 = stablehlo.broadcast_in_dim %425, dims = [1] : (tensor<37xf32>) -> tensor<1x37xf32> loc(#loc261)
    %430 = stablehlo.broadcast_in_dim %429, dims = [0, 1] : (tensor<1x37xf32>) -> tensor<32x37xf32> loc(#loc262)
    %431 = stablehlo.add %430, %428 : tensor<32x37xf32> loc(#loc262)
    %432 = stablehlo.reshape %431 : (tensor<32x37xf32>) -> tensor<1x32x37xf32> loc(#loc256)
    %433 = stablehlo.broadcast_in_dim %cst_28, dims = [] : (tensor<f32>) -> tensor<1x32x37xf32> loc(#loc277)
    %434 = stablehlo.multiply %433, %432 : tensor<1x32x37xf32> loc(#loc277)
    %435 = stablehlo.negate %432 : tensor<1x32x37xf32> loc(#loc278)
    %436 = stablehlo.broadcast_in_dim %cst_27, dims = [] : (tensor<f32>) -> tensor<1x32x37xf32> loc(#loc277)
    %437 = stablehlo.multiply %435, %436 : tensor<1x32x37xf32> loc(#loc277)
    %438 = stablehlo.multiply %437, %437 : tensor<1x32x37xf32> loc(#loc279)
    %439 = stablehlo.negate %438 : tensor<1x32x37xf32> loc(#loc279)
    %440 = stablehlo.abs %437 : tensor<1x32x37xf32> loc(#loc279)
    %441 = stablehlo.divide %cst_26, %438 : tensor<1x32x37xf32> loc(#loc279)
    %442 = stablehlo.exponential %439 : tensor<1x32x37xf32> loc(#loc279)
    %443 = stablehlo.divide %cst_26, %440 : tensor<1x32x37xf32> loc(#loc279)
    %444 = stablehlo.multiply %442, %443 : tensor<1x32x37xf32> loc(#loc279)
    %445 = stablehlo.compare  LT, %440, %cst_25 : (tensor<1x32x37xf32>, tensor<1x32x37xf32>) -> tensor<1x32x37xi1> loc(#loc279)
    %446 = stablehlo.multiply %cst_24, %441 : tensor<1x32x37xf32> loc(#loc279)
    %447 = stablehlo.add %446, %cst_23 : tensor<1x32x37xf32> loc(#loc279)
    %448 = stablehlo.multiply %447, %441 : tensor<1x32x37xf32> loc(#loc279)
    %449 = stablehlo.add %448, %cst_22 : tensor<1x32x37xf32> loc(#loc279)
    %450 = stablehlo.multiply %449, %441 : tensor<1x32x37xf32> loc(#loc279)
    %451 = stablehlo.add %450, %cst_21 : tensor<1x32x37xf32> loc(#loc279)
    %452 = stablehlo.multiply %451, %441 : tensor<1x32x37xf32> loc(#loc279)
    %453 = stablehlo.add %452, %cst_20 : tensor<1x32x37xf32> loc(#loc279)
    %454 = stablehlo.multiply %453, %441 : tensor<1x32x37xf32> loc(#loc279)
    %455 = stablehlo.add %454, %cst_19 : tensor<1x32x37xf32> loc(#loc279)
    %456 = stablehlo.multiply %455, %441 : tensor<1x32x37xf32> loc(#loc279)
    %457 = stablehlo.add %456, %cst_18 : tensor<1x32x37xf32> loc(#loc279)
    %458 = stablehlo.multiply %457, %441 : tensor<1x32x37xf32> loc(#loc279)
    %459 = stablehlo.add %458, %cst_17 : tensor<1x32x37xf32> loc(#loc279)
    %460 = stablehlo.multiply %459, %441 : tensor<1x32x37xf32> loc(#loc279)
    %461 = stablehlo.add %460, %cst_16 : tensor<1x32x37xf32> loc(#loc279)
    %462 = stablehlo.multiply %cst_15, %441 : tensor<1x32x37xf32> loc(#loc279)
    %463 = stablehlo.add %462, %cst_14 : tensor<1x32x37xf32> loc(#loc279)
    %464 = stablehlo.multiply %463, %441 : tensor<1x32x37xf32> loc(#loc279)
    %465 = stablehlo.add %464, %cst_13 : tensor<1x32x37xf32> loc(#loc279)
    %466 = stablehlo.multiply %465, %441 : tensor<1x32x37xf32> loc(#loc279)
    %467 = stablehlo.add %466, %cst_12 : tensor<1x32x37xf32> loc(#loc279)
    %468 = stablehlo.multiply %467, %441 : tensor<1x32x37xf32> loc(#loc279)
    %469 = stablehlo.add %468, %cst_11 : tensor<1x32x37xf32> loc(#loc279)
    %470 = stablehlo.multiply %469, %441 : tensor<1x32x37xf32> loc(#loc279)
    %471 = stablehlo.add %470, %cst_10 : tensor<1x32x37xf32> loc(#loc279)
    %472 = stablehlo.multiply %471, %441 : tensor<1x32x37xf32> loc(#loc279)
    %473 = stablehlo.add %472, %cst_9 : tensor<1x32x37xf32> loc(#loc279)
    %474 = stablehlo.multiply %473, %441 : tensor<1x32x37xf32> loc(#loc279)
    %475 = stablehlo.add %474, %cst_8 : tensor<1x32x37xf32> loc(#loc279)
    %476 = stablehlo.select %445, %461, %475 : tensor<1x32x37xi1>, tensor<1x32x37xf32> loc(#loc279)
    %477 = stablehlo.multiply %444, %476 : tensor<1x32x37xf32> loc(#loc279)
    %478 = stablehlo.compare  LT, %439, %cst_7 : (tensor<1x32x37xf32>, tensor<1x32x37xf32>) -> tensor<1x32x37xi1> loc(#loc279)
    %479 = stablehlo.select %478, %cst_6, %477 : tensor<1x32x37xi1>, tensor<1x32x37xf32> loc(#loc279)
    %480 = stablehlo.compare  LT, %437, %cst_6 : (tensor<1x32x37xf32>, tensor<1x32x37xf32>) -> tensor<1x32x37xi1> loc(#loc279)
    %481 = stablehlo.subtract %cst_25, %479 : tensor<1x32x37xf32> loc(#loc279)
    %482 = stablehlo.select %480, %481, %479 : tensor<1x32x37xi1>, tensor<1x32x37xf32> loc(#loc279)
    %483 = stablehlo.multiply %437, %437 : tensor<1x32x37xf32> loc(#loc279)
    %484 = stablehlo.multiply %cst_5, %483 : tensor<1x32x37xf32> loc(#loc279)
    %485 = stablehlo.add %484, %cst_4 : tensor<1x32x37xf32> loc(#loc279)
    %486 = stablehlo.multiply %485, %483 : tensor<1x32x37xf32> loc(#loc279)
    %487 = stablehlo.add %486, %cst_3 : tensor<1x32x37xf32> loc(#loc279)
    %488 = stablehlo.multiply %487, %483 : tensor<1x32x37xf32> loc(#loc279)
    %489 = stablehlo.add %488, %cst_2 : tensor<1x32x37xf32> loc(#loc279)
    %490 = stablehlo.multiply %489, %483 : tensor<1x32x37xf32> loc(#loc279)
    %491 = stablehlo.add %490, %cst_1 : tensor<1x32x37xf32> loc(#loc279)
    %492 = stablehlo.multiply %491, %483 : tensor<1x32x37xf32> loc(#loc279)
    %493 = stablehlo.add %492, %cst_0 : tensor<1x32x37xf32> loc(#loc279)
    %494 = stablehlo.multiply %493, %483 : tensor<1x32x37xf32> loc(#loc279)
    %495 = stablehlo.add %494, %cst : tensor<1x32x37xf32> loc(#loc279)
    %496 = stablehlo.multiply %437, %495 : tensor<1x32x37xf32> loc(#loc279)
    %497 = stablehlo.subtract %cst_26, %496 : tensor<1x32x37xf32> loc(#loc279)
    %498 = stablehlo.abs %437 : tensor<1x32x37xf32> loc(#loc279)
    %499 = stablehlo.compare  LT, %498, %cst_26 : (tensor<1x32x37xf32>, tensor<1x32x37xf32>) -> tensor<1x32x37xi1> loc(#loc279)
    %500 = stablehlo.select %499, %497, %482 : tensor<1x32x37xi1>, tensor<1x32x37xf32> loc(#loc279)
    %501 = stablehlo.multiply %434, %500 : tensor<1x32x37xf32> loc(#loc277)
    %502 = stablehlo.reshape %501 : (tensor<1x32x37xf32>) -> tensor<32x37xf32> loc(#loc256)
    %503 = stablehlo.transpose %arg33, dims = [1, 0] : (tensor<32x37xf32>) -> tensor<37x32xf32> loc(#loc257)
    %504 = stablehlo.broadcast_in_dim %cst_36, dims = [] : (tensor<f32>) -> tensor<32xf32> loc(#loc258)
    %505 = stablehlo.multiply %arg34, %504 : tensor<32xf32> loc(#loc258)
    %506 = stablehlo.dot_general %502, %503, contracting_dims = [1] x [0] : (tensor<32x37xf32>, tensor<37x32xf32>) -> tensor<32x32xf32> loc(#loc259)
    %507 = stablehlo.broadcast_in_dim %cst_36, dims = [] : (tensor<f32>) -> tensor<32x32xf32> loc(#loc260)
    %508 = stablehlo.multiply %507, %506 : tensor<32x32xf32> loc(#loc260)
    %509 = stablehlo.broadcast_in_dim %505, dims = [1] : (tensor<32xf32>) -> tensor<1x32xf32> loc(#loc261)
    %510 = stablehlo.broadcast_in_dim %509, dims = [0, 1] : (tensor<1x32xf32>) -> tensor<32x32xf32> loc(#loc262)
    %511 = stablehlo.add %510, %508 : tensor<32x32xf32> loc(#loc262)
    %512 = stablehlo.reshape %511 : (tensor<32x32xf32>) -> tensor<1x32x32xf32> loc(#loc256)
    %513 = stablehlo.broadcast_in_dim %cst_36, dims = [] : (tensor<f32>) -> tensor<1x32x32xf32> loc(#loc231)
    %514 = stablehlo.multiply %421, %513 : tensor<1x32x32xf32> loc(#loc231)
    %515 = stablehlo.add %512, %514 : tensor<1x32x32xf32> loc(#loc232)
    %516 = stablehlo.reduce(%515 init: %cst_35) applies stablehlo.add across dimensions = [2] : (tensor<1x32x32xf32>, tensor<f32>) -> tensor<1x32xf32> loc(#loc233)
    %517 = stablehlo.broadcast_in_dim %516, dims = [0, 1] : (tensor<1x32xf32>) -> tensor<1x32x1xf32> loc(#loc234)
    %518 = stablehlo.broadcast_in_dim %cst_34, dims = [] : (tensor<f32>) -> tensor<1x32x1xf32> loc(#loc235)
    %519 = stablehlo.divide %517, %518 : tensor<1x32x1xf32> loc(#loc235)
    %520 = call @_var(%515, %c_39) : (tensor<1x32x32xf32>, tensor<i32>) -> tensor<1x32x1xf32> loc(#loc236)
    %521 = stablehlo.broadcast_in_dim %cst_33, dims = [] : (tensor<f32>) -> tensor<1x32x1xf32> loc(#loc237)
    %522 = stablehlo.add %520, %521 : tensor<1x32x1xf32> loc(#loc237)
    %523 = stablehlo.rsqrt %522 : tensor<1x32x1xf32> loc(#loc238)
    %524 = stablehlo.broadcast_in_dim %519, dims = [0, 1, 2] : (tensor<1x32x1xf32>) -> tensor<1x32x32xf32> loc(#loc239)
    %525 = stablehlo.subtract %515, %524 : tensor<1x32x32xf32> loc(#loc239)
    %526 = stablehlo.broadcast_in_dim %523, dims = [0, 1, 2] : (tensor<1x32x1xf32>) -> tensor<1x32x32xf32> loc(#loc240)
    %527 = stablehlo.multiply %525, %526 : tensor<1x32x32xf32> loc(#loc240)
    %528 = stablehlo.broadcast_in_dim %arg35, dims = [2] : (tensor<32xf32>) -> tensor<1x1x32xf32> loc(#loc241)
    %529 = stablehlo.broadcast_in_dim %528, dims = [0, 1, 2] : (tensor<1x1x32xf32>) -> tensor<1x32x32xf32> loc(#loc242)
    %530 = stablehlo.multiply %527, %529 : tensor<1x32x32xf32> loc(#loc242)
    %531 = stablehlo.broadcast_in_dim %arg36, dims = [2] : (tensor<32xf32>) -> tensor<1x1x32xf32> loc(#loc243)
    %532 = stablehlo.broadcast_in_dim %531, dims = [0, 1, 2] : (tensor<1x1x32xf32>) -> tensor<1x32x32xf32> loc(#loc244)
    %533 = stablehlo.add %530, %532 : tensor<1x32x32xf32> loc(#loc244)
    %534 = stablehlo.reshape %533 : (tensor<1x32x32xf32>) -> tensor<32x32xf32> loc(#loc256)
    %535 = stablehlo.transpose %arg37, dims = [1, 0] : (tensor<32x32xf32>) -> tensor<32x32xf32> loc(#loc257)
    %536 = stablehlo.broadcast_in_dim %cst_36, dims = [] : (tensor<f32>) -> tensor<32xf32> loc(#loc258)
    %537 = stablehlo.multiply %arg38, %536 : tensor<32xf32> loc(#loc258)
    %538 = stablehlo.dot_general %534, %535, contracting_dims = [1] x [0] : (tensor<32x32xf32>, tensor<32x32xf32>) -> tensor<32x32xf32> loc(#loc259)
    %539 = stablehlo.broadcast_in_dim %cst_36, dims = [] : (tensor<f32>) -> tensor<32x32xf32> loc(#loc260)
    %540 = stablehlo.multiply %539, %538 : tensor<32x32xf32> loc(#loc260)
    %541 = stablehlo.broadcast_in_dim %537, dims = [1] : (tensor<32xf32>) -> tensor<1x32xf32> loc(#loc261)
    %542 = stablehlo.broadcast_in_dim %541, dims = [0, 1] : (tensor<1x32xf32>) -> tensor<32x32xf32> loc(#loc262)
    %543 = stablehlo.add %542, %540 : tensor<32x32xf32> loc(#loc262)
    %544 = stablehlo.reshape %543 : (tensor<32x32xf32>) -> tensor<1x32x32xf32> loc(#loc256)
    %545 = stablehlo.reshape %544 : (tensor<1x32x32xf32>) -> tensor<1x32x4x8xf32> loc(#loc256)
    %546 = stablehlo.transpose %545, dims = [0, 2, 1, 3] : (tensor<1x32x4x8xf32>) -> tensor<1x4x32x8xf32> loc(#loc257)
    %547 = stablehlo.reshape %533 : (tensor<1x32x32xf32>) -> tensor<32x32xf32> loc(#loc256)
    %548 = stablehlo.transpose %arg39, dims = [1, 0] : (tensor<32x32xf32>) -> tensor<32x32xf32> loc(#loc257)
    %549 = stablehlo.broadcast_in_dim %cst_36, dims = [] : (tensor<f32>) -> tensor<32xf32> loc(#loc258)
    %550 = stablehlo.multiply %arg40, %549 : tensor<32xf32> loc(#loc258)
    %551 = stablehlo.dot_general %547, %548, contracting_dims = [1] x [0] : (tensor<32x32xf32>, tensor<32x32xf32>) -> tensor<32x32xf32> loc(#loc259)
    %552 = stablehlo.broadcast_in_dim %cst_36, dims = [] : (tensor<f32>) -> tensor<32x32xf32> loc(#loc260)
    %553 = stablehlo.multiply %552, %551 : tensor<32x32xf32> loc(#loc260)
    %554 = stablehlo.broadcast_in_dim %550, dims = [1] : (tensor<32xf32>) -> tensor<1x32xf32> loc(#loc261)
    %555 = stablehlo.broadcast_in_dim %554, dims = [0, 1] : (tensor<1x32xf32>) -> tensor<32x32xf32> loc(#loc262)
    %556 = stablehlo.add %555, %553 : tensor<32x32xf32> loc(#loc262)
    %557 = stablehlo.reshape %556 : (tensor<32x32xf32>) -> tensor<1x32x32xf32> loc(#loc256)
    %558 = stablehlo.reshape %557 : (tensor<1x32x32xf32>) -> tensor<1x32x4x8xf32> loc(#loc256)
    %559 = stablehlo.transpose %558, dims = [0, 2, 1, 3] : (tensor<1x32x4x8xf32>) -> tensor<1x4x32x8xf32> loc(#loc257)
    %560 = stablehlo.reshape %533 : (tensor<1x32x32xf32>) -> tensor<32x32xf32> loc(#loc256)
    %561 = stablehlo.transpose %arg41, dims = [1, 0] : (tensor<32x32xf32>) -> tensor<32x32xf32> loc(#loc257)
    %562 = stablehlo.broadcast_in_dim %cst_36, dims = [] : (tensor<f32>) -> tensor<32xf32> loc(#loc258)
    %563 = stablehlo.multiply %arg42, %562 : tensor<32xf32> loc(#loc258)
    %564 = stablehlo.dot_general %560, %561, contracting_dims = [1] x [0] : (tensor<32x32xf32>, tensor<32x32xf32>) -> tensor<32x32xf32> loc(#loc259)
    %565 = stablehlo.broadcast_in_dim %cst_36, dims = [] : (tensor<f32>) -> tensor<32x32xf32> loc(#loc260)
    %566 = stablehlo.multiply %565, %564 : tensor<32x32xf32> loc(#loc260)
    %567 = stablehlo.broadcast_in_dim %563, dims = [1] : (tensor<32xf32>) -> tensor<1x32xf32> loc(#loc261)
    %568 = stablehlo.broadcast_in_dim %567, dims = [0, 1] : (tensor<1x32xf32>) -> tensor<32x32xf32> loc(#loc262)
    %569 = stablehlo.add %568, %566 : tensor<32x32xf32> loc(#loc262)
    %570 = stablehlo.reshape %569 : (tensor<32x32xf32>) -> tensor<1x32x32xf32> loc(#loc256)
    %571 = stablehlo.reshape %570 : (tensor<1x32x32xf32>) -> tensor<1x32x4x8xf32> loc(#loc256)
    %572 = stablehlo.transpose %571, dims = [0, 2, 1, 3] : (tensor<1x32x4x8xf32>) -> tensor<1x4x32x8xf32> loc(#loc257)
    %573 = call @_where_3(%85, %cst_35, %cst_30) : (tensor<1x1x32x32xi1>, tensor<f32>, tensor<f32>) -> tensor<1x1x32x32xf32> loc(#loc263)
    %574 = stablehlo.broadcast_in_dim %cst_29, dims = [] : (tensor<f32>) -> tensor<1x4x32x8xf32> loc(#loc264)
    %575 = stablehlo.multiply %546, %574 : tensor<1x4x32x8xf32> loc(#loc264)
    %576 = stablehlo.transpose %559, dims = [0, 1, 3, 2] : (tensor<1x4x32x8xf32>) -> tensor<1x4x8x32xf32> loc(#loc257)
    %577 = stablehlo.broadcast_in_dim %cst_29, dims = [] : (tensor<f32>) -> tensor<1x4x8x32xf32> loc(#loc264)
    %578 = stablehlo.multiply %576, %577 : tensor<1x4x8x32xf32> loc(#loc264)
    %579 = stablehlo.reshape %575 : (tensor<1x4x32x8xf32>) -> tensor<4x32x8xf32> loc(#loc256)
    %580 = stablehlo.reshape %578 : (tensor<1x4x8x32xf32>) -> tensor<4x8x32xf32> loc(#loc256)
    %581 = stablehlo.dot_general %579, %580, batching_dims = [0] x [0], contracting_dims = [2] x [1] : (tensor<4x32x8xf32>, tensor<4x8x32xf32>) -> tensor<4x32x32xf32> loc(#loc265)
    %582 = stablehlo.reshape %581 : (tensor<4x32x32xf32>) -> tensor<1x4x32x32xf32> loc(#loc256)
    %583 = stablehlo.broadcast_in_dim %cst_36, dims = [] : (tensor<f32>) -> tensor<1x1x32x32xf32> loc(#loc231)
    %584 = stablehlo.multiply %573, %583 : tensor<1x1x32x32xf32> loc(#loc231)
    %585 = stablehlo.broadcast_in_dim %584, dims = [0, 1, 2, 3] : (tensor<1x1x32x32xf32>) -> tensor<1x4x32x32xf32> loc(#loc232)
    %586 = stablehlo.add %582, %585 : tensor<1x4x32x32xf32> loc(#loc232)
    %587 = stablehlo.reduce(%586 init: %cst_30) applies stablehlo.maximum across dimensions = [3] : (tensor<1x4x32x32xf32>, tensor<f32>) -> tensor<1x4x32xf32> loc(#loc266)
    %588 = stablehlo.broadcast_in_dim %cst_30, dims = [] : (tensor<f32>) -> tensor<1x4x32xf32> loc(#loc267)
    %589 = stablehlo.maximum %588, %587 : tensor<1x4x32xf32> loc(#loc267)
    %590 = stablehlo.broadcast_in_dim %589, dims = [0, 1, 2] : (tensor<1x4x32xf32>) -> tensor<1x4x32x1xf32> loc(#loc268)
    %591 = stablehlo.broadcast_in_dim %590, dims = [0, 1, 2, 3] : (tensor<1x4x32x1xf32>) -> tensor<1x4x32x32xf32> loc(#loc269)
    %592 = stablehlo.subtract %586, %591 : tensor<1x4x32x32xf32> loc(#loc269)
    %593 = stablehlo.exponential %592 : tensor<1x4x32x32xf32> loc(#loc270)
    %594 = stablehlo.reduce(%593 init: %cst_35) applies stablehlo.add across dimensions = [3] : (tensor<1x4x32x32xf32>, tensor<f32>) -> tensor<1x4x32xf32> loc(#loc271)
    %595 = stablehlo.broadcast_in_dim %594, dims = [0, 1, 2] : (tensor<1x4x32xf32>) -> tensor<1x4x32x1xf32> loc(#loc268)
    %596 = stablehlo.broadcast_in_dim %595, dims = [0, 1, 2, 3] : (tensor<1x4x32x1xf32>) -> tensor<1x4x32x32xf32> loc(#loc272)
    %597 = stablehlo.divide %593, %596 : tensor<1x4x32x32xf32> loc(#loc272)
    %598 = stablehlo.broadcast_in_dim %cst_30, dims = [] : (tensor<f32>) -> tensor<1x4x32x32xf32> loc(#loc273)
    %599 = stablehlo.compare  EQ, %586, %598,  FLOAT : (tensor<1x4x32x32xf32>, tensor<1x4x32x32xf32>) -> tensor<1x4x32x32xi1> loc(#loc273)
    %600 = stablehlo.not %599 : tensor<1x4x32x32xi1> loc(#loc274)
    %601 = stablehlo.reduce(%600 init: %c) applies stablehlo.or across dimensions = [3] : (tensor<1x4x32x32xi1>, tensor<i1>) -> tensor<1x4x32xi1> loc(#loc311)
    %602 = stablehlo.broadcast_in_dim %601, dims = [0, 1, 2] : (tensor<1x4x32xi1>) -> tensor<1x4x32x1xi1> loc(#loc312)
    %603 = stablehlo.not %602 : tensor<1x4x32x1xi1> loc(#loc274)
    %604 = stablehlo.broadcast_in_dim %cst_35, dims = [] : (tensor<f32>) -> tensor<1x4x32x32xf32> loc(#loc276)
    %605 = call @_where_4(%603, %604, %597) : (tensor<1x4x32x1xi1>, tensor<1x4x32x32xf32>, tensor<1x4x32x32xf32>) -> tensor<1x4x32x32xf32> loc(#loc263)
    %606 = stablehlo.reshape %605 : (tensor<1x4x32x32xf32>) -> tensor<4x32x32xf32> loc(#loc256)
    %607 = stablehlo.reshape %572 : (tensor<1x4x32x8xf32>) -> tensor<4x32x8xf32> loc(#loc256)
    %608 = stablehlo.dot_general %606, %607, batching_dims = [0] x [0], contracting_dims = [2] x [1] : (tensor<4x32x32xf32>, tensor<4x32x8xf32>) -> tensor<4x32x8xf32> loc(#loc265)
    %609 = stablehlo.reshape %608 : (tensor<4x32x8xf32>) -> tensor<1x4x32x8xf32> loc(#loc256)
    %610 = stablehlo.transpose %609, dims = [2, 0, 1, 3] : (tensor<1x4x32x8xf32>) -> tensor<32x1x4x8xf32> loc(#loc257)
    %611 = stablehlo.transpose %610, dims = [1, 2, 0, 3] : (tensor<32x1x4x8xf32>) -> tensor<1x4x32x8xf32> loc(#loc257)
    %612 = stablehlo.transpose %611, dims = [0, 2, 1, 3] : (tensor<1x4x32x8xf32>) -> tensor<1x32x4x8xf32> loc(#loc257)
    %613 = stablehlo.reshape %612 : (tensor<1x32x4x8xf32>) -> tensor<1x32x32xf32> loc(#loc256)
    %614 = stablehlo.reshape %613 : (tensor<1x32x32xf32>) -> tensor<32x32xf32> loc(#loc256)
    %615 = stablehlo.transpose %arg43, dims = [1, 0] : (tensor<32x32xf32>) -> tensor<32x32xf32> loc(#loc257)
    %616 = stablehlo.broadcast_in_dim %cst_36, dims = [] : (tensor<f32>) -> tensor<32xf32> loc(#loc258)
    %617 = stablehlo.multiply %arg44, %616 : tensor<32xf32> loc(#loc258)
    %618 = stablehlo.dot_general %614, %615, contracting_dims = [1] x [0] : (tensor<32x32xf32>, tensor<32x32xf32>) -> tensor<32x32xf32> loc(#loc259)
    %619 = stablehlo.broadcast_in_dim %cst_36, dims = [] : (tensor<f32>) -> tensor<32x32xf32> loc(#loc260)
    %620 = stablehlo.multiply %619, %618 : tensor<32x32xf32> loc(#loc260)
    %621 = stablehlo.broadcast_in_dim %617, dims = [1] : (tensor<32xf32>) -> tensor<1x32xf32> loc(#loc261)
    %622 = stablehlo.broadcast_in_dim %621, dims = [0, 1] : (tensor<1x32xf32>) -> tensor<32x32xf32> loc(#loc262)
    %623 = stablehlo.add %622, %620 : tensor<32x32xf32> loc(#loc262)
    %624 = stablehlo.reshape %623 : (tensor<32x32xf32>) -> tensor<1x32x32xf32> loc(#loc256)
    %625 = stablehlo.broadcast_in_dim %cst_36, dims = [] : (tensor<f32>) -> tensor<1x32x32xf32> loc(#loc231)
    %626 = stablehlo.multiply %533, %625 : tensor<1x32x32xf32> loc(#loc231)
    %627 = stablehlo.add %624, %626 : tensor<1x32x32xf32> loc(#loc232)
    %628 = stablehlo.reduce(%627 init: %cst_35) applies stablehlo.add across dimensions = [2] : (tensor<1x32x32xf32>, tensor<f32>) -> tensor<1x32xf32> loc(#loc233)
    %629 = stablehlo.broadcast_in_dim %628, dims = [0, 1] : (tensor<1x32xf32>) -> tensor<1x32x1xf32> loc(#loc234)
    %630 = stablehlo.broadcast_in_dim %cst_34, dims = [] : (tensor<f32>) -> tensor<1x32x1xf32> loc(#loc235)
    %631 = stablehlo.divide %629, %630 : tensor<1x32x1xf32> loc(#loc235)
    %632 = call @_var(%627, %c_39) : (tensor<1x32x32xf32>, tensor<i32>) -> tensor<1x32x1xf32> loc(#loc236)
    %633 = stablehlo.broadcast_in_dim %cst_33, dims = [] : (tensor<f32>) -> tensor<1x32x1xf32> loc(#loc237)
    %634 = stablehlo.add %632, %633 : tensor<1x32x1xf32> loc(#loc237)
    %635 = stablehlo.rsqrt %634 : tensor<1x32x1xf32> loc(#loc238)
    %636 = stablehlo.broadcast_in_dim %631, dims = [0, 1, 2] : (tensor<1x32x1xf32>) -> tensor<1x32x32xf32> loc(#loc239)
    %637 = stablehlo.subtract %627, %636 : tensor<1x32x32xf32> loc(#loc239)
    %638 = stablehlo.broadcast_in_dim %635, dims = [0, 1, 2] : (tensor<1x32x1xf32>) -> tensor<1x32x32xf32> loc(#loc240)
    %639 = stablehlo.multiply %637, %638 : tensor<1x32x32xf32> loc(#loc240)
    %640 = stablehlo.broadcast_in_dim %arg45, dims = [2] : (tensor<32xf32>) -> tensor<1x1x32xf32> loc(#loc241)
    %641 = stablehlo.broadcast_in_dim %640, dims = [0, 1, 2] : (tensor<1x1x32xf32>) -> tensor<1x32x32xf32> loc(#loc242)
    %642 = stablehlo.multiply %639, %641 : tensor<1x32x32xf32> loc(#loc242)
    %643 = stablehlo.broadcast_in_dim %arg46, dims = [2] : (tensor<32xf32>) -> tensor<1x1x32xf32> loc(#loc243)
    %644 = stablehlo.broadcast_in_dim %643, dims = [0, 1, 2] : (tensor<1x1x32xf32>) -> tensor<1x32x32xf32> loc(#loc244)
    %645 = stablehlo.add %642, %644 : tensor<1x32x32xf32> loc(#loc244)
    %646 = stablehlo.reshape %645 : (tensor<1x32x32xf32>) -> tensor<32x32xf32> loc(#loc256)
    %647 = stablehlo.transpose %arg47, dims = [1, 0] : (tensor<37x32xf32>) -> tensor<32x37xf32> loc(#loc257)
    %648 = stablehlo.broadcast_in_dim %cst_36, dims = [] : (tensor<f32>) -> tensor<37xf32> loc(#loc258)
    %649 = stablehlo.multiply %arg48, %648 : tensor<37xf32> loc(#loc258)
    %650 = stablehlo.dot_general %646, %647, contracting_dims = [1] x [0] : (tensor<32x32xf32>, tensor<32x37xf32>) -> tensor<32x37xf32> loc(#loc259)
    %651 = stablehlo.broadcast_in_dim %cst_36, dims = [] : (tensor<f32>) -> tensor<32x37xf32> loc(#loc260)
    %652 = stablehlo.multiply %651, %650 : tensor<32x37xf32> loc(#loc260)
    %653 = stablehlo.broadcast_in_dim %649, dims = [1] : (tensor<37xf32>) -> tensor<1x37xf32> loc(#loc261)
    %654 = stablehlo.broadcast_in_dim %653, dims = [0, 1] : (tensor<1x37xf32>) -> tensor<32x37xf32> loc(#loc262)
    %655 = stablehlo.add %654, %652 : tensor<32x37xf32> loc(#loc262)
    %656 = stablehlo.reshape %655 : (tensor<32x37xf32>) -> tensor<1x32x37xf32> loc(#loc256)
    %657 = stablehlo.broadcast_in_dim %cst_28, dims = [] : (tensor<f32>) -> tensor<1x32x37xf32> loc(#loc277)
    %658 = stablehlo.multiply %657, %656 : tensor<1x32x37xf32> loc(#loc277)
    %659 = stablehlo.negate %656 : tensor<1x32x37xf32> loc(#loc278)
    %660 = stablehlo.broadcast_in_dim %cst_27, dims = [] : (tensor<f32>) -> tensor<1x32x37xf32> loc(#loc277)
    %661 = stablehlo.multiply %659, %660 : tensor<1x32x37xf32> loc(#loc277)
    %662 = stablehlo.multiply %661, %661 : tensor<1x32x37xf32> loc(#loc279)
    %663 = stablehlo.negate %662 : tensor<1x32x37xf32> loc(#loc279)
    %664 = stablehlo.abs %661 : tensor<1x32x37xf32> loc(#loc279)
    %665 = stablehlo.divide %cst_26, %662 : tensor<1x32x37xf32> loc(#loc279)
    %666 = stablehlo.exponential %663 : tensor<1x32x37xf32> loc(#loc279)
    %667 = stablehlo.divide %cst_26, %664 : tensor<1x32x37xf32> loc(#loc279)
    %668 = stablehlo.multiply %666, %667 : tensor<1x32x37xf32> loc(#loc279)
    %669 = stablehlo.compare  LT, %664, %cst_25 : (tensor<1x32x37xf32>, tensor<1x32x37xf32>) -> tensor<1x32x37xi1> loc(#loc279)
    %670 = stablehlo.multiply %cst_24, %665 : tensor<1x32x37xf32> loc(#loc279)
    %671 = stablehlo.add %670, %cst_23 : tensor<1x32x37xf32> loc(#loc279)
    %672 = stablehlo.multiply %671, %665 : tensor<1x32x37xf32> loc(#loc279)
    %673 = stablehlo.add %672, %cst_22 : tensor<1x32x37xf32> loc(#loc279)
    %674 = stablehlo.multiply %673, %665 : tensor<1x32x37xf32> loc(#loc279)
    %675 = stablehlo.add %674, %cst_21 : tensor<1x32x37xf32> loc(#loc279)
    %676 = stablehlo.multiply %675, %665 : tensor<1x32x37xf32> loc(#loc279)
    %677 = stablehlo.add %676, %cst_20 : tensor<1x32x37xf32> loc(#loc279)
    %678 = stablehlo.multiply %677, %665 : tensor<1x32x37xf32> loc(#loc279)
    %679 = stablehlo.add %678, %cst_19 : tensor<1x32x37xf32> loc(#loc279)
    %680 = stablehlo.multiply %679, %665 : tensor<1x32x37xf32> loc(#loc279)
    %681 = stablehlo.add %680, %cst_18 : tensor<1x32x37xf32> loc(#loc279)
    %682 = stablehlo.multiply %681, %665 : tensor<1x32x37xf32> loc(#loc279)
    %683 = stablehlo.add %682, %cst_17 : tensor<1x32x37xf32> loc(#loc279)
    %684 = stablehlo.multiply %683, %665 : tensor<1x32x37xf32> loc(#loc279)
    %685 = stablehlo.add %684, %cst_16 : tensor<1x32x37xf32> loc(#loc279)
    %686 = stablehlo.multiply %cst_15, %665 : tensor<1x32x37xf32> loc(#loc279)
    %687 = stablehlo.add %686, %cst_14 : tensor<1x32x37xf32> loc(#loc279)
    %688 = stablehlo.multiply %687, %665 : tensor<1x32x37xf32> loc(#loc279)
    %689 = stablehlo.add %688, %cst_13 : tensor<1x32x37xf32> loc(#loc279)
    %690 = stablehlo.multiply %689, %665 : tensor<1x32x37xf32> loc(#loc279)
    %691 = stablehlo.add %690, %cst_12 : tensor<1x32x37xf32> loc(#loc279)
    %692 = stablehlo.multiply %691, %665 : tensor<1x32x37xf32> loc(#loc279)
    %693 = stablehlo.add %692, %cst_11 : tensor<1x32x37xf32> loc(#loc279)
    %694 = stablehlo.multiply %693, %665 : tensor<1x32x37xf32> loc(#loc279)
    %695 = stablehlo.add %694, %cst_10 : tensor<1x32x37xf32> loc(#loc279)
    %696 = stablehlo.multiply %695, %665 : tensor<1x32x37xf32> loc(#loc279)
    %697 = stablehlo.add %696, %cst_9 : tensor<1x32x37xf32> loc(#loc279)
    %698 = stablehlo.multiply %697, %665 : tensor<1x32x37xf32> loc(#loc279)
    %699 = stablehlo.add %698, %cst_8 : tensor<1x32x37xf32> loc(#loc279)
    %700 = stablehlo.select %669, %685, %699 : tensor<1x32x37xi1>, tensor<1x32x37xf32> loc(#loc279)
    %701 = stablehlo.multiply %668, %700 : tensor<1x32x37xf32> loc(#loc279)
    %702 = stablehlo.compare  LT, %663, %cst_7 : (tensor<1x32x37xf32>, tensor<1x32x37xf32>) -> tensor<1x32x37xi1> loc(#loc279)
    %703 = stablehlo.select %702, %cst_6, %701 : tensor<1x32x37xi1>, tensor<1x32x37xf32> loc(#loc279)
    %704 = stablehlo.compare  LT, %661, %cst_6 : (tensor<1x32x37xf32>, tensor<1x32x37xf32>) -> tensor<1x32x37xi1> loc(#loc279)
    %705 = stablehlo.subtract %cst_25, %703 : tensor<1x32x37xf32> loc(#loc279)
    %706 = stablehlo.select %704, %705, %703 : tensor<1x32x37xi1>, tensor<1x32x37xf32> loc(#loc279)
    %707 = stablehlo.multiply %661, %661 : tensor<1x32x37xf32> loc(#loc279)
    %708 = stablehlo.multiply %cst_5, %707 : tensor<1x32x37xf32> loc(#loc279)
    %709 = stablehlo.add %708, %cst_4 : tensor<1x32x37xf32> loc(#loc279)
    %710 = stablehlo.multiply %709, %707 : tensor<1x32x37xf32> loc(#loc279)
    %711 = stablehlo.add %710, %cst_3 : tensor<1x32x37xf32> loc(#loc279)
    %712 = stablehlo.multiply %711, %707 : tensor<1x32x37xf32> loc(#loc279)
    %713 = stablehlo.add %712, %cst_2 : tensor<1x32x37xf32> loc(#loc279)
    %714 = stablehlo.multiply %713, %707 : tensor<1x32x37xf32> loc(#loc279)
    %715 = stablehlo.add %714, %cst_1 : tensor<1x32x37xf32> loc(#loc279)
    %716 = stablehlo.multiply %715, %707 : tensor<1x32x37xf32> loc(#loc279)
    %717 = stablehlo.add %716, %cst_0 : tensor<1x32x37xf32> loc(#loc279)
    %718 = stablehlo.multiply %717, %707 : tensor<1x32x37xf32> loc(#loc279)
    %719 = stablehlo.add %718, %cst : tensor<1x32x37xf32> loc(#loc279)
    %720 = stablehlo.multiply %661, %719 : tensor<1x32x37xf32> loc(#loc279)
    %721 = stablehlo.subtract %cst_26, %720 : tensor<1x32x37xf32> loc(#loc279)
    %722 = stablehlo.abs %661 : tensor<1x32x37xf32> loc(#loc279)
    %723 = stablehlo.compare  LT, %722, %cst_26 : (tensor<1x32x37xf32>, tensor<1x32x37xf32>) -> tensor<1x32x37xi1> loc(#loc279)
    %724 = stablehlo.select %723, %721, %706 : tensor<1x32x37xi1>, tensor<1x32x37xf32> loc(#loc279)
    %725 = stablehlo.multiply %658, %724 : tensor<1x32x37xf32> loc(#loc277)
    %726 = stablehlo.reshape %725 : (tensor<1x32x37xf32>) -> tensor<32x37xf32> loc(#loc256)
    %727 = stablehlo.transpose %arg49, dims = [1, 0] : (tensor<32x37xf32>) -> tensor<37x32xf32> loc(#loc257)
    %728 = stablehlo.broadcast_in_dim %cst_36, dims = [] : (tensor<f32>) -> tensor<32xf32> loc(#loc258)
    %729 = stablehlo.multiply %arg50, %728 : tensor<32xf32> loc(#loc258)
    %730 = stablehlo.dot_general %726, %727, contracting_dims = [1] x [0] : (tensor<32x37xf32>, tensor<37x32xf32>) -> tensor<32x32xf32> loc(#loc259)
    %731 = stablehlo.broadcast_in_dim %cst_36, dims = [] : (tensor<f32>) -> tensor<32x32xf32> loc(#loc260)
    %732 = stablehlo.multiply %731, %730 : tensor<32x32xf32> loc(#loc260)
    %733 = stablehlo.broadcast_in_dim %729, dims = [1] : (tensor<32xf32>) -> tensor<1x32xf32> loc(#loc261)
    %734 = stablehlo.broadcast_in_dim %733, dims = [0, 1] : (tensor<1x32xf32>) -> tensor<32x32xf32> loc(#loc262)
    %735 = stablehlo.add %734, %732 : tensor<32x32xf32> loc(#loc262)
    %736 = stablehlo.reshape %735 : (tensor<32x32xf32>) -> tensor<1x32x32xf32> loc(#loc256)
    %737 = stablehlo.broadcast_in_dim %cst_36, dims = [] : (tensor<f32>) -> tensor<1x32x32xf32> loc(#loc231)
    %738 = stablehlo.multiply %645, %737 : tensor<1x32x32xf32> loc(#loc231)
    %739 = stablehlo.add %736, %738 : tensor<1x32x32xf32> loc(#loc232)
    %740 = stablehlo.reduce(%739 init: %cst_35) applies stablehlo.add across dimensions = [2] : (tensor<1x32x32xf32>, tensor<f32>) -> tensor<1x32xf32> loc(#loc233)
    %741 = stablehlo.broadcast_in_dim %740, dims = [0, 1] : (tensor<1x32xf32>) -> tensor<1x32x1xf32> loc(#loc234)
    %742 = stablehlo.broadcast_in_dim %cst_34, dims = [] : (tensor<f32>) -> tensor<1x32x1xf32> loc(#loc235)
    %743 = stablehlo.divide %741, %742 : tensor<1x32x1xf32> loc(#loc235)
    %744 = call @_var(%739, %c_39) : (tensor<1x32x32xf32>, tensor<i32>) -> tensor<1x32x1xf32> loc(#loc236)
    %745 = stablehlo.broadcast_in_dim %cst_33, dims = [] : (tensor<f32>) -> tensor<1x32x1xf32> loc(#loc237)
    %746 = stablehlo.add %744, %745 : tensor<1x32x1xf32> loc(#loc237)
    %747 = stablehlo.rsqrt %746 : tensor<1x32x1xf32> loc(#loc238)
    %748 = stablehlo.broadcast_in_dim %743, dims = [0, 1, 2] : (tensor<1x32x1xf32>) -> tensor<1x32x32xf32> loc(#loc239)
    %749 = stablehlo.subtract %739, %748 : tensor<1x32x32xf32> loc(#loc239)
    %750 = stablehlo.broadcast_in_dim %747, dims = [0, 1, 2] : (tensor<1x32x1xf32>) -> tensor<1x32x32xf32> loc(#loc240)
    %751 = stablehlo.multiply %749, %750 : tensor<1x32x32xf32> loc(#loc240)
    %752 = stablehlo.broadcast_in_dim %arg51, dims = [2] : (tensor<32xf32>) -> tensor<1x1x32xf32> loc(#loc241)
    %753 = stablehlo.broadcast_in_dim %752, dims = [0, 1, 2] : (tensor<1x1x32xf32>) -> tensor<1x32x32xf32> loc(#loc242)
    %754 = stablehlo.multiply %751, %753 : tensor<1x32x32xf32> loc(#loc242)
    %755 = stablehlo.broadcast_in_dim %arg52, dims = [2] : (tensor<32xf32>) -> tensor<1x1x32xf32> loc(#loc243)
    %756 = stablehlo.broadcast_in_dim %755, dims = [0, 1, 2] : (tensor<1x1x32xf32>) -> tensor<1x32x32xf32> loc(#loc244)
    %757 = stablehlo.add %754, %756 : tensor<1x32x32xf32> loc(#loc244)
    %758 = stablehlo.reshape %757 : (tensor<1x32x32xf32>) -> tensor<32x32xf32> loc(#loc256)
    %759 = stablehlo.transpose %arg53, dims = [1, 0] : (tensor<32x32xf32>) -> tensor<32x32xf32> loc(#loc257)
    %760 = stablehlo.broadcast_in_dim %cst_36, dims = [] : (tensor<f32>) -> tensor<32xf32> loc(#loc258)
    %761 = stablehlo.multiply %arg54, %760 : tensor<32xf32> loc(#loc258)
    %762 = stablehlo.dot_general %758, %759, contracting_dims = [1] x [0] : (tensor<32x32xf32>, tensor<32x32xf32>) -> tensor<32x32xf32> loc(#loc259)
    %763 = stablehlo.broadcast_in_dim %cst_36, dims = [] : (tensor<f32>) -> tensor<32x32xf32> loc(#loc260)
    %764 = stablehlo.multiply %763, %762 : tensor<32x32xf32> loc(#loc260)
    %765 = stablehlo.broadcast_in_dim %761, dims = [1] : (tensor<32xf32>) -> tensor<1x32xf32> loc(#loc261)
    %766 = stablehlo.broadcast_in_dim %765, dims = [0, 1] : (tensor<1x32xf32>) -> tensor<32x32xf32> loc(#loc262)
    %767 = stablehlo.add %766, %764 : tensor<32x32xf32> loc(#loc262)
    %768 = stablehlo.reshape %767 : (tensor<32x32xf32>) -> tensor<1x32x32xf32> loc(#loc256)
    %769 = stablehlo.reshape %768 : (tensor<1x32x32xf32>) -> tensor<1x32x4x8xf32> loc(#loc256)
    %770 = stablehlo.transpose %769, dims = [0, 2, 1, 3] : (tensor<1x32x4x8xf32>) -> tensor<1x4x32x8xf32> loc(#loc257)
    %771 = stablehlo.reshape %757 : (tensor<1x32x32xf32>) -> tensor<32x32xf32> loc(#loc256)
    %772 = stablehlo.transpose %arg55, dims = [1, 0] : (tensor<32x32xf32>) -> tensor<32x32xf32> loc(#loc257)
    %773 = stablehlo.broadcast_in_dim %cst_36, dims = [] : (tensor<f32>) -> tensor<32xf32> loc(#loc258)
    %774 = stablehlo.multiply %arg56, %773 : tensor<32xf32> loc(#loc258)
    %775 = stablehlo.dot_general %771, %772, contracting_dims = [1] x [0] : (tensor<32x32xf32>, tensor<32x32xf32>) -> tensor<32x32xf32> loc(#loc259)
    %776 = stablehlo.broadcast_in_dim %cst_36, dims = [] : (tensor<f32>) -> tensor<32x32xf32> loc(#loc260)
    %777 = stablehlo.multiply %776, %775 : tensor<32x32xf32> loc(#loc260)
    %778 = stablehlo.broadcast_in_dim %774, dims = [1] : (tensor<32xf32>) -> tensor<1x32xf32> loc(#loc261)
    %779 = stablehlo.broadcast_in_dim %778, dims = [0, 1] : (tensor<1x32xf32>) -> tensor<32x32xf32> loc(#loc262)
    %780 = stablehlo.add %779, %777 : tensor<32x32xf32> loc(#loc262)
    %781 = stablehlo.reshape %780 : (tensor<32x32xf32>) -> tensor<1x32x32xf32> loc(#loc256)
    %782 = stablehlo.reshape %781 : (tensor<1x32x32xf32>) -> tensor<1x32x4x8xf32> loc(#loc256)
    %783 = stablehlo.transpose %782, dims = [0, 2, 1, 3] : (tensor<1x32x4x8xf32>) -> tensor<1x4x32x8xf32> loc(#loc257)
    %784 = stablehlo.reshape %757 : (tensor<1x32x32xf32>) -> tensor<32x32xf32> loc(#loc256)
    %785 = stablehlo.transpose %arg57, dims = [1, 0] : (tensor<32x32xf32>) -> tensor<32x32xf32> loc(#loc257)
    %786 = stablehlo.broadcast_in_dim %cst_36, dims = [] : (tensor<f32>) -> tensor<32xf32> loc(#loc258)
    %787 = stablehlo.multiply %arg58, %786 : tensor<32xf32> loc(#loc258)
    %788 = stablehlo.dot_general %784, %785, contracting_dims = [1] x [0] : (tensor<32x32xf32>, tensor<32x32xf32>) -> tensor<32x32xf32> loc(#loc259)
    %789 = stablehlo.broadcast_in_dim %cst_36, dims = [] : (tensor<f32>) -> tensor<32x32xf32> loc(#loc260)
    %790 = stablehlo.multiply %789, %788 : tensor<32x32xf32> loc(#loc260)
    %791 = stablehlo.broadcast_in_dim %787, dims = [1] : (tensor<32xf32>) -> tensor<1x32xf32> loc(#loc261)
    %792 = stablehlo.broadcast_in_dim %791, dims = [0, 1] : (tensor<1x32xf32>) -> tensor<32x32xf32> loc(#loc262)
    %793 = stablehlo.add %792, %790 : tensor<32x32xf32> loc(#loc262)
    %794 = stablehlo.reshape %793 : (tensor<32x32xf32>) -> tensor<1x32x32xf32> loc(#loc256)
    %795 = stablehlo.reshape %794 : (tensor<1x32x32xf32>) -> tensor<1x32x4x8xf32> loc(#loc256)
    %796 = stablehlo.transpose %795, dims = [0, 2, 1, 3] : (tensor<1x32x4x8xf32>) -> tensor<1x4x32x8xf32> loc(#loc257)
    %797 = call @_where_3(%85, %cst_35, %cst_30) : (tensor<1x1x32x32xi1>, tensor<f32>, tensor<f32>) -> tensor<1x1x32x32xf32> loc(#loc263)
    %798 = stablehlo.broadcast_in_dim %cst_29, dims = [] : (tensor<f32>) -> tensor<1x4x32x8xf32> loc(#loc264)
    %799 = stablehlo.multiply %770, %798 : tensor<1x4x32x8xf32> loc(#loc264)
    %800 = stablehlo.transpose %783, dims = [0, 1, 3, 2] : (tensor<1x4x32x8xf32>) -> tensor<1x4x8x32xf32> loc(#loc257)
    %801 = stablehlo.broadcast_in_dim %cst_29, dims = [] : (tensor<f32>) -> tensor<1x4x8x32xf32> loc(#loc264)
    %802 = stablehlo.multiply %800, %801 : tensor<1x4x8x32xf32> loc(#loc264)
    %803 = stablehlo.reshape %799 : (tensor<1x4x32x8xf32>) -> tensor<4x32x8xf32> loc(#loc256)
    %804 = stablehlo.reshape %802 : (tensor<1x4x8x32xf32>) -> tensor<4x8x32xf32> loc(#loc256)
    %805 = stablehlo.dot_general %803, %804, batching_dims = [0] x [0], contracting_dims = [2] x [1] : (tensor<4x32x8xf32>, tensor<4x8x32xf32>) -> tensor<4x32x32xf32> loc(#loc265)
    %806 = stablehlo.reshape %805 : (tensor<4x32x32xf32>) -> tensor<1x4x32x32xf32> loc(#loc256)
    %807 = stablehlo.broadcast_in_dim %cst_36, dims = [] : (tensor<f32>) -> tensor<1x1x32x32xf32> loc(#loc231)
    %808 = stablehlo.multiply %797, %807 : tensor<1x1x32x32xf32> loc(#loc231)
    %809 = stablehlo.broadcast_in_dim %808, dims = [0, 1, 2, 3] : (tensor<1x1x32x32xf32>) -> tensor<1x4x32x32xf32> loc(#loc232)
    %810 = stablehlo.add %806, %809 : tensor<1x4x32x32xf32> loc(#loc232)
    %811 = stablehlo.reduce(%810 init: %cst_30) applies stablehlo.maximum across dimensions = [3] : (tensor<1x4x32x32xf32>, tensor<f32>) -> tensor<1x4x32xf32> loc(#loc266)
    %812 = stablehlo.broadcast_in_dim %cst_30, dims = [] : (tensor<f32>) -> tensor<1x4x32xf32> loc(#loc267)
    %813 = stablehlo.maximum %812, %811 : tensor<1x4x32xf32> loc(#loc267)
    %814 = stablehlo.broadcast_in_dim %813, dims = [0, 1, 2] : (tensor<1x4x32xf32>) -> tensor<1x4x32x1xf32> loc(#loc268)
    %815 = stablehlo.broadcast_in_dim %814, dims = [0, 1, 2, 3] : (tensor<1x4x32x1xf32>) -> tensor<1x4x32x32xf32> loc(#loc269)
    %816 = stablehlo.subtract %810, %815 : tensor<1x4x32x32xf32> loc(#loc269)
    %817 = stablehlo.exponential %816 : tensor<1x4x32x32xf32> loc(#loc270)
    %818 = stablehlo.reduce(%817 init: %cst_35) applies stablehlo.add across dimensions = [3] : (tensor<1x4x32x32xf32>, tensor<f32>) -> tensor<1x4x32xf32> loc(#loc271)
    %819 = stablehlo.broadcast_in_dim %818, dims = [0, 1, 2] : (tensor<1x4x32xf32>) -> tensor<1x4x32x1xf32> loc(#loc268)
    %820 = stablehlo.broadcast_in_dim %819, dims = [0, 1, 2, 3] : (tensor<1x4x32x1xf32>) -> tensor<1x4x32x32xf32> loc(#loc272)
    %821 = stablehlo.divide %817, %820 : tensor<1x4x32x32xf32> loc(#loc272)
    %822 = stablehlo.broadcast_in_dim %cst_30, dims = [] : (tensor<f32>) -> tensor<1x4x32x32xf32> loc(#loc273)
    %823 = stablehlo.compare  EQ, %810, %822,  FLOAT : (tensor<1x4x32x32xf32>, tensor<1x4x32x32xf32>) -> tensor<1x4x32x32xi1> loc(#loc273)
    %824 = stablehlo.not %823 : tensor<1x4x32x32xi1> loc(#loc274)
    %825 = stablehlo.reduce(%824 init: %c) applies stablehlo.or across dimensions = [3] : (tensor<1x4x32x32xi1>, tensor<i1>) -> tensor<1x4x32xi1> loc(#loc311)
    %826 = stablehlo.broadcast_in_dim %825, dims = [0, 1, 2] : (tensor<1x4x32xi1>) -> tensor<1x4x32x1xi1> loc(#loc312)
    %827 = stablehlo.not %826 : tensor<1x4x32x1xi1> loc(#loc274)
    %828 = stablehlo.broadcast_in_dim %cst_35, dims = [] : (tensor<f32>) -> tensor<1x4x32x32xf32> loc(#loc276)
    %829 = call @_where_4(%827, %828, %821) : (tensor<1x4x32x1xi1>, tensor<1x4x32x32xf32>, tensor<1x4x32x32xf32>) -> tensor<1x4x32x32xf32> loc(#loc263)
    %830 = stablehlo.reshape %829 : (tensor<1x4x32x32xf32>) -> tensor<4x32x32xf32> loc(#loc256)
    %831 = stablehlo.reshape %796 : (tensor<1x4x32x8xf32>) -> tensor<4x32x8xf32> loc(#loc256)
    %832 = stablehlo.dot_general %830, %831, batching_dims = [0] x [0], contracting_dims = [2] x [1] : (tensor<4x32x32xf32>, tensor<4x32x8xf32>) -> tensor<4x32x8xf32> loc(#loc265)
    %833 = stablehlo.reshape %832 : (tensor<4x32x8xf32>) -> tensor<1x4x32x8xf32> loc(#loc256)
    %834 = stablehlo.transpose %833, dims = [2, 0, 1, 3] : (tensor<1x4x32x8xf32>) -> tensor<32x1x4x8xf32> loc(#loc257)
    %835 = stablehlo.transpose %834, dims = [1, 2, 0, 3] : (tensor<32x1x4x8xf32>) -> tensor<1x4x32x8xf32> loc(#loc257)
    %836 = stablehlo.transpose %835, dims = [0, 2, 1, 3] : (tensor<1x4x32x8xf32>) -> tensor<1x32x4x8xf32> loc(#loc257)
    %837 = stablehlo.reshape %836 : (tensor<1x32x4x8xf32>) -> tensor<1x32x32xf32> loc(#loc256)
    %838 = stablehlo.reshape %837 : (tensor<1x32x32xf32>) -> tensor<32x32xf32> loc(#loc256)
    %839 = stablehlo.transpose %arg59, dims = [1, 0] : (tensor<32x32xf32>) -> tensor<32x32xf32> loc(#loc257)
    %840 = stablehlo.broadcast_in_dim %cst_36, dims = [] : (tensor<f32>) -> tensor<32xf32> loc(#loc258)
    %841 = stablehlo.multiply %arg60, %840 : tensor<32xf32> loc(#loc258)
    %842 = stablehlo.dot_general %838, %839, contracting_dims = [1] x [0] : (tensor<32x32xf32>, tensor<32x32xf32>) -> tensor<32x32xf32> loc(#loc259)
    %843 = stablehlo.broadcast_in_dim %cst_36, dims = [] : (tensor<f32>) -> tensor<32x32xf32> loc(#loc260)
    %844 = stablehlo.multiply %843, %842 : tensor<32x32xf32> loc(#loc260)
    %845 = stablehlo.broadcast_in_dim %841, dims = [1] : (tensor<32xf32>) -> tensor<1x32xf32> loc(#loc261)
    %846 = stablehlo.broadcast_in_dim %845, dims = [0, 1] : (tensor<1x32xf32>) -> tensor<32x32xf32> loc(#loc262)
    %847 = stablehlo.add %846, %844 : tensor<32x32xf32> loc(#loc262)
    %848 = stablehlo.reshape %847 : (tensor<32x32xf32>) -> tensor<1x32x32xf32> loc(#loc256)
    %849 = stablehlo.broadcast_in_dim %cst_36, dims = [] : (tensor<f32>) -> tensor<1x32x32xf32> loc(#loc231)
    %850 = stablehlo.multiply %757, %849 : tensor<1x32x32xf32> loc(#loc231)
    %851 = stablehlo.add %848, %850 : tensor<1x32x32xf32> loc(#loc232)
    %852 = stablehlo.reduce(%851 init: %cst_35) applies stablehlo.add across dimensions = [2] : (tensor<1x32x32xf32>, tensor<f32>) -> tensor<1x32xf32> loc(#loc233)
    %853 = stablehlo.broadcast_in_dim %852, dims = [0, 1] : (tensor<1x32xf32>) -> tensor<1x32x1xf32> loc(#loc234)
    %854 = stablehlo.broadcast_in_dim %cst_34, dims = [] : (tensor<f32>) -> tensor<1x32x1xf32> loc(#loc235)
    %855 = stablehlo.divide %853, %854 : tensor<1x32x1xf32> loc(#loc235)
    %856 = call @_var(%851, %c_39) : (tensor<1x32x32xf32>, tensor<i32>) -> tensor<1x32x1xf32> loc(#loc236)
    %857 = stablehlo.broadcast_in_dim %cst_33, dims = [] : (tensor<f32>) -> tensor<1x32x1xf32> loc(#loc237)
    %858 = stablehlo.add %856, %857 : tensor<1x32x1xf32> loc(#loc237)
    %859 = stablehlo.rsqrt %858 : tensor<1x32x1xf32> loc(#loc238)
    %860 = stablehlo.broadcast_in_dim %855, dims = [0, 1, 2] : (tensor<1x32x1xf32>) -> tensor<1x32x32xf32> loc(#loc239)
    %861 = stablehlo.subtract %851, %860 : tensor<1x32x32xf32> loc(#loc239)
    %862 = stablehlo.broadcast_in_dim %859, dims = [0, 1, 2] : (tensor<1x32x1xf32>) -> tensor<1x32x32xf32> loc(#loc240)
    %863 = stablehlo.multiply %861, %862 : tensor<1x32x32xf32> loc(#loc240)
    %864 = stablehlo.broadcast_in_dim %arg61, dims = [2] : (tensor<32xf32>) -> tensor<1x1x32xf32> loc(#loc241)
    %865 = stablehlo.broadcast_in_dim %864, dims = [0, 1, 2] : (tensor<1x1x32xf32>) -> tensor<1x32x32xf32> loc(#loc242)
    %866 = stablehlo.multiply %863, %865 : tensor<1x32x32xf32> loc(#loc242)
    %867 = stablehlo.broadcast_in_dim %arg62, dims = [2] : (tensor<32xf32>) -> tensor<1x1x32xf32> loc(#loc243)
    %868 = stablehlo.broadcast_in_dim %867, dims = [0, 1, 2] : (tensor<1x1x32xf32>) -> tensor<1x32x32xf32> loc(#loc244)
    %869 = stablehlo.add %866, %868 : tensor<1x32x32xf32> loc(#loc244)
    %870 = stablehlo.reshape %869 : (tensor<1x32x32xf32>) -> tensor<32x32xf32> loc(#loc256)
    %871 = stablehlo.transpose %arg63, dims = [1, 0] : (tensor<37x32xf32>) -> tensor<32x37xf32> loc(#loc257)
    %872 = stablehlo.broadcast_in_dim %cst_36, dims = [] : (tensor<f32>) -> tensor<37xf32> loc(#loc258)
    %873 = stablehlo.multiply %arg64, %872 : tensor<37xf32> loc(#loc258)
    %874 = stablehlo.dot_general %870, %871, contracting_dims = [1] x [0] : (tensor<32x32xf32>, tensor<32x37xf32>) -> tensor<32x37xf32> loc(#loc259)
    %875 = stablehlo.broadcast_in_dim %cst_36, dims = [] : (tensor<f32>) -> tensor<32x37xf32> loc(#loc260)
    %876 = stablehlo.multiply %875, %874 : tensor<32x37xf32> loc(#loc260)
    %877 = stablehlo.broadcast_in_dim %873, dims = [1] : (tensor<37xf32>) -> tensor<1x37xf32> loc(#loc261)
    %878 = stablehlo.broadcast_in_dim %877, dims = [0, 1] : (tensor<1x37xf32>) -> tensor<32x37xf32> loc(#loc262)
    %879 = stablehlo.add %878, %876 : tensor<32x37xf32> loc(#loc262)
    %880 = stablehlo.reshape %879 : (tensor<32x37xf32>) -> tensor<1x32x37xf32> loc(#loc256)
    %881 = stablehlo.broadcast_in_dim %cst_28, dims = [] : (tensor<f32>) -> tensor<1x32x37xf32> loc(#loc277)
    %882 = stablehlo.multiply %881, %880 : tensor<1x32x37xf32> loc(#loc277)
    %883 = stablehlo.negate %880 : tensor<1x32x37xf32> loc(#loc278)
    %884 = stablehlo.broadcast_in_dim %cst_27, dims = [] : (tensor<f32>) -> tensor<1x32x37xf32> loc(#loc277)
    %885 = stablehlo.multiply %883, %884 : tensor<1x32x37xf32> loc(#loc277)
    %886 = stablehlo.multiply %885, %885 : tensor<1x32x37xf32> loc(#loc279)
    %887 = stablehlo.negate %886 : tensor<1x32x37xf32> loc(#loc279)
    %888 = stablehlo.abs %885 : tensor<1x32x37xf32> loc(#loc279)
    %889 = stablehlo.divide %cst_26, %886 : tensor<1x32x37xf32> loc(#loc279)
    %890 = stablehlo.exponential %887 : tensor<1x32x37xf32> loc(#loc279)
    %891 = stablehlo.divide %cst_26, %888 : tensor<1x32x37xf32> loc(#loc279)
    %892 = stablehlo.multiply %890, %891 : tensor<1x32x37xf32> loc(#loc279)
    %893 = stablehlo.compare  LT, %888, %cst_25 : (tensor<1x32x37xf32>, tensor<1x32x37xf32>) -> tensor<1x32x37xi1> loc(#loc279)
    %894 = stablehlo.multiply %cst_24, %889 : tensor<1x32x37xf32> loc(#loc279)
    %895 = stablehlo.add %894, %cst_23 : tensor<1x32x37xf32> loc(#loc279)
    %896 = stablehlo.multiply %895, %889 : tensor<1x32x37xf32> loc(#loc279)
    %897 = stablehlo.add %896, %cst_22 : tensor<1x32x37xf32> loc(#loc279)
    %898 = stablehlo.multiply %897, %889 : tensor<1x32x37xf32> loc(#loc279)
    %899 = stablehlo.add %898, %cst_21 : tensor<1x32x37xf32> loc(#loc279)
    %900 = stablehlo.multiply %899, %889 : tensor<1x32x37xf32> loc(#loc279)
    %901 = stablehlo.add %900, %cst_20 : tensor<1x32x37xf32> loc(#loc279)
    %902 = stablehlo.multiply %901, %889 : tensor<1x32x37xf32> loc(#loc279)
    %903 = stablehlo.add %902, %cst_19 : tensor<1x32x37xf32> loc(#loc279)
    %904 = stablehlo.multiply %903, %889 : tensor<1x32x37xf32> loc(#loc279)
    %905 = stablehlo.add %904, %cst_18 : tensor<1x32x37xf32> loc(#loc279)
    %906 = stablehlo.multiply %905, %889 : tensor<1x32x37xf32> loc(#loc279)
    %907 = stablehlo.add %906, %cst_17 : tensor<1x32x37xf32> loc(#loc279)
    %908 = stablehlo.multiply %907, %889 : tensor<1x32x37xf32> loc(#loc279)
    %909 = stablehlo.add %908, %cst_16 : tensor<1x32x37xf32> loc(#loc279)
    %910 = stablehlo.multiply %cst_15, %889 : tensor<1x32x37xf32> loc(#loc279)
    %911 = stablehlo.add %910, %cst_14 : tensor<1x32x37xf32> loc(#loc279)
    %912 = stablehlo.multiply %911, %889 : tensor<1x32x37xf32> loc(#loc279)
    %913 = stablehlo.add %912, %cst_13 : tensor<1x32x37xf32> loc(#loc279)
    %914 = stablehlo.multiply %913, %889 : tensor<1x32x37xf32> loc(#loc279)
    %915 = stablehlo.add %914, %cst_12 : tensor<1x32x37xf32> loc(#loc279)
    %916 = stablehlo.multiply %915, %889 : tensor<1x32x37xf32> loc(#loc279)
    %917 = stablehlo.add %916, %cst_11 : tensor<1x32x37xf32> loc(#loc279)
    %918 = stablehlo.multiply %917, %889 : tensor<1x32x37xf32> loc(#loc279)
    %919 = stablehlo.add %918, %cst_10 : tensor<1x32x37xf32> loc(#loc279)
    %920 = stablehlo.multiply %919, %889 : tensor<1x32x37xf32> loc(#loc279)
    %921 = stablehlo.add %920, %cst_9 : tensor<1x32x37xf32> loc(#loc279)
    %922 = stablehlo.multiply %921, %889 : tensor<1x32x37xf32> loc(#loc279)
    %923 = stablehlo.add %922, %cst_8 : tensor<1x32x37xf32> loc(#loc279)
    %924 = stablehlo.select %893, %909, %923 : tensor<1x32x37xi1>, tensor<1x32x37xf32> loc(#loc279)
    %925 = stablehlo.multiply %892, %924 : tensor<1x32x37xf32> loc(#loc279)
    %926 = stablehlo.compare  LT, %887, %cst_7 : (tensor<1x32x37xf32>, tensor<1x32x37xf32>) -> tensor<1x32x37xi1> loc(#loc279)
    %927 = stablehlo.select %926, %cst_6, %925 : tensor<1x32x37xi1>, tensor<1x32x37xf32> loc(#loc279)
    %928 = stablehlo.compare  LT, %885, %cst_6 : (tensor<1x32x37xf32>, tensor<1x32x37xf32>) -> tensor<1x32x37xi1> loc(#loc279)
    %929 = stablehlo.subtract %cst_25, %927 : tensor<1x32x37xf32> loc(#loc279)
    %930 = stablehlo.select %928, %929, %927 : tensor<1x32x37xi1>, tensor<1x32x37xf32> loc(#loc279)
    %931 = stablehlo.multiply %885, %885 : tensor<1x32x37xf32> loc(#loc279)
    %932 = stablehlo.multiply %cst_5, %931 : tensor<1x32x37xf32> loc(#loc279)
    %933 = stablehlo.add %932, %cst_4 : tensor<1x32x37xf32> loc(#loc279)
    %934 = stablehlo.multiply %933, %931 : tensor<1x32x37xf32> loc(#loc279)
    %935 = stablehlo.add %934, %cst_3 : tensor<1x32x37xf32> loc(#loc279)
    %936 = stablehlo.multiply %935, %931 : tensor<1x32x37xf32> loc(#loc279)
    %937 = stablehlo.add %936, %cst_2 : tensor<1x32x37xf32> loc(#loc279)
    %938 = stablehlo.multiply %937, %931 : tensor<1x32x37xf32> loc(#loc279)
    %939 = stablehlo.add %938, %cst_1 : tensor<1x32x37xf32> loc(#loc279)
    %940 = stablehlo.multiply %939, %931 : tensor<1x32x37xf32> loc(#loc279)
    %941 = stablehlo.add %940, %cst_0 : tensor<1x32x37xf32> loc(#loc279)
    %942 = stablehlo.multiply %941, %931 : tensor<1x32x37xf32> loc(#loc279)
    %943 = stablehlo.add %942, %cst : tensor<1x32x37xf32> loc(#loc279)
    %944 = stablehlo.multiply %885, %943 : tensor<1x32x37xf32> loc(#loc279)
    %945 = stablehlo.subtract %cst_26, %944 : tensor<1x32x37xf32> loc(#loc279)
    %946 = stablehlo.abs %885 : tensor<1x32x37xf32> loc(#loc279)
    %947 = stablehlo.compare  LT, %946, %cst_26 : (tensor<1x32x37xf32>, tensor<1x32x37xf32>) -> tensor<1x32x37xi1> loc(#loc279)
    %948 = stablehlo.select %947, %945, %930 : tensor<1x32x37xi1>, tensor<1x32x37xf32> loc(#loc279)
    %949 = stablehlo.multiply %882, %948 : tensor<1x32x37xf32> loc(#loc277)
    %950 = stablehlo.reshape %949 : (tensor<1x32x37xf32>) -> tensor<32x37xf32> loc(#loc256)
    %951 = stablehlo.transpose %arg65, dims = [1, 0] : (tensor<32x37xf32>) -> tensor<37x32xf32> loc(#loc257)
    %952 = stablehlo.broadcast_in_dim %cst_36, dims = [] : (tensor<f32>) -> tensor<32xf32> loc(#loc258)
    %953 = stablehlo.multiply %arg66, %952 : tensor<32xf32> loc(#loc258)
    %954 = stablehlo.dot_general %950, %951, contracting_dims = [1] x [0] : (tensor<32x37xf32>, tensor<37x32xf32>) -> tensor<32x32xf32> loc(#loc259)
    %955 = stablehlo.broadcast_in_dim %cst_36, dims = [] : (tensor<f32>) -> tensor<32x32xf32> loc(#loc260)
    %956 = stablehlo.multiply %955, %954 : tensor<32x32xf32> loc(#loc260)
    %957 = stablehlo.broadcast_in_dim %953, dims = [1] : (tensor<32xf32>) -> tensor<1x32xf32> loc(#loc261)
    %958 = stablehlo.broadcast_in_dim %957, dims = [0, 1] : (tensor<1x32xf32>) -> tensor<32x32xf32> loc(#loc262)
    %959 = stablehlo.add %958, %956 : tensor<32x32xf32> loc(#loc262)
    %960 = stablehlo.reshape %959 : (tensor<32x32xf32>) -> tensor<1x32x32xf32> loc(#loc256)
    %961 = stablehlo.broadcast_in_dim %cst_36, dims = [] : (tensor<f32>) -> tensor<1x32x32xf32> loc(#loc231)
    %962 = stablehlo.multiply %869, %961 : tensor<1x32x32xf32> loc(#loc231)
    %963 = stablehlo.add %960, %962 : tensor<1x32x32xf32> loc(#loc232)
    %964 = stablehlo.reduce(%963 init: %cst_35) applies stablehlo.add across dimensions = [2] : (tensor<1x32x32xf32>, tensor<f32>) -> tensor<1x32xf32> loc(#loc233)
    %965 = stablehlo.broadcast_in_dim %964, dims = [0, 1] : (tensor<1x32xf32>) -> tensor<1x32x1xf32> loc(#loc234)
    %966 = stablehlo.broadcast_in_dim %cst_34, dims = [] : (tensor<f32>) -> tensor<1x32x1xf32> loc(#loc235)
    %967 = stablehlo.divide %965, %966 : tensor<1x32x1xf32> loc(#loc235)
    %968 = call @_var(%963, %c_39) : (tensor<1x32x32xf32>, tensor<i32>) -> tensor<1x32x1xf32> loc(#loc236)
    %969 = stablehlo.broadcast_in_dim %cst_33, dims = [] : (tensor<f32>) -> tensor<1x32x1xf32> loc(#loc237)
    %970 = stablehlo.add %968, %969 : tensor<1x32x1xf32> loc(#loc237)
    %971 = stablehlo.rsqrt %970 : tensor<1x32x1xf32> loc(#loc238)
    %972 = stablehlo.broadcast_in_dim %967, dims = [0, 1, 2] : (tensor<1x32x1xf32>) -> tensor<1x32x32xf32> loc(#loc239)
    %973 = stablehlo.subtract %963, %972 : tensor<1x32x32xf32> loc(#loc239)
    %974 = stablehlo.broadcast_in_dim %971, dims = [0, 1, 2] : (tensor<1x32x1xf32>) -> tensor<1x32x32xf32> loc(#loc240)
    %975 = stablehlo.multiply %973, %974 : tensor<1x32x32xf32> loc(#loc240)
    %976 = stablehlo.broadcast_in_dim %arg67, dims = [2] : (tensor<32xf32>) -> tensor<1x1x32xf32> loc(#loc241)
    %977 = stablehlo.broadcast_in_dim %976, dims = [0, 1, 2] : (tensor<1x1x32xf32>) -> tensor<1x32x32xf32> loc(#loc242)
    %978 = stablehlo.multiply %975, %977 : tensor<1x32x32xf32> loc(#loc242)
    %979 = stablehlo.broadcast_in_dim %arg68, dims = [2] : (tensor<32xf32>) -> tensor<1x1x32xf32> loc(#loc243)
    %980 = stablehlo.broadcast_in_dim %979, dims = [0, 1, 2] : (tensor<1x1x32xf32>) -> tensor<1x32x32xf32> loc(#loc244)
    %981 = stablehlo.add %978, %980 : tensor<1x32x32xf32> loc(#loc244)
    %982 = stablehlo.reshape %981 : (tensor<1x32x32xf32>) -> tensor<32x32xf32> loc(#loc256)
    %983 = stablehlo.transpose %arg69, dims = [1, 0] : (tensor<32x32xf32>) -> tensor<32x32xf32> loc(#loc257)
    %984 = stablehlo.broadcast_in_dim %cst_36, dims = [] : (tensor<f32>) -> tensor<32xf32> loc(#loc258)
    %985 = stablehlo.multiply %arg70, %984 : tensor<32xf32> loc(#loc258)
    %986 = stablehlo.dot_general %982, %983, contracting_dims = [1] x [0] : (tensor<32x32xf32>, tensor<32x32xf32>) -> tensor<32x32xf32> loc(#loc259)
    %987 = stablehlo.broadcast_in_dim %cst_36, dims = [] : (tensor<f32>) -> tensor<32x32xf32> loc(#loc260)
    %988 = stablehlo.multiply %987, %986 : tensor<32x32xf32> loc(#loc260)
    %989 = stablehlo.broadcast_in_dim %985, dims = [1] : (tensor<32xf32>) -> tensor<1x32xf32> loc(#loc261)
    %990 = stablehlo.broadcast_in_dim %989, dims = [0, 1] : (tensor<1x32xf32>) -> tensor<32x32xf32> loc(#loc262)
    %991 = stablehlo.add %990, %988 : tensor<32x32xf32> loc(#loc262)
    %992 = stablehlo.reshape %991 : (tensor<32x32xf32>) -> tensor<1x32x32xf32> loc(#loc256)
    %993 = stablehlo.reshape %992 : (tensor<1x32x32xf32>) -> tensor<1x32x4x8xf32> loc(#loc256)
    %994 = stablehlo.transpose %993, dims = [0, 2, 1, 3] : (tensor<1x32x4x8xf32>) -> tensor<1x4x32x8xf32> loc(#loc257)
    %995 = stablehlo.reshape %981 : (tensor<1x32x32xf32>) -> tensor<32x32xf32> loc(#loc256)
    %996 = stablehlo.transpose %arg71, dims = [1, 0] : (tensor<32x32xf32>) -> tensor<32x32xf32> loc(#loc257)
    %997 = stablehlo.broadcast_in_dim %cst_36, dims = [] : (tensor<f32>) -> tensor<32xf32> loc(#loc258)
    %998 = stablehlo.multiply %arg72, %997 : tensor<32xf32> loc(#loc258)
    %999 = stablehlo.dot_general %995, %996, contracting_dims = [1] x [0] : (tensor<32x32xf32>, tensor<32x32xf32>) -> tensor<32x32xf32> loc(#loc259)
    %1000 = stablehlo.broadcast_in_dim %cst_36, dims = [] : (tensor<f32>) -> tensor<32x32xf32> loc(#loc260)
    %1001 = stablehlo.multiply %1000, %999 : tensor<32x32xf32> loc(#loc260)
    %1002 = stablehlo.broadcast_in_dim %998, dims = [1] : (tensor<32xf32>) -> tensor<1x32xf32> loc(#loc261)
    %1003 = stablehlo.broadcast_in_dim %1002, dims = [0, 1] : (tensor<1x32xf32>) -> tensor<32x32xf32> loc(#loc262)
    %1004 = stablehlo.add %1003, %1001 : tensor<32x32xf32> loc(#loc262)
    %1005 = stablehlo.reshape %1004 : (tensor<32x32xf32>) -> tensor<1x32x32xf32> loc(#loc256)
    %1006 = stablehlo.reshape %1005 : (tensor<1x32x32xf32>) -> tensor<1x32x4x8xf32> loc(#loc256)
    %1007 = stablehlo.transpose %1006, dims = [0, 2, 1, 3] : (tensor<1x32x4x8xf32>) -> tensor<1x4x32x8xf32> loc(#loc257)
    %1008 = stablehlo.reshape %981 : (tensor<1x32x32xf32>) -> tensor<32x32xf32> loc(#loc256)
    %1009 = stablehlo.transpose %arg73, dims = [1, 0] : (tensor<32x32xf32>) -> tensor<32x32xf32> loc(#loc257)
    %1010 = stablehlo.broadcast_in_dim %cst_36, dims = [] : (tensor<f32>) -> tensor<32xf32> loc(#loc258)
    %1011 = stablehlo.multiply %arg74, %1010 : tensor<32xf32> loc(#loc258)
    %1012 = stablehlo.dot_general %1008, %1009, contracting_dims = [1] x [0] : (tensor<32x32xf32>, tensor<32x32xf32>) -> tensor<32x32xf32> loc(#loc259)
    %1013 = stablehlo.broadcast_in_dim %cst_36, dims = [] : (tensor<f32>) -> tensor<32x32xf32> loc(#loc260)
    %1014 = stablehlo.multiply %1013, %1012 : tensor<32x32xf32> loc(#loc260)
    %1015 = stablehlo.broadcast_in_dim %1011, dims = [1] : (tensor<32xf32>) -> tensor<1x32xf32> loc(#loc261)
    %1016 = stablehlo.broadcast_in_dim %1015, dims = [0, 1] : (tensor<1x32xf32>) -> tensor<32x32xf32> loc(#loc262)
    %1017 = stablehlo.add %1016, %1014 : tensor<32x32xf32> loc(#loc262)
    %1018 = stablehlo.reshape %1017 : (tensor<32x32xf32>) -> tensor<1x32x32xf32> loc(#loc256)
    %1019 = stablehlo.reshape %1018 : (tensor<1x32x32xf32>) -> tensor<1x32x4x8xf32> loc(#loc256)
    %1020 = stablehlo.transpose %1019, dims = [0, 2, 1, 3] : (tensor<1x32x4x8xf32>) -> tensor<1x4x32x8xf32> loc(#loc257)
    %1021 = call @_where_3(%85, %cst_35, %cst_30) : (tensor<1x1x32x32xi1>, tensor<f32>, tensor<f32>) -> tensor<1x1x32x32xf32> loc(#loc263)
    %1022 = stablehlo.broadcast_in_dim %cst_29, dims = [] : (tensor<f32>) -> tensor<1x4x32x8xf32> loc(#loc264)
    %1023 = stablehlo.multiply %994, %1022 : tensor<1x4x32x8xf32> loc(#loc264)
    %1024 = stablehlo.transpose %1007, dims = [0, 1, 3, 2] : (tensor<1x4x32x8xf32>) -> tensor<1x4x8x32xf32> loc(#loc257)
    %1025 = stablehlo.broadcast_in_dim %cst_29, dims = [] : (tensor<f32>) -> tensor<1x4x8x32xf32> loc(#loc264)
    %1026 = stablehlo.multiply %1024, %1025 : tensor<1x4x8x32xf32> loc(#loc264)
    %1027 = stablehlo.reshape %1023 : (tensor<1x4x32x8xf32>) -> tensor<4x32x8xf32> loc(#loc256)
    %1028 = stablehlo.reshape %1026 : (tensor<1x4x8x32xf32>) -> tensor<4x8x32xf32> loc(#loc256)
    %1029 = stablehlo.dot_general %1027, %1028, batching_dims = [0] x [0], contracting_dims = [2] x [1] : (tensor<4x32x8xf32>, tensor<4x8x32xf32>) -> tensor<4x32x32xf32> loc(#loc265)
    %1030 = stablehlo.reshape %1029 : (tensor<4x32x32xf32>) -> tensor<1x4x32x32xf32> loc(#loc256)
    %1031 = stablehlo.broadcast_in_dim %cst_36, dims = [] : (tensor<f32>) -> tensor<1x1x32x32xf32> loc(#loc231)
    %1032 = stablehlo.multiply %1021, %1031 : tensor<1x1x32x32xf32> loc(#loc231)
    %1033 = stablehlo.broadcast_in_dim %1032, dims = [0, 1, 2, 3] : (tensor<1x1x32x32xf32>) -> tensor<1x4x32x32xf32> loc(#loc232)
    %1034 = stablehlo.add %1030, %1033 : tensor<1x4x32x32xf32> loc(#loc232)
    %1035 = stablehlo.reduce(%1034 init: %cst_30) applies stablehlo.maximum across dimensions = [3] : (tensor<1x4x32x32xf32>, tensor<f32>) -> tensor<1x4x32xf32> loc(#loc266)
    %1036 = stablehlo.broadcast_in_dim %cst_30, dims = [] : (tensor<f32>) -> tensor<1x4x32xf32> loc(#loc267)
    %1037 = stablehlo.maximum %1036, %1035 : tensor<1x4x32xf32> loc(#loc267)
    %1038 = stablehlo.broadcast_in_dim %1037, dims = [0, 1, 2] : (tensor<1x4x32xf32>) -> tensor<1x4x32x1xf32> loc(#loc268)
    %1039 = stablehlo.broadcast_in_dim %1038, dims = [0, 1, 2, 3] : (tensor<1x4x32x1xf32>) -> tensor<1x4x32x32xf32> loc(#loc269)
    %1040 = stablehlo.subtract %1034, %1039 : tensor<1x4x32x32xf32> loc(#loc269)
    %1041 = stablehlo.exponential %1040 : tensor<1x4x32x32xf32> loc(#loc270)
    %1042 = stablehlo.reduce(%1041 init: %cst_35) applies stablehlo.add across dimensions = [3] : (tensor<1x4x32x32xf32>, tensor<f32>) -> tensor<1x4x32xf32> loc(#loc271)
    %1043 = stablehlo.broadcast_in_dim %1042, dims = [0, 1, 2] : (tensor<1x4x32xf32>) -> tensor<1x4x32x1xf32> loc(#loc268)
    %1044 = stablehlo.broadcast_in_dim %1043, dims = [0, 1, 2, 3] : (tensor<1x4x32x1xf32>) -> tensor<1x4x32x32xf32> loc(#loc272)
    %1045 = stablehlo.divide %1041, %1044 : tensor<1x4x32x32xf32> loc(#loc272)
    %1046 = stablehlo.broadcast_in_dim %cst_30, dims = [] : (tensor<f32>) -> tensor<1x4x32x32xf32> loc(#loc273)
    %1047 = stablehlo.compare  EQ, %1034, %1046,  FLOAT : (tensor<1x4x32x32xf32>, tensor<1x4x32x32xf32>) -> tensor<1x4x32x32xi1> loc(#loc273)
    %1048 = stablehlo.not %1047 : tensor<1x4x32x32xi1> loc(#loc274)
    %1049 = stablehlo.reduce(%1048 init: %c) applies stablehlo.or across dimensions = [3] : (tensor<1x4x32x32xi1>, tensor<i1>) -> tensor<1x4x32xi1> loc(#loc311)
    %1050 = stablehlo.broadcast_in_dim %1049, dims = [0, 1, 2] : (tensor<1x4x32xi1>) -> tensor<1x4x32x1xi1> loc(#loc312)
    %1051 = stablehlo.not %1050 : tensor<1x4x32x1xi1> loc(#loc274)
    %1052 = stablehlo.broadcast_in_dim %cst_35, dims = [] : (tensor<f32>) -> tensor<1x4x32x32xf32> loc(#loc276)
    %1053 = call @_where_4(%1051, %1052, %1045) : (tensor<1x4x32x1xi1>, tensor<1x4x32x32xf32>, tensor<1x4x32x32xf32>) -> tensor<1x4x32x32xf32> loc(#loc263)
    %1054 = stablehlo.reshape %1053 : (tensor<1x4x32x32xf32>) -> tensor<4x32x32xf32> loc(#loc256)
    %1055 = stablehlo.reshape %1020 : (tensor<1x4x32x8xf32>) -> tensor<4x32x8xf32> loc(#loc256)
    %1056 = stablehlo.dot_general %1054, %1055, batching_dims = [0] x [0], contracting_dims = [2] x [1] : (tensor<4x32x32xf32>, tensor<4x32x8xf32>) -> tensor<4x32x8xf32> loc(#loc265)
    %1057 = stablehlo.reshape %1056 : (tensor<4x32x8xf32>) -> tensor<1x4x32x8xf32> loc(#loc256)
    %1058 = stablehlo.transpose %1057, dims = [2, 0, 1, 3] : (tensor<1x4x32x8xf32>) -> tensor<32x1x4x8xf32> loc(#loc257)
    %1059 = stablehlo.transpose %1058, dims = [1, 2, 0, 3] : (tensor<32x1x4x8xf32>) -> tensor<1x4x32x8xf32> loc(#loc257)
    %1060 = stablehlo.transpose %1059, dims = [0, 2, 1, 3] : (tensor<1x4x32x8xf32>) -> tensor<1x32x4x8xf32> loc(#loc257)
    %1061 = stablehlo.reshape %1060 : (tensor<1x32x4x8xf32>) -> tensor<1x32x32xf32> loc(#loc256)
    %1062 = stablehlo.reshape %1061 : (tensor<1x32x32xf32>) -> tensor<32x32xf32> loc(#loc256)
    %1063 = stablehlo.transpose %arg75, dims = [1, 0] : (tensor<32x32xf32>) -> tensor<32x32xf32> loc(#loc257)
    %1064 = stablehlo.broadcast_in_dim %cst_36, dims = [] : (tensor<f32>) -> tensor<32xf32> loc(#loc258)
    %1065 = stablehlo.multiply %arg76, %1064 : tensor<32xf32> loc(#loc258)
    %1066 = stablehlo.dot_general %1062, %1063, contracting_dims = [1] x [0] : (tensor<32x32xf32>, tensor<32x32xf32>) -> tensor<32x32xf32> loc(#loc259)
    %1067 = stablehlo.broadcast_in_dim %cst_36, dims = [] : (tensor<f32>) -> tensor<32x32xf32> loc(#loc260)
    %1068 = stablehlo.multiply %1067, %1066 : tensor<32x32xf32> loc(#loc260)
    %1069 = stablehlo.broadcast_in_dim %1065, dims = [1] : (tensor<32xf32>) -> tensor<1x32xf32> loc(#loc261)
    %1070 = stablehlo.broadcast_in_dim %1069, dims = [0, 1] : (tensor<1x32xf32>) -> tensor<32x32xf32> loc(#loc262)
    %1071 = stablehlo.add %1070, %1068 : tensor<32x32xf32> loc(#loc262)
    %1072 = stablehlo.reshape %1071 : (tensor<32x32xf32>) -> tensor<1x32x32xf32> loc(#loc256)
    %1073 = stablehlo.broadcast_in_dim %cst_36, dims = [] : (tensor<f32>) -> tensor<1x32x32xf32> loc(#loc231)
    %1074 = stablehlo.multiply %981, %1073 : tensor<1x32x32xf32> loc(#loc231)
    %1075 = stablehlo.add %1072, %1074 : tensor<1x32x32xf32> loc(#loc232)
    %1076 = stablehlo.reduce(%1075 init: %cst_35) applies stablehlo.add across dimensions = [2] : (tensor<1x32x32xf32>, tensor<f32>) -> tensor<1x32xf32> loc(#loc233)
    %1077 = stablehlo.broadcast_in_dim %1076, dims = [0, 1] : (tensor<1x32xf32>) -> tensor<1x32x1xf32> loc(#loc234)
    %1078 = stablehlo.broadcast_in_dim %cst_34, dims = [] : (tensor<f32>) -> tensor<1x32x1xf32> loc(#loc235)
    %1079 = stablehlo.divide %1077, %1078 : tensor<1x32x1xf32> loc(#loc235)
    %1080 = call @_var(%1075, %c_39) : (tensor<1x32x32xf32>, tensor<i32>) -> tensor<1x32x1xf32> loc(#loc236)
    %1081 = stablehlo.broadcast_in_dim %cst_33, dims = [] : (tensor<f32>) -> tensor<1x32x1xf32> loc(#loc237)
    %1082 = stablehlo.add %1080, %1081 : tensor<1x32x1xf32> loc(#loc237)
    %1083 = stablehlo.rsqrt %1082 : tensor<1x32x1xf32> loc(#loc238)
    %1084 = stablehlo.broadcast_in_dim %1079, dims = [0, 1, 2] : (tensor<1x32x1xf32>) -> tensor<1x32x32xf32> loc(#loc239)
    %1085 = stablehlo.subtract %1075, %1084 : tensor<1x32x32xf32> loc(#loc239)
    %1086 = stablehlo.broadcast_in_dim %1083, dims = [0, 1, 2] : (tensor<1x32x1xf32>) -> tensor<1x32x32xf32> loc(#loc240)
    %1087 = stablehlo.multiply %1085, %1086 : tensor<1x32x32xf32> loc(#loc240)
    %1088 = stablehlo.broadcast_in_dim %arg77, dims = [2] : (tensor<32xf32>) -> tensor<1x1x32xf32> loc(#loc241)
    %1089 = stablehlo.broadcast_in_dim %1088, dims = [0, 1, 2] : (tensor<1x1x32xf32>) -> tensor<1x32x32xf32> loc(#loc242)
    %1090 = stablehlo.multiply %1087, %1089 : tensor<1x32x32xf32> loc(#loc242)
    %1091 = stablehlo.broadcast_in_dim %arg78, dims = [2] : (tensor<32xf32>) -> tensor<1x1x32xf32> loc(#loc243)
    %1092 = stablehlo.broadcast_in_dim %1091, dims = [0, 1, 2] : (tensor<1x1x32xf32>) -> tensor<1x32x32xf32> loc(#loc244)
    %1093 = stablehlo.add %1090, %1092 : tensor<1x32x32xf32> loc(#loc244)
    %1094 = stablehlo.reshape %1093 : (tensor<1x32x32xf32>) -> tensor<32x32xf32> loc(#loc256)
    %1095 = stablehlo.transpose %arg79, dims = [1, 0] : (tensor<37x32xf32>) -> tensor<32x37xf32> loc(#loc257)
    %1096 = stablehlo.broadcast_in_dim %cst_36, dims = [] : (tensor<f32>) -> tensor<37xf32> loc(#loc258)
    %1097 = stablehlo.multiply %arg80, %1096 : tensor<37xf32> loc(#loc258)
    %1098 = stablehlo.dot_general %1094, %1095, contracting_dims = [1] x [0] : (tensor<32x32xf32>, tensor<32x37xf32>) -> tensor<32x37xf32> loc(#loc259)
    %1099 = stablehlo.broadcast_in_dim %cst_36, dims = [] : (tensor<f32>) -> tensor<32x37xf32> loc(#loc260)
    %1100 = stablehlo.multiply %1099, %1098 : tensor<32x37xf32> loc(#loc260)
    %1101 = stablehlo.broadcast_in_dim %1097, dims = [1] : (tensor<37xf32>) -> tensor<1x37xf32> loc(#loc261)
    %1102 = stablehlo.broadcast_in_dim %1101, dims = [0, 1] : (tensor<1x37xf32>) -> tensor<32x37xf32> loc(#loc262)
    %1103 = stablehlo.add %1102, %1100 : tensor<32x37xf32> loc(#loc262)
    %1104 = stablehlo.reshape %1103 : (tensor<32x37xf32>) -> tensor<1x32x37xf32> loc(#loc256)
    %1105 = stablehlo.broadcast_in_dim %cst_28, dims = [] : (tensor<f32>) -> tensor<1x32x37xf32> loc(#loc277)
    %1106 = stablehlo.multiply %1105, %1104 : tensor<1x32x37xf32> loc(#loc277)
    %1107 = stablehlo.negate %1104 : tensor<1x32x37xf32> loc(#loc278)
    %1108 = stablehlo.broadcast_in_dim %cst_27, dims = [] : (tensor<f32>) -> tensor<1x32x37xf32> loc(#loc277)
    %1109 = stablehlo.multiply %1107, %1108 : tensor<1x32x37xf32> loc(#loc277)
    %1110 = stablehlo.multiply %1109, %1109 : tensor<1x32x37xf32> loc(#loc279)
    %1111 = stablehlo.negate %1110 : tensor<1x32x37xf32> loc(#loc279)
    %1112 = stablehlo.abs %1109 : tensor<1x32x37xf32> loc(#loc279)
    %1113 = stablehlo.divide %cst_26, %1110 : tensor<1x32x37xf32> loc(#loc279)
    %1114 = stablehlo.exponential %1111 : tensor<1x32x37xf32> loc(#loc279)
    %1115 = stablehlo.divide %cst_26, %1112 : tensor<1x32x37xf32> loc(#loc279)
    %1116 = stablehlo.multiply %1114, %1115 : tensor<1x32x37xf32> loc(#loc279)
    %1117 = stablehlo.compare  LT, %1112, %cst_25 : (tensor<1x32x37xf32>, tensor<1x32x37xf32>) -> tensor<1x32x37xi1> loc(#loc279)
    %1118 = stablehlo.multiply %cst_24, %1113 : tensor<1x32x37xf32> loc(#loc279)
    %1119 = stablehlo.add %1118, %cst_23 : tensor<1x32x37xf32> loc(#loc279)
    %1120 = stablehlo.multiply %1119, %1113 : tensor<1x32x37xf32> loc(#loc279)
    %1121 = stablehlo.add %1120, %cst_22 : tensor<1x32x37xf32> loc(#loc279)
    %1122 = stablehlo.multiply %1121, %1113 : tensor<1x32x37xf32> loc(#loc279)
    %1123 = stablehlo.add %1122, %cst_21 : tensor<1x32x37xf32> loc(#loc279)
    %1124 = stablehlo.multiply %1123, %1113 : tensor<1x32x37xf32> loc(#loc279)
    %1125 = stablehlo.add %1124, %cst_20 : tensor<1x32x37xf32> loc(#loc279)
    %1126 = stablehlo.multiply %1125, %1113 : tensor<1x32x37xf32> loc(#loc279)
    %1127 = stablehlo.add %1126, %cst_19 : tensor<1x32x37xf32> loc(#loc279)
    %1128 = stablehlo.multiply %1127, %1113 : tensor<1x32x37xf32> loc(#loc279)
    %1129 = stablehlo.add %1128, %cst_18 : tensor<1x32x37xf32> loc(#loc279)
    %1130 = stablehlo.multiply %1129, %1113 : tensor<1x32x37xf32> loc(#loc279)
    %1131 = stablehlo.add %1130, %cst_17 : tensor<1x32x37xf32> loc(#loc279)
    %1132 = stablehlo.multiply %1131, %1113 : tensor<1x32x37xf32> loc(#loc279)
    %1133 = stablehlo.add %1132, %cst_16 : tensor<1x32x37xf32> loc(#loc279)
    %1134 = stablehlo.multiply %cst_15, %1113 : tensor<1x32x37xf32> loc(#loc279)
    %1135 = stablehlo.add %1134, %cst_14 : tensor<1x32x37xf32> loc(#loc279)
    %1136 = stablehlo.multiply %1135, %1113 : tensor<1x32x37xf32> loc(#loc279)
    %1137 = stablehlo.add %1136, %cst_13 : tensor<1x32x37xf32> loc(#loc279)
    %1138 = stablehlo.multiply %1137, %1113 : tensor<1x32x37xf32> loc(#loc279)
    %1139 = stablehlo.add %1138, %cst_12 : tensor<1x32x37xf32> loc(#loc279)
    %1140 = stablehlo.multiply %1139, %1113 : tensor<1x32x37xf32> loc(#loc279)
    %1141 = stablehlo.add %1140, %cst_11 : tensor<1x32x37xf32> loc(#loc279)
    %1142 = stablehlo.multiply %1141, %1113 : tensor<1x32x37xf32> loc(#loc279)
    %1143 = stablehlo.add %1142, %cst_10 : tensor<1x32x37xf32> loc(#loc279)
    %1144 = stablehlo.multiply %1143, %1113 : tensor<1x32x37xf32> loc(#loc279)
    %1145 = stablehlo.add %1144, %cst_9 : tensor<1x32x37xf32> loc(#loc279)
    %1146 = stablehlo.multiply %1145, %1113 : tensor<1x32x37xf32> loc(#loc279)
    %1147 = stablehlo.add %1146, %cst_8 : tensor<1x32x37xf32> loc(#loc279)
    %1148 = stablehlo.select %1117, %1133, %1147 : tensor<1x32x37xi1>, tensor<1x32x37xf32> loc(#loc279)
    %1149 = stablehlo.multiply %1116, %1148 : tensor<1x32x37xf32> loc(#loc279)
    %1150 = stablehlo.compare  LT, %1111, %cst_7 : (tensor<1x32x37xf32>, tensor<1x32x37xf32>) -> tensor<1x32x37xi1> loc(#loc279)
    %1151 = stablehlo.select %1150, %cst_6, %1149 : tensor<1x32x37xi1>, tensor<1x32x37xf32> loc(#loc279)
    %1152 = stablehlo.compare  LT, %1109, %cst_6 : (tensor<1x32x37xf32>, tensor<1x32x37xf32>) -> tensor<1x32x37xi1> loc(#loc279)
    %1153 = stablehlo.subtract %cst_25, %1151 : tensor<1x32x37xf32> loc(#loc279)
    %1154 = stablehlo.select %1152, %1153, %1151 : tensor<1x32x37xi1>, tensor<1x32x37xf32> loc(#loc279)
    %1155 = stablehlo.multiply %1109, %1109 : tensor<1x32x37xf32> loc(#loc279)
    %1156 = stablehlo.multiply %cst_5, %1155 : tensor<1x32x37xf32> loc(#loc279)
    %1157 = stablehlo.add %1156, %cst_4 : tensor<1x32x37xf32> loc(#loc279)
    %1158 = stablehlo.multiply %1157, %1155 : tensor<1x32x37xf32> loc(#loc279)
    %1159 = stablehlo.add %1158, %cst_3 : tensor<1x32x37xf32> loc(#loc279)
    %1160 = stablehlo.multiply %1159, %1155 : tensor<1x32x37xf32> loc(#loc279)
    %1161 = stablehlo.add %1160, %cst_2 : tensor<1x32x37xf32> loc(#loc279)
    %1162 = stablehlo.multiply %1161, %1155 : tensor<1x32x37xf32> loc(#loc279)
    %1163 = stablehlo.add %1162, %cst_1 : tensor<1x32x37xf32> loc(#loc279)
    %1164 = stablehlo.multiply %1163, %1155 : tensor<1x32x37xf32> loc(#loc279)
    %1165 = stablehlo.add %1164, %cst_0 : tensor<1x32x37xf32> loc(#loc279)
    %1166 = stablehlo.multiply %1165, %1155 : tensor<1x32x37xf32> loc(#loc279)
    %1167 = stablehlo.add %1166, %cst : tensor<1x32x37xf32> loc(#loc279)
    %1168 = stablehlo.multiply %1109, %1167 : tensor<1x32x37xf32> loc(#loc279)
    %1169 = stablehlo.subtract %cst_26, %1168 : tensor<1x32x37xf32> loc(#loc279)
    %1170 = stablehlo.abs %1109 : tensor<1x32x37xf32> loc(#loc279)
    %1171 = stablehlo.compare  LT, %1170, %cst_26 : (tensor<1x32x37xf32>, tensor<1x32x37xf32>) -> tensor<1x32x37xi1> loc(#loc279)
    %1172 = stablehlo.select %1171, %1169, %1154 : tensor<1x32x37xi1>, tensor<1x32x37xf32> loc(#loc279)
    %1173 = stablehlo.multiply %1106, %1172 : tensor<1x32x37xf32> loc(#loc277)
    %1174 = stablehlo.reshape %1173 : (tensor<1x32x37xf32>) -> tensor<32x37xf32> loc(#loc256)
    %1175 = stablehlo.transpose %arg81, dims = [1, 0] : (tensor<32x37xf32>) -> tensor<37x32xf32> loc(#loc257)
    %1176 = stablehlo.broadcast_in_dim %cst_36, dims = [] : (tensor<f32>) -> tensor<32xf32> loc(#loc258)
    %1177 = stablehlo.multiply %arg82, %1176 : tensor<32xf32> loc(#loc258)
    %1178 = stablehlo.dot_general %1174, %1175, contracting_dims = [1] x [0] : (tensor<32x37xf32>, tensor<37x32xf32>) -> tensor<32x32xf32> loc(#loc259)
    %1179 = stablehlo.broadcast_in_dim %cst_36, dims = [] : (tensor<f32>) -> tensor<32x32xf32> loc(#loc260)
    %1180 = stablehlo.multiply %1179, %1178 : tensor<32x32xf32> loc(#loc260)
    %1181 = stablehlo.broadcast_in_dim %1177, dims = [1] : (tensor<32xf32>) -> tensor<1x32xf32> loc(#loc261)
    %1182 = stablehlo.broadcast_in_dim %1181, dims = [0, 1] : (tensor<1x32xf32>) -> tensor<32x32xf32> loc(#loc262)
    %1183 = stablehlo.add %1182, %1180 : tensor<32x32xf32> loc(#loc262)
    %1184 = stablehlo.reshape %1183 : (tensor<32x32xf32>) -> tensor<1x32x32xf32> loc(#loc256)
    %1185 = stablehlo.broadcast_in_dim %cst_36, dims = [] : (tensor<f32>) -> tensor<1x32x32xf32> loc(#loc231)
    %1186 = stablehlo.multiply %1093, %1185 : tensor<1x32x32xf32> loc(#loc231)
    %1187 = stablehlo.add %1184, %1186 : tensor<1x32x32xf32> loc(#loc232)
    %1188 = stablehlo.reduce(%1187 init: %cst_35) applies stablehlo.add across dimensions = [2] : (tensor<1x32x32xf32>, tensor<f32>) -> tensor<1x32xf32> loc(#loc233)
    %1189 = stablehlo.broadcast_in_dim %1188, dims = [0, 1] : (tensor<1x32xf32>) -> tensor<1x32x1xf32> loc(#loc234)
    %1190 = stablehlo.broadcast_in_dim %cst_34, dims = [] : (tensor<f32>) -> tensor<1x32x1xf32> loc(#loc235)
    %1191 = stablehlo.divide %1189, %1190 : tensor<1x32x1xf32> loc(#loc235)
    %1192 = call @_var(%1187, %c_39) : (tensor<1x32x32xf32>, tensor<i32>) -> tensor<1x32x1xf32> loc(#loc236)
    %1193 = stablehlo.broadcast_in_dim %cst_33, dims = [] : (tensor<f32>) -> tensor<1x32x1xf32> loc(#loc237)
    %1194 = stablehlo.add %1192, %1193 : tensor<1x32x1xf32> loc(#loc237)
    %1195 = stablehlo.rsqrt %1194 : tensor<1x32x1xf32> loc(#loc238)
    %1196 = stablehlo.broadcast_in_dim %1191, dims = [0, 1, 2] : (tensor<1x32x1xf32>) -> tensor<1x32x32xf32> loc(#loc239)
    %1197 = stablehlo.subtract %1187, %1196 : tensor<1x32x32xf32> loc(#loc239)
    %1198 = stablehlo.broadcast_in_dim %1195, dims = [0, 1, 2] : (tensor<1x32x1xf32>) -> tensor<1x32x32xf32> loc(#loc240)
    %1199 = stablehlo.multiply %1197, %1198 : tensor<1x32x32xf32> loc(#loc240)
    %1200 = stablehlo.broadcast_in_dim %arg83, dims = [2] : (tensor<32xf32>) -> tensor<1x1x32xf32> loc(#loc241)
    %1201 = stablehlo.broadcast_in_dim %1200, dims = [0, 1, 2] : (tensor<1x1x32xf32>) -> tensor<1x32x32xf32> loc(#loc242)
    %1202 = stablehlo.multiply %1199, %1201 : tensor<1x32x32xf32> loc(#loc242)
    %1203 = stablehlo.broadcast_in_dim %arg84, dims = [2] : (tensor<32xf32>) -> tensor<1x1x32xf32> loc(#loc243)
    %1204 = stablehlo.broadcast_in_dim %1203, dims = [0, 1, 2] : (tensor<1x1x32xf32>) -> tensor<1x32x32xf32> loc(#loc244)
    %1205 = stablehlo.add %1202, %1204 : tensor<1x32x32xf32> loc(#loc244)
    %1206 = stablehlo.slice %1205 [0:1, 0:1, 0:32] : (tensor<1x32x32xf32>) -> tensor<1x1x32xf32> loc(#loc280)
    %1207 = stablehlo.reshape %1206 : (tensor<1x1x32xf32>) -> tensor<1x32xf32> loc(#loc281)
    %1208 = stablehlo.transpose %arg85, dims = [1, 0] : (tensor<32x32xf32>) -> tensor<32x32xf32> loc(#loc257)
    %1209 = stablehlo.broadcast_in_dim %cst_36, dims = [] : (tensor<f32>) -> tensor<32xf32> loc(#loc258)
    %1210 = stablehlo.multiply %arg86, %1209 : tensor<32xf32> loc(#loc258)
    %1211 = stablehlo.dot_general %1207, %1208, contracting_dims = [1] x [0] : (tensor<1x32xf32>, tensor<32x32xf32>) -> tensor<1x32xf32> loc(#loc259)
    %1212 = stablehlo.broadcast_in_dim %cst_36, dims = [] : (tensor<f32>) -> tensor<1x32xf32> loc(#loc260)
    %1213 = stablehlo.multiply %1212, %1211 : tensor<1x32xf32> loc(#loc260)
    %1214 = stablehlo.broadcast_in_dim %1210, dims = [1] : (tensor<32xf32>) -> tensor<1x32xf32> loc(#loc261)
    %1215 = stablehlo.add %1214, %1213 : tensor<1x32xf32> loc(#loc262)
    %1216 = stablehlo.tanh %1215 : tensor<1x32xf32> loc(#loc313)
    return %1205, %1216 : tensor<1x32x32xf32>, tensor<1x32xf32> loc(#loc)
  } loc(#loc)
  func.func private @_take(%arg0: tensor<1124x32xf32> loc("jit(func)/jit(main)/pjit"(#loc192)), %arg1: tensor<1x32xi32> loc("jit(func)/jit(main)/pjit"(#loc192))) -> tensor<1x32x32xf32> {
    %cst = stablehlo.constant dense<0x7FC00000> : tensor<f32> loc(#loc)
    %c = stablehlo.constant dense<true> : tensor<i1> loc(#loc)
    %c_0 = stablehlo.constant dense<1123> : tensor<1xi32> loc(#loc)
    %c_1 = stablehlo.constant dense<1124> : tensor<i32> loc(#loc)
    %c_2 = stablehlo.constant dense<0> : tensor<i32> loc(#loc)
    %0 = stablehlo.broadcast_in_dim %c_2, dims = [] : (tensor<i32>) -> tensor<1x32xi32> loc(#loc283)
    %1 = stablehlo.compare  LT, %arg1, %0,  SIGNED : (tensor<1x32xi32>, tensor<1x32xi32>) -> tensor<1x32xi1> loc(#loc283)
    %2 = stablehlo.broadcast_in_dim %c_1, dims = [] : (tensor<i32>) -> tensor<1x32xi32> loc(#loc284)
    %3 = stablehlo.add %arg1, %2 : tensor<1x32xi32> loc(#loc284)
    %4 = call @_where(%1, %3, %arg1) : (tensor<1x32xi1>, tensor<1x32xi32>, tensor<1x32xi32>) -> tensor<1x32xi32> loc(#loc285)
    %5 = stablehlo.broadcast_in_dim %4, dims = [0, 1] : (tensor<1x32xi32>) -> tensor<1x32x1xi32> loc(#loc286)
    %6 = stablehlo.broadcast_in_dim %c_2, dims = [] : (tensor<i32>) -> tensor<1x32x1xi32> loc(#loc287)
    %7 = stablehlo.compare  GE, %5, %6,  SIGNED : (tensor<1x32x1xi32>, tensor<1x32x1xi32>) -> tensor<1x32x1xi1> loc(#loc287)
    %8 = stablehlo.broadcast_in_dim %c_0, dims = [2] : (tensor<1xi32>) -> tensor<1x1x1xi32> loc(#loc286)
    %9 = stablehlo.broadcast_in_dim %8, dims = [0, 1, 2] : (tensor<1x1x1xi32>) -> tensor<1x32x1xi32> loc(#loc288)
    %10 = stablehlo.compare  LE, %5, %9,  SIGNED : (tensor<1x32x1xi32>, tensor<1x32x1xi32>) -> tensor<1x32x1xi1> loc(#loc288)
    %11 = stablehlo.and %7, %10 : tensor<1x32x1xi1> loc(#loc289)
    %12 = stablehlo.reduce(%11 init: %c) applies stablehlo.and across dimensions = [2] : (tensor<1x32x1xi1>, tensor<i1>) -> tensor<1x32xi1> loc(#loc290)
    %13 = "stablehlo.gather"(%arg0, %5) <{dimension_numbers = #stablehlo.gather<offset_dims = [2], collapsed_slice_dims = [0], start_index_map = [0], index_vector_dim = 2>, slice_sizes = array<i64: 1, 32>}> : (tensor<1124x32xf32>, tensor<1x32x1xi32>) -> tensor<1x32x32xf32> loc(#loc291)
    %14 = stablehlo.broadcast_in_dim %12, dims = [0, 1] : (tensor<1x32xi1>) -> tensor<1x32x32xi1> loc(#loc286)
    %15 = stablehlo.broadcast_in_dim %cst, dims = [] : (tensor<f32>) -> tensor<1x32x32xf32> loc(#loc286)
    %16 = stablehlo.select %14, %13, %15 : tensor<1x32x32xi1>, tensor<1x32x32xf32> loc(#loc292)
    return %16 : tensor<1x32x32xf32> loc(#loc230)
  } loc(#loc230)
  func.func private @_where(%arg0: tensor<1x32xi1> loc("jit(func)/jit(main)/jit(_take)/pjit"(#loc192)), %arg1: tensor<1x32xi32> loc("jit(func)/jit(main)/jit(_take)/pjit"(#loc192)), %arg2: tensor<1x32xi32> loc("jit(func)/jit(main)/jit(_take)/pjit"(#loc192))) -> tensor<1x32xi32> {
    %0 = stablehlo.select %arg0, %arg1, %arg2 : tensor<1x32xi1>, tensor<1x32xi32> loc(#loc293)
    return %0 : tensor<1x32xi32> loc(#loc285)
  } loc(#loc285)
  func.func private @_take_0(%arg0: tensor<16x32xf32> loc("jit(func)/jit(main)/pjit"(#loc192)), %arg1: tensor<1x32xi32> loc("jit(func)/jit(main)/pjit"(#loc192))) -> tensor<1x32x32xf32> {
    %cst = stablehlo.constant dense<0x7FC00000> : tensor<f32> loc(#loc)
    %c = stablehlo.constant dense<true> : tensor<i1> loc(#loc)
    %c_0 = stablehlo.constant dense<15> : tensor<1xi32> loc(#loc)
    %c_1 = stablehlo.constant dense<16> : tensor<i32> loc(#loc)
    %c_2 = stablehlo.constant dense<0> : tensor<i32> loc(#loc)
    %0 = stablehlo.broadcast_in_dim %c_2, dims = [] : (tensor<i32>) -> tensor<1x32xi32> loc(#loc283)
    %1 = stablehlo.compare  LT, %arg1, %0,  SIGNED : (tensor<1x32xi32>, tensor<1x32xi32>) -> tensor<1x32xi1> loc(#loc283)
    %2 = stablehlo.broadcast_in_dim %c_1, dims = [] : (tensor<i32>) -> tensor<1x32xi32> loc(#loc284)
    %3 = stablehlo.add %arg1, %2 : tensor<1x32xi32> loc(#loc284)
    %4 = call @_where(%1, %3, %arg1) : (tensor<1x32xi1>, tensor<1x32xi32>, tensor<1x32xi32>) -> tensor<1x32xi32> loc(#loc285)
    %5 = stablehlo.broadcast_in_dim %4, dims = [0, 1] : (tensor<1x32xi32>) -> tensor<1x32x1xi32> loc(#loc286)
    %6 = stablehlo.broadcast_in_dim %c_2, dims = [] : (tensor<i32>) -> tensor<1x32x1xi32> loc(#loc287)
    %7 = stablehlo.compare  GE, %5, %6,  SIGNED : (tensor<1x32x1xi32>, tensor<1x32x1xi32>) -> tensor<1x32x1xi1> loc(#loc287)
    %8 = stablehlo.broadcast_in_dim %c_0, dims = [2] : (tensor<1xi32>) -> tensor<1x1x1xi32> loc(#loc286)
    %9 = stablehlo.broadcast_in_dim %8, dims = [0, 1, 2] : (tensor<1x1x1xi32>) -> tensor<1x32x1xi32> loc(#loc288)
    %10 = stablehlo.compare  LE, %5, %9,  SIGNED : (tensor<1x32x1xi32>, tensor<1x32x1xi32>) -> tensor<1x32x1xi1> loc(#loc288)
    %11 = stablehlo.and %7, %10 : tensor<1x32x1xi1> loc(#loc289)
    %12 = stablehlo.reduce(%11 init: %c) applies stablehlo.and across dimensions = [2] : (tensor<1x32x1xi1>, tensor<i1>) -> tensor<1x32xi1> loc(#loc290)
    %13 = "stablehlo.gather"(%arg0, %5) <{dimension_numbers = #stablehlo.gather<offset_dims = [2], collapsed_slice_dims = [0], start_index_map = [0], index_vector_dim = 2>, slice_sizes = array<i64: 1, 32>}> : (tensor<16x32xf32>, tensor<1x32x1xi32>) -> tensor<1x32x32xf32> loc(#loc291)
    %14 = stablehlo.broadcast_in_dim %12, dims = [0, 1] : (tensor<1x32xi1>) -> tensor<1x32x32xi1> loc(#loc286)
    %15 = stablehlo.broadcast_in_dim %cst, dims = [] : (tensor<f32>) -> tensor<1x32x32xf32> loc(#loc286)
    %16 = stablehlo.select %14, %13, %15 : tensor<1x32x32xi1>, tensor<1x32x32xf32> loc(#loc292)
    return %16 : tensor<1x32x32xf32> loc(#loc230)
  } loc(#loc230)
  func.func private @_take_1(%arg0: tensor<512x32xf32> loc("jit(func)/jit(main)/pjit"(#loc192)), %arg1: tensor<1x32xi32> loc("jit(func)/jit(main)/pjit"(#loc192))) -> tensor<1x32x32xf32> {
    %cst = stablehlo.constant dense<0x7FC00000> : tensor<f32> loc(#loc)
    %c = stablehlo.constant dense<true> : tensor<i1> loc(#loc)
    %c_0 = stablehlo.constant dense<511> : tensor<1xi32> loc(#loc)
    %c_1 = stablehlo.constant dense<512> : tensor<i32> loc(#loc)
    %c_2 = stablehlo.constant dense<0> : tensor<i32> loc(#loc)
    %0 = stablehlo.broadcast_in_dim %c_2, dims = [] : (tensor<i32>) -> tensor<1x32xi32> loc(#loc283)
    %1 = stablehlo.compare  LT, %arg1, %0,  SIGNED : (tensor<1x32xi32>, tensor<1x32xi32>) -> tensor<1x32xi1> loc(#loc283)
    %2 = stablehlo.broadcast_in_dim %c_1, dims = [] : (tensor<i32>) -> tensor<1x32xi32> loc(#loc284)
    %3 = stablehlo.add %arg1, %2 : tensor<1x32xi32> loc(#loc284)
    %4 = call @_where(%1, %3, %arg1) : (tensor<1x32xi1>, tensor<1x32xi32>, tensor<1x32xi32>) -> tensor<1x32xi32> loc(#loc285)
    %5 = stablehlo.broadcast_in_dim %4, dims = [0, 1] : (tensor<1x32xi32>) -> tensor<1x32x1xi32> loc(#loc286)
    %6 = stablehlo.broadcast_in_dim %c_2, dims = [] : (tensor<i32>) -> tensor<1x32x1xi32> loc(#loc287)
    %7 = stablehlo.compare  GE, %5, %6,  SIGNED : (tensor<1x32x1xi32>, tensor<1x32x1xi32>) -> tensor<1x32x1xi1> loc(#loc287)
    %8 = stablehlo.broadcast_in_dim %c_0, dims = [2] : (tensor<1xi32>) -> tensor<1x1x1xi32> loc(#loc286)
    %9 = stablehlo.broadcast_in_dim %8, dims = [0, 1, 2] : (tensor<1x1x1xi32>) -> tensor<1x32x1xi32> loc(#loc288)
    %10 = stablehlo.compare  LE, %5, %9,  SIGNED : (tensor<1x32x1xi32>, tensor<1x32x1xi32>) -> tensor<1x32x1xi1> loc(#loc288)
    %11 = stablehlo.and %7, %10 : tensor<1x32x1xi1> loc(#loc289)
    %12 = stablehlo.reduce(%11 init: %c) applies stablehlo.and across dimensions = [2] : (tensor<1x32x1xi1>, tensor<i1>) -> tensor<1x32xi1> loc(#loc290)
    %13 = "stablehlo.gather"(%arg0, %5) <{dimension_numbers = #stablehlo.gather<offset_dims = [2], collapsed_slice_dims = [0], start_index_map = [0], index_vector_dim = 2>, slice_sizes = array<i64: 1, 32>}> : (tensor<512x32xf32>, tensor<1x32x1xi32>) -> tensor<1x32x32xf32> loc(#loc291)
    %14 = stablehlo.broadcast_in_dim %12, dims = [0, 1] : (tensor<1x32xi1>) -> tensor<1x32x32xi1> loc(#loc286)
    %15 = stablehlo.broadcast_in_dim %cst, dims = [] : (tensor<f32>) -> tensor<1x32x32xf32> loc(#loc286)
    %16 = stablehlo.select %14, %13, %15 : tensor<1x32x32xi1>, tensor<1x32x32xf32> loc(#loc292)
    return %16 : tensor<1x32x32xf32> loc(#loc230)
  } loc(#loc230)
  func.func private @_var(%arg0: tensor<1x32x32xf32> loc("jit(func)/jit(main)/pjit"(#loc195)), %arg1: tensor<i32> loc("jit(func)/jit(main)/pjit"(#loc195))) -> tensor<1x32x1xf32> {
    %cst = stablehlo.constant dense<0x7FC00000> : tensor<f32> loc(#loc)
    %cst_0 = stablehlo.constant dense<3.200000e+01> : tensor<f32> loc(#loc)
    %cst_1 = stablehlo.constant dense<0.000000e+00> : tensor<f32> loc(#loc)
    %0 = stablehlo.reduce(%arg0 init: %cst_1) applies stablehlo.add across dimensions = [2] : (tensor<1x32x32xf32>, tensor<f32>) -> tensor<1x32xf32> loc(#loc294)
    %1 = stablehlo.broadcast_in_dim %0, dims = [0, 1] : (tensor<1x32xf32>) -> tensor<1x32x1xf32> loc(#loc295)
    %2 = stablehlo.broadcast_in_dim %cst_0, dims = [] : (tensor<f32>) -> tensor<1x32x1xf32> loc(#loc296)
    %3 = stablehlo.divide %1, %2 : tensor<1x32x1xf32> loc(#loc296)
    %4 = stablehlo.broadcast_in_dim %3, dims = [0, 1, 2] : (tensor<1x32x1xf32>) -> tensor<1x32x32xf32> loc(#loc297)
    %5 = stablehlo.subtract %arg0, %4 : tensor<1x32x32xf32> loc(#loc297)
    %6 = stablehlo.multiply %5, %5 : tensor<1x32x32xf32> loc(#loc298)
    %7 = stablehlo.convert %arg1 : (tensor<i32>) -> tensor<f32> loc(#loc299)
    %8 = stablehlo.subtract %cst_0, %7 : tensor<f32> loc(#loc297)
    %9 = stablehlo.reduce(%6 init: %cst_1) applies stablehlo.add across dimensions = [2] : (tensor<1x32x32xf32>, tensor<f32>) -> tensor<1x32xf32> loc(#loc294)
    %10 = stablehlo.broadcast_in_dim %9, dims = [0, 1] : (tensor<1x32xf32>) -> tensor<1x32x1xf32> loc(#loc295)
    %11 = stablehlo.broadcast_in_dim %8, dims = [] : (tensor<f32>) -> tensor<1x32x1xf32> loc(#loc296)
    %12 = stablehlo.divide %10, %11 : tensor<1x32x1xf32> loc(#loc296)
    %13 = stablehlo.compare  GT, %8, %cst_1,  FLOAT : (tensor<f32>, tensor<f32>) -> tensor<i1> loc(#loc300)
    %14 = call @_where_2(%13, %12, %cst) : (tensor<i1>, tensor<1x32x1xf32>, tensor<f32>) -> tensor<1x32x1xf32> loc(#loc301)
    return %14 : tensor<1x32x1xf32> loc(#loc236)
  } loc(#loc236)
  func.func private @_where_2(%arg0: tensor<i1> loc("jit(func)/jit(main)/jit(_var)/pjit"(#loc195)), %arg1: tensor<1x32x1xf32> loc("jit(func)/jit(main)/jit(_var)/pjit"(#loc195)), %arg2: tensor<f32> loc("jit(func)/jit(main)/jit(_var)/pjit"(#loc195))) -> tensor<1x32x1xf32> {
    %0 = stablehlo.convert %arg2 : tensor<f32> loc(#loc302)
    %1 = stablehlo.broadcast_in_dim %0, dims = [] : (tensor<f32>) -> tensor<1x32x1xf32> loc(#loc303)
    %2 = stablehlo.select %arg0, %arg1, %1 : tensor<i1>, tensor<1x32x1xf32> loc(#loc304)
    return %2 : tensor<1x32x1xf32> loc(#loc301)
  } loc(#loc301)
  func.func private @_where_3(%arg0: tensor<1x1x32x32xi1> loc("jit(func)/jit(main)/pjit"(#loc210)), %arg1: tensor<f32> loc("jit(func)/jit(main)/pjit"(#loc210)), %arg2: tensor<f32> loc("jit(func)/jit(main)/pjit"(#loc210))) -> tensor<1x1x32x32xf32> {
    %0 = stablehlo.broadcast_in_dim %arg1, dims = [] : (tensor<f32>) -> tensor<1x1x32x32xf32> loc(#loc305)
    %1 = stablehlo.broadcast_in_dim %arg2, dims = [] : (tensor<f32>) -> tensor<1x1x32x32xf32> loc(#loc305)
    %2 = stablehlo.select %arg0, %0, %1 : tensor<1x1x32x32xi1>, tensor<1x1x32x32xf32> loc(#loc306)
    return %2 : tensor<1x1x32x32xf32> loc(#loc263)
  } loc(#loc263)
  func.func private @_where_4(%arg0: tensor<1x4x32x1xi1> loc("jit(func)/jit(main)/pjit"(#loc210)), %arg1: tensor<1x4x32x32xf32> loc("jit(func)/jit(main)/pjit"(#loc210)), %arg2: tensor<1x4x32x32xf32> loc("jit(func)/jit(main)/pjit"(#loc210))) -> tensor<1x4x32x32xf32> {
    %0 = stablehlo.broadcast_in_dim %arg0, dims = [0, 1, 2, 3] : (tensor<1x4x32x1xi1>) -> tensor<1x4x32x32xi1> loc(#loc305)
    %1 = stablehlo.select %0, %arg1, %arg2 : tensor<1x4x32x32xi1>, tensor<1x4x32x32xf32> loc(#loc306)
    return %1 : tensor<1x4x32x32xf32> loc(#loc263)
  } loc(#loc263)
} loc(#loc)