module @jit_func attributes {jax.uses_shape_polymorphism = false, mhlo.num_partitions = 1 : i32, mhlo.num_replicas = 1 : i32} {
  func.func public @main(%arg0: tensor<28996x2xf32> loc("states[0]"), %arg1: tensor<512x2xf32> loc("states[1]"), %arg2: tensor<2x2xf32> loc("states[2]"), %arg3: tensor<2xf32> loc("states[3]"), %arg4: tensor<2xf32> loc("states[4]"), %arg5: tensor<2x2xf32> loc("states[5]"), %arg6: tensor<2xf32> loc("states[6]"), %arg7: tensor<2x2xf32> loc("states[7]"), %arg8: tensor<2xf32> loc("states[8]"), %arg9: tensor<2x2xf32> loc("states[9]"), %arg10: tensor<2xf32> loc("states[10]"), %arg11: tensor<2x2xf32> loc("states[11]"), %arg12: tensor<2xf32> loc("states[12]"), %arg13: tensor<2xf32> loc("states[13]"), %arg14: tensor<2xf32> loc("states[14]"), %arg15: tensor<4x2xf32> loc("states[15]"), %arg16: tensor<4xf32> loc("states[16]"), %arg17: tensor<2x4xf32> loc("states[17]"), %arg18: tensor<2xf32> loc("states[18]"), %arg19: tensor<2xf32> loc("states[19]"), %arg20: tensor<2xf32> loc("states[20]"), %arg21: tensor<2x2xf32> loc("states[21]"), %arg22: tensor<2xf32> loc("states[22]"), %arg23: tensor<2x2xf32> loc("states[23]"), %arg24: tensor<2xf32> loc("states[24]"), %arg25: tensor<2x2xf32> loc("states[25]"), %arg26: tensor<2xf32> loc("states[26]"), %arg27: tensor<2x2xf32> loc("states[27]"), %arg28: tensor<2xf32> loc("states[28]"), %arg29: tensor<2xf32> loc("states[29]"), %arg30: tensor<2xf32> loc("states[30]"), %arg31: tensor<4x2xf32> loc("states[31]"), %arg32: tensor<4xf32> loc("states[32]"), %arg33: tensor<2x4xf32> loc("states[33]"), %arg34: tensor<2xf32> loc("states[34]"), %arg35: tensor<2xf32> loc("states[35]"), %arg36: tensor<2xf32> loc("states[36]"), %arg37: tensor<2x2xf32> loc("states[37]"), %arg38: tensor<2xf32> loc("states[38]"), %arg39: tensor<1x512xi32> loc("states[39]"), %arg40: tensor<1x512xi32> loc("states[40]"), %arg41: tensor<1x32xi32> loc("inputs[0][0]"), %arg42: tensor<1x32xi32> loc("inputs[0][1]")) -> (tensor<1x32x2xf32> {jax.result_info = "result[0]"}, tensor<1x2xf32> {jax.result_info = "result[1]"}) {
    %cst = stablehlo.constant dense<1.12837911> : tensor<1x32x4xf32> loc(#loc)
    %cst_0 = stablehlo.constant dense<-0.37612626> : tensor<1x32x4xf32> loc(#loc)
    %cst_1 = stablehlo.constant dense<0.112835854> : tensor<1x32x4xf32> loc(#loc)
    %cst_2 = stablehlo.constant dense<-0.0268538129> : tensor<1x32x4xf32> loc(#loc)
    %cst_3 = stablehlo.constant dense<0.00518832775> : tensor<1x32x4xf32> loc(#loc)
    %cst_4 = stablehlo.constant dense<-8.0101937E-4> : tensor<1x32x4xf32> loc(#loc)
    %cst_5 = stablehlo.constant dense<7.85386146E-5> : tensor<1x32x4xf32> loc(#loc)
    %cst_6 = stablehlo.constant dense<0.000000e+00> : tensor<1x32x4xf32> loc(#loc)
    %cst_7 = stablehlo.constant dense<-88.7228394> : tensor<1x32x4xf32> loc(#loc)
    %cst_8 = stablehlo.constant dense<0.564189494> : tensor<1x32x4xf32> loc(#loc)
    %cst_9 = stablehlo.constant dense<-0.282076746> : tensor<1x32x4xf32> loc(#loc)
    %cst_10 = stablehlo.constant dense<0.42184633> : tensor<1x32x4xf32> loc(#loc)
    %cst_11 = stablehlo.constant dense<-1.01526523> : tensor<1x32x4xf32> loc(#loc)
    %cst_12 = stablehlo.constant dense<2.92101908> : tensor<1x32x4xf32> loc(#loc)
    %cst_13 = stablehlo.constant dense<-7.49551868> : tensor<1x32x4xf32> loc(#loc)
    %cst_14 = stablehlo.constant dense<1.297720e+01> : tensor<1x32x4xf32> loc(#loc)
    %cst_15 = stablehlo.constant dense<-10.477664> : tensor<1x32x4xf32> loc(#loc)
    %cst_16 = stablehlo.constant dense<0.563825965> : tensor<1x32x4xf32> loc(#loc)
    %cst_17 = stablehlo.constant dense<-0.274112701> : tensor<1x32x4xf32> loc(#loc)
    %cst_18 = stablehlo.constant dense<3.404880e-01> : tensor<1x32x4xf32> loc(#loc)
    %cst_19 = stablehlo.constant dense<-0.494451523> : tensor<1x32x4xf32> loc(#loc)
    %cst_20 = stablehlo.constant dense<0.621000468> : tensor<1x32x4xf32> loc(#loc)
    %cst_21 = stablehlo.constant dense<-0.582473278> : tensor<1x32x4xf32> loc(#loc)
    %cst_22 = stablehlo.constant dense<0.368742466> : tensor<1x32x4xf32> loc(#loc)
    %cst_23 = stablehlo.constant dense<-0.138703942> : tensor<1x32x4xf32> loc(#loc)
    %cst_24 = stablehlo.constant dense<2.326820e-02> : tensor<1x32x4xf32> loc(#loc)
    %cst_25 = stablehlo.constant dense<2.000000e+00> : tensor<1x32x4xf32> loc(#loc)
    %cst_26 = stablehlo.constant dense<1.000000e+00> : tensor<1x32x4xf32> loc(#loc)
    %cst_27 = stablehlo.constant dense<0.707106769> : tensor<f32> loc(#loc)
    %cst_28 = stablehlo.constant dense<5.000000e-01> : tensor<f32> loc(#loc)
    %c = stablehlo.constant dense<false> : tensor<i1> loc(#loc)
    %cst_29 = stablehlo.constant dense<0xFF800000> : tensor<f32> loc(#loc)
    %c_30 = stablehlo.constant dense<32> : tensor<i32> loc(#loc)
    %c_31 = stablehlo.constant dense<true> : tensor<i1> loc(#loc)
    %cst_32 = stablehlo.constant dense<9.99999996E-13> : tensor<f32> loc(#loc)
    %cst_33 = stablehlo.constant dense<2.000000e+00> : tensor<f32> loc(#loc)
    %cst_34 = stablehlo.constant dense<0.000000e+00> : tensor<f32> loc(#loc)
    %cst_35 = stablehlo.constant dense<1.000000e+00> : tensor<f32> loc(#loc)
    %c_36 = stablehlo.constant dense<512> : tensor<i32> loc(#loc)
    %c_37 = stablehlo.constant dense<1> : tensor<i32> loc(#loc)
    %c_38 = stablehlo.constant dense<0> : tensor<i32> loc(#loc)
    %0 = stablehlo.slice %arg39 [0:1, 0:32] : (tensor<1x512xi32>) -> tensor<1x32xi32> loc(#loc173)
    %1 = stablehlo.iota dim = 0 : tensor<1xi32> loc(#loc259)
    %2 = stablehlo.reshape %1 : (tensor<1xi32>) -> tensor<1x1xi32> loc(#loc260)
    %3 = stablehlo.broadcast_in_dim %2, dims = [0, 1] : (tensor<1x1xi32>) -> tensor<1x32xi32> loc(#loc261)
    %4 = stablehlo.broadcast_in_dim %c_38, dims = [] : (tensor<i32>) -> tensor<1x32xi32> loc(#loc176)
    %5 = stablehlo.compare  LT, %3, %4,  SIGNED : (tensor<1x32xi32>, tensor<1x32xi32>) -> tensor<1x32xi1> loc(#loc176)
    %6 = stablehlo.broadcast_in_dim %c_37, dims = [] : (tensor<i32>) -> tensor<1x32xi32> loc(#loc177)
    %7 = stablehlo.add %3, %6 : tensor<1x32xi32> loc(#loc177)
    %8 = stablehlo.select %5, %7, %3 : tensor<1x32xi1>, tensor<1x32xi32> loc(#loc178)
    %9 = stablehlo.broadcast_in_dim %c_38, dims = [] : (tensor<i32>) -> tensor<1x32xi32> loc(#loc176)
    %10 = stablehlo.compare  LT, %0, %9,  SIGNED : (tensor<1x32xi32>, tensor<1x32xi32>) -> tensor<1x32xi1> loc(#loc176)
    %11 = stablehlo.broadcast_in_dim %c_36, dims = [] : (tensor<i32>) -> tensor<1x32xi32> loc(#loc177)
    %12 = stablehlo.add %0, %11 : tensor<1x32xi32> loc(#loc177)
    %13 = stablehlo.select %10, %12, %0 : tensor<1x32xi1>, tensor<1x32xi32> loc(#loc178)
    %14 = stablehlo.broadcast_in_dim %8, dims = [0, 1] : (tensor<1x32xi32>) -> tensor<1x32x1xi32> loc(#loc179)
    %15 = stablehlo.broadcast_in_dim %13, dims = [0, 1] : (tensor<1x32xi32>) -> tensor<1x32x1xi32> loc(#loc179)
    %16 = stablehlo.concatenate %14, %15, dim = 2 : (tensor<1x32x1xi32>, tensor<1x32x1xi32>) -> tensor<1x32x2xi32> loc(#loc180)
    %17 = "stablehlo.gather"(%arg40, %16) <{dimension_numbers = #stablehlo.gather<collapsed_slice_dims = [0, 1], start_index_map = [0, 1], index_vector_dim = 2>, slice_sizes = array<i64: 1, 1>}> : (tensor<1x512xi32>, tensor<1x32x2xi32>) -> tensor<1x32xi32> loc(#loc181)
    %18 = call @_take(%arg0, %arg41) : (tensor<28996x2xf32>, tensor<1x32xi32>) -> tensor<1x32x2xf32> loc(#loc182)
    %19 = call @_take_0(%arg2, %17) : (tensor<2x2xf32>, tensor<1x32xi32>) -> tensor<1x32x2xf32> loc(#loc182)
    %20 = stablehlo.broadcast_in_dim %cst_35, dims = [] : (tensor<f32>) -> tensor<1x32x2xf32> loc(#loc183)
    %21 = stablehlo.multiply %19, %20 : tensor<1x32x2xf32> loc(#loc183)
    %22 = stablehlo.add %18, %21 : tensor<1x32x2xf32> loc(#loc184)
    %23 = call @_take_1(%arg1, %0) : (tensor<512x2xf32>, tensor<1x32xi32>) -> tensor<1x32x2xf32> loc(#loc182)
    %24 = stablehlo.broadcast_in_dim %cst_35, dims = [] : (tensor<f32>) -> tensor<1x32x2xf32> loc(#loc183)
    %25 = stablehlo.multiply %23, %24 : tensor<1x32x2xf32> loc(#loc183)
    %26 = stablehlo.add %22, %25 : tensor<1x32x2xf32> loc(#loc184)
    %27 = stablehlo.reduce(%26 init: %cst_34) applies stablehlo.add across dimensions = [2] : (tensor<1x32x2xf32>, tensor<f32>) -> tensor<1x32xf32> loc(#loc185)
    %28 = stablehlo.broadcast_in_dim %27, dims = [0, 1] : (tensor<1x32xf32>) -> tensor<1x32x1xf32> loc(#loc186)
    %29 = stablehlo.broadcast_in_dim %cst_33, dims = [] : (tensor<f32>) -> tensor<1x32x1xf32> loc(#loc187)
    %30 = stablehlo.divide %28, %29 : tensor<1x32x1xf32> loc(#loc187)
    %31 = call @_var(%26, %c_38) : (tensor<1x32x2xf32>, tensor<i32>) -> tensor<1x32x1xf32> loc(#loc188)
    %32 = stablehlo.broadcast_in_dim %cst_32, dims = [] : (tensor<f32>) -> tensor<1x32x1xf32> loc(#loc189)
    %33 = stablehlo.add %31, %32 : tensor<1x32x1xf32> loc(#loc189)
    %34 = stablehlo.rsqrt %33 : tensor<1x32x1xf32> loc(#loc190)
    %35 = stablehlo.broadcast_in_dim %30, dims = [0, 1, 2] : (tensor<1x32x1xf32>) -> tensor<1x32x2xf32> loc(#loc191)
    %36 = stablehlo.subtract %26, %35 : tensor<1x32x2xf32> loc(#loc191)
    %37 = stablehlo.broadcast_in_dim %34, dims = [0, 1, 2] : (tensor<1x32x1xf32>) -> tensor<1x32x2xf32> loc(#loc192)
    %38 = stablehlo.multiply %36, %37 : tensor<1x32x2xf32> loc(#loc192)
    %39 = stablehlo.broadcast_in_dim %arg3, dims = [2] : (tensor<2xf32>) -> tensor<1x1x2xf32> loc(#loc193)
    %40 = stablehlo.broadcast_in_dim %39, dims = [0, 1, 2] : (tensor<1x1x2xf32>) -> tensor<1x32x2xf32> loc(#loc194)
    %41 = stablehlo.multiply %38, %40 : tensor<1x32x2xf32> loc(#loc194)
    %42 = stablehlo.broadcast_in_dim %arg4, dims = [2] : (tensor<2xf32>) -> tensor<1x1x2xf32> loc(#loc195)
    %43 = stablehlo.broadcast_in_dim %42, dims = [0, 1, 2] : (tensor<1x1x2xf32>) -> tensor<1x32x2xf32> loc(#loc196)
    %44 = stablehlo.add %41, %43 : tensor<1x32x2xf32> loc(#loc196)
    %45 = stablehlo.broadcast_in_dim %c_38, dims = [] : (tensor<i32>) -> tensor<1x32xi32> loc(#loc197)
    %46 = stablehlo.compare  NE, %arg42, %45,  SIGNED : (tensor<1x32xi32>, tensor<1x32xi32>) -> tensor<1x32xi1> loc(#loc197)
    %47 = stablehlo.convert %46 : tensor<1x32xi1> loc(#loc197)
    %48 = stablehlo.iota dim = 0 : tensor<1xi32> loc(#loc262)
    %49 = stablehlo.iota dim = 0 : tensor<32xi32> loc(#loc262)
    %50 = stablehlo.broadcast_in_dim %c_38, dims = [] : (tensor<i32>) -> tensor<32xi32> loc(#loc184)
    %51 = stablehlo.add %49, %50 : tensor<32xi32> loc(#loc184)
    %52 = stablehlo.iota dim = 0 : tensor<32xi32> loc(#loc262)
    %53 = stablehlo.broadcast_in_dim %c_38, dims = [] : (tensor<i32>) -> tensor<32xi32> loc(#loc184)
    %54 = stablehlo.add %52, %53 : tensor<32xi32> loc(#loc184)
    %55 = stablehlo.broadcast_in_dim %48, dims = [0] : (tensor<1xi32>) -> tensor<1x1xi32> loc(#loc199)
    %56 = stablehlo.broadcast_in_dim %55, dims = [0, 1] : (tensor<1x1xi32>) -> tensor<1x1x1xi32> loc(#loc199)
    %57 = stablehlo.broadcast_in_dim %56, dims = [0, 1, 2] : (tensor<1x1x1xi32>) -> tensor<1x1x1x1xi32> loc(#loc199)
    %58 = stablehlo.broadcast_in_dim %51, dims = [1] : (tensor<32xi32>) -> tensor<1x32xi32> loc(#loc199)
    %59 = stablehlo.broadcast_in_dim %58, dims = [0, 2] : (tensor<1x32xi32>) -> tensor<1x1x32xi32> loc(#loc199)
    %60 = stablehlo.broadcast_in_dim %59, dims = [0, 1, 2] : (tensor<1x1x32xi32>) -> tensor<1x1x32x1xi32> loc(#loc199)
    %61 = stablehlo.broadcast_in_dim %54, dims = [1] : (tensor<32xi32>) -> tensor<1x32xi32> loc(#loc199)
    %62 = stablehlo.broadcast_in_dim %61, dims = [0, 2] : (tensor<1x32xi32>) -> tensor<1x1x32xi32> loc(#loc199)
    %63 = stablehlo.broadcast_in_dim %62, dims = [0, 1, 3] : (tensor<1x1x32xi32>) -> tensor<1x1x1x32xi32> loc(#loc199)
    %64 = stablehlo.broadcast_in_dim %c_38, dims = [] : (tensor<i32>) -> tensor<1x1x32x1xi32> loc(#loc200)
    %65 = stablehlo.compare  GE, %60, %64,  SIGNED : (tensor<1x1x32x1xi32>, tensor<1x1x32x1xi32>) -> tensor<1x1x32x1xi1> loc(#loc200)
    %66 = stablehlo.broadcast_in_dim %c_31, dims = [] : (tensor<i1>) -> tensor<1x1x32x1xi1> loc(#loc201)
    %67 = stablehlo.and %66, %65 : tensor<1x1x32x1xi1> loc(#loc201)
    %68 = stablehlo.broadcast_in_dim %c_38, dims = [] : (tensor<i32>) -> tensor<1x1x1x1xi32> loc(#loc202)
    %69 = stablehlo.compare  LT, %57, %68,  SIGNED : (tensor<1x1x1x1xi32>, tensor<1x1x1x1xi32>) -> tensor<1x1x1x1xi1> loc(#loc202)
    %70 = stablehlo.broadcast_in_dim %c_37, dims = [] : (tensor<i32>) -> tensor<1x1x1x1xi32> loc(#loc203)
    %71 = stablehlo.add %57, %70 : tensor<1x1x1x1xi32> loc(#loc203)
    %72 = stablehlo.select %69, %71, %57 : tensor<1x1x1x1xi1>, tensor<1x1x1x1xi32> loc(#loc204)
    %73 = stablehlo.broadcast_in_dim %c_38, dims = [] : (tensor<i32>) -> tensor<1x1x1x32xi32> loc(#loc202)
    %74 = stablehlo.compare  LT, %63, %73,  SIGNED : (tensor<1x1x1x32xi32>, tensor<1x1x1x32xi32>) -> tensor<1x1x1x32xi1> loc(#loc202)
    %75 = stablehlo.broadcast_in_dim %c_30, dims = [] : (tensor<i32>) -> tensor<1x1x1x32xi32> loc(#loc203)
    %76 = stablehlo.add %63, %75 : tensor<1x1x1x32xi32> loc(#loc203)
    %77 = stablehlo.select %74, %76, %63 : tensor<1x1x1x32xi1>, tensor<1x1x1x32xi32> loc(#loc204)
    %78 = stablehlo.broadcast_in_dim %72, dims = [0, 1, 2, 3] : (tensor<1x1x1x1xi32>) -> tensor<1x1x1x32xi32> loc(#loc205)
    %79 = stablehlo.broadcast_in_dim %78, dims = [0, 1, 2, 3] : (tensor<1x1x1x32xi32>) -> tensor<1x1x1x32x1xi32> loc(#loc205)
    %80 = stablehlo.broadcast_in_dim %77, dims = [0, 1, 2, 3] : (tensor<1x1x1x32xi32>) -> tensor<1x1x1x32x1xi32> loc(#loc205)
    %81 = stablehlo.concatenate %79, %80, dim = 4 : (tensor<1x1x1x32x1xi32>, tensor<1x1x1x32x1xi32>) -> tensor<1x1x1x32x2xi32> loc(#loc206)
    %82 = "stablehlo.gather"(%47, %81) <{dimension_numbers = #stablehlo.gather<collapsed_slice_dims = [0, 1], start_index_map = [0, 1], index_vector_dim = 4>, slice_sizes = array<i64: 1, 1>}> : (tensor<1x32xi1>, tensor<1x1x1x32x2xi32>) -> tensor<1x1x1x32xi1> loc(#loc207)
    %83 = stablehlo.broadcast_in_dim %67, dims = [0, 1, 2, 3] : (tensor<1x1x32x1xi1>) -> tensor<1x1x32x32xi1> loc(#loc201)
    %84 = stablehlo.broadcast_in_dim %82, dims = [0, 1, 2, 3] : (tensor<1x1x1x32xi1>) -> tensor<1x1x32x32xi1> loc(#loc201)
    %85 = stablehlo.and %83, %84 : tensor<1x1x32x32xi1> loc(#loc201)
    %86 = stablehlo.reshape %44 : (tensor<1x32x2xf32>) -> tensor<32x2xf32> loc(#loc208)
    %87 = stablehlo.transpose %arg5, dims = [1, 0] : (tensor<2x2xf32>) -> tensor<2x2xf32> loc(#loc209)
    %88 = stablehlo.broadcast_in_dim %cst_35, dims = [] : (tensor<f32>) -> tensor<2xf32> loc(#loc210)
    %89 = stablehlo.multiply %arg6, %88 : tensor<2xf32> loc(#loc210)
    %90 = stablehlo.dot_general %86, %87, contracting_dims = [1] x [0] : (tensor<32x2xf32>, tensor<2x2xf32>) -> tensor<32x2xf32> loc(#loc211)
    %91 = stablehlo.broadcast_in_dim %cst_35, dims = [] : (tensor<f32>) -> tensor<32x2xf32> loc(#loc212)
    %92 = stablehlo.multiply %91, %90 : tensor<32x2xf32> loc(#loc212)
    %93 = stablehlo.broadcast_in_dim %89, dims = [1] : (tensor<2xf32>) -> tensor<1x2xf32> loc(#loc213)
    %94 = stablehlo.broadcast_in_dim %93, dims = [0, 1] : (tensor<1x2xf32>) -> tensor<32x2xf32> loc(#loc214)
    %95 = stablehlo.add %94, %92 : tensor<32x2xf32> loc(#loc214)
    %96 = stablehlo.reshape %95 : (tensor<32x2xf32>) -> tensor<1x32x2xf32> loc(#loc208)
    %97 = stablehlo.reshape %96 : (tensor<1x32x2xf32>) -> tensor<1x32x2x1xf32> loc(#loc208)
    %98 = stablehlo.transpose %97, dims = [0, 2, 1, 3] : (tensor<1x32x2x1xf32>) -> tensor<1x2x32x1xf32> loc(#loc209)
    %99 = stablehlo.reshape %44 : (tensor<1x32x2xf32>) -> tensor<32x2xf32> loc(#loc208)
    %100 = stablehlo.transpose %arg7, dims = [1, 0] : (tensor<2x2xf32>) -> tensor<2x2xf32> loc(#loc209)
    %101 = stablehlo.broadcast_in_dim %cst_35, dims = [] : (tensor<f32>) -> tensor<2xf32> loc(#loc210)
    %102 = stablehlo.multiply %arg8, %101 : tensor<2xf32> loc(#loc210)
    %103 = stablehlo.dot_general %99, %100, contracting_dims = [1] x [0] : (tensor<32x2xf32>, tensor<2x2xf32>) -> tensor<32x2xf32> loc(#loc211)
    %104 = stablehlo.broadcast_in_dim %cst_35, dims = [] : (tensor<f32>) -> tensor<32x2xf32> loc(#loc212)
    %105 = stablehlo.multiply %104, %103 : tensor<32x2xf32> loc(#loc212)
    %106 = stablehlo.broadcast_in_dim %102, dims = [1] : (tensor<2xf32>) -> tensor<1x2xf32> loc(#loc213)
    %107 = stablehlo.broadcast_in_dim %106, dims = [0, 1] : (tensor<1x2xf32>) -> tensor<32x2xf32> loc(#loc214)
    %108 = stablehlo.add %107, %105 : tensor<32x2xf32> loc(#loc214)
    %109 = stablehlo.reshape %108 : (tensor<32x2xf32>) -> tensor<1x32x2xf32> loc(#loc208)
    %110 = stablehlo.reshape %109 : (tensor<1x32x2xf32>) -> tensor<1x32x2x1xf32> loc(#loc208)
    %111 = stablehlo.transpose %110, dims = [0, 2, 1, 3] : (tensor<1x32x2x1xf32>) -> tensor<1x2x32x1xf32> loc(#loc209)
    %112 = stablehlo.reshape %44 : (tensor<1x32x2xf32>) -> tensor<32x2xf32> loc(#loc208)
    %113 = stablehlo.transpose %arg9, dims = [1, 0] : (tensor<2x2xf32>) -> tensor<2x2xf32> loc(#loc209)
    %114 = stablehlo.broadcast_in_dim %cst_35, dims = [] : (tensor<f32>) -> tensor<2xf32> loc(#loc210)
    %115 = stablehlo.multiply %arg10, %114 : tensor<2xf32> loc(#loc210)
    %116 = stablehlo.dot_general %112, %113, contracting_dims = [1] x [0] : (tensor<32x2xf32>, tensor<2x2xf32>) -> tensor<32x2xf32> loc(#loc211)
    %117 = stablehlo.broadcast_in_dim %cst_35, dims = [] : (tensor<f32>) -> tensor<32x2xf32> loc(#loc212)
    %118 = stablehlo.multiply %117, %116 : tensor<32x2xf32> loc(#loc212)
    %119 = stablehlo.broadcast_in_dim %115, dims = [1] : (tensor<2xf32>) -> tensor<1x2xf32> loc(#loc213)
    %120 = stablehlo.broadcast_in_dim %119, dims = [0, 1] : (tensor<1x2xf32>) -> tensor<32x2xf32> loc(#loc214)
    %121 = stablehlo.add %120, %118 : tensor<32x2xf32> loc(#loc214)
    %122 = stablehlo.reshape %121 : (tensor<32x2xf32>) -> tensor<1x32x2xf32> loc(#loc208)
    %123 = stablehlo.reshape %122 : (tensor<1x32x2xf32>) -> tensor<1x32x2x1xf32> loc(#loc208)
    %124 = stablehlo.transpose %123, dims = [0, 2, 1, 3] : (tensor<1x32x2x1xf32>) -> tensor<1x2x32x1xf32> loc(#loc209)
    %125 = call @_where_3(%85, %cst_34, %cst_29) : (tensor<1x1x32x32xi1>, tensor<f32>, tensor<f32>) -> tensor<1x1x32x32xf32> loc(#loc215)
    %126 = stablehlo.broadcast_in_dim %cst_35, dims = [] : (tensor<f32>) -> tensor<1x2x32x1xf32> loc(#loc216)
    %127 = stablehlo.multiply %98, %126 : tensor<1x2x32x1xf32> loc(#loc216)
    %128 = stablehlo.transpose %111, dims = [0, 1, 3, 2] : (tensor<1x2x32x1xf32>) -> tensor<1x2x1x32xf32> loc(#loc209)
    %129 = stablehlo.broadcast_in_dim %cst_35, dims = [] : (tensor<f32>) -> tensor<1x2x1x32xf32> loc(#loc216)
    %130 = stablehlo.multiply %128, %129 : tensor<1x2x1x32xf32> loc(#loc216)
    %131 = stablehlo.reshape %127 : (tensor<1x2x32x1xf32>) -> tensor<2x32x1xf32> loc(#loc208)
    %132 = stablehlo.reshape %130 : (tensor<1x2x1x32xf32>) -> tensor<2x1x32xf32> loc(#loc208)
    %133 = stablehlo.dot_general %131, %132, batching_dims = [0] x [0], contracting_dims = [2] x [1] : (tensor<2x32x1xf32>, tensor<2x1x32xf32>) -> tensor<2x32x32xf32> loc(#loc217)
    %134 = stablehlo.reshape %133 : (tensor<2x32x32xf32>) -> tensor<1x2x32x32xf32> loc(#loc208)
    %135 = stablehlo.broadcast_in_dim %cst_35, dims = [] : (tensor<f32>) -> tensor<1x1x32x32xf32> loc(#loc183)
    %136 = stablehlo.multiply %125, %135 : tensor<1x1x32x32xf32> loc(#loc183)
    %137 = stablehlo.broadcast_in_dim %136, dims = [0, 1, 2, 3] : (tensor<1x1x32x32xf32>) -> tensor<1x2x32x32xf32> loc(#loc184)
    %138 = stablehlo.add %134, %137 : tensor<1x2x32x32xf32> loc(#loc184)
    %139 = stablehlo.reduce(%138 init: %cst_29) applies stablehlo.maximum across dimensions = [3] : (tensor<1x2x32x32xf32>, tensor<f32>) -> tensor<1x2x32xf32> loc(#loc218)
    %140 = stablehlo.broadcast_in_dim %cst_29, dims = [] : (tensor<f32>) -> tensor<1x2x32xf32> loc(#loc219)
    %141 = stablehlo.maximum %140, %139 : tensor<1x2x32xf32> loc(#loc219)
    %142 = stablehlo.broadcast_in_dim %141, dims = [0, 1, 2] : (tensor<1x2x32xf32>) -> tensor<1x2x32x1xf32> loc(#loc220)
    %143 = stablehlo.broadcast_in_dim %142, dims = [0, 1, 2, 3] : (tensor<1x2x32x1xf32>) -> tensor<1x2x32x32xf32> loc(#loc221)
    %144 = stablehlo.subtract %138, %143 : tensor<1x2x32x32xf32> loc(#loc221)
    %145 = stablehlo.exponential %144 : tensor<1x2x32x32xf32> loc(#loc222)
    %146 = stablehlo.reduce(%145 init: %cst_34) applies stablehlo.add across dimensions = [3] : (tensor<1x2x32x32xf32>, tensor<f32>) -> tensor<1x2x32xf32> loc(#loc223)
    %147 = stablehlo.broadcast_in_dim %146, dims = [0, 1, 2] : (tensor<1x2x32xf32>) -> tensor<1x2x32x1xf32> loc(#loc220)
    %148 = stablehlo.broadcast_in_dim %147, dims = [0, 1, 2, 3] : (tensor<1x2x32x1xf32>) -> tensor<1x2x32x32xf32> loc(#loc224)
    %149 = stablehlo.divide %145, %148 : tensor<1x2x32x32xf32> loc(#loc224)
    %150 = stablehlo.broadcast_in_dim %cst_29, dims = [] : (tensor<f32>) -> tensor<1x2x32x32xf32> loc(#loc225)
    %151 = stablehlo.compare  EQ, %138, %150,  FLOAT : (tensor<1x2x32x32xf32>, tensor<1x2x32x32xf32>) -> tensor<1x2x32x32xi1> loc(#loc225)
    %152 = stablehlo.not %151 : tensor<1x2x32x32xi1> loc(#loc226)
    %153 = stablehlo.reduce(%152 init: %c) applies stablehlo.or across dimensions = [3] : (tensor<1x2x32x32xi1>, tensor<i1>) -> tensor<1x2x32xi1> loc(#loc263)
    %154 = stablehlo.broadcast_in_dim %153, dims = [0, 1, 2] : (tensor<1x2x32xi1>) -> tensor<1x2x32x1xi1> loc(#loc264)
    %155 = stablehlo.not %154 : tensor<1x2x32x1xi1> loc(#loc226)
    %156 = stablehlo.broadcast_in_dim %cst_34, dims = [] : (tensor<f32>) -> tensor<1x2x32x32xf32> loc(#loc228)
    %157 = call @_where_4(%155, %156, %149) : (tensor<1x2x32x1xi1>, tensor<1x2x32x32xf32>, tensor<1x2x32x32xf32>) -> tensor<1x2x32x32xf32> loc(#loc215)
    %158 = stablehlo.reshape %157 : (tensor<1x2x32x32xf32>) -> tensor<2x32x32xf32> loc(#loc208)
    %159 = stablehlo.reshape %124 : (tensor<1x2x32x1xf32>) -> tensor<2x32x1xf32> loc(#loc208)
    %160 = stablehlo.dot_general %158, %159, batching_dims = [0] x [0], contracting_dims = [2] x [1] : (tensor<2x32x32xf32>, tensor<2x32x1xf32>) -> tensor<2x32x1xf32> loc(#loc217)
    %161 = stablehlo.reshape %160 : (tensor<2x32x1xf32>) -> tensor<1x2x32x1xf32> loc(#loc208)
    %162 = stablehlo.transpose %161, dims = [2, 0, 1, 3] : (tensor<1x2x32x1xf32>) -> tensor<32x1x2x1xf32> loc(#loc209)
    %163 = stablehlo.transpose %162, dims = [1, 2, 0, 3] : (tensor<32x1x2x1xf32>) -> tensor<1x2x32x1xf32> loc(#loc209)
    %164 = stablehlo.transpose %163, dims = [0, 2, 1, 3] : (tensor<1x2x32x1xf32>) -> tensor<1x32x2x1xf32> loc(#loc209)
    %165 = stablehlo.reshape %164 : (tensor<1x32x2x1xf32>) -> tensor<1x32x2xf32> loc(#loc208)
    %166 = stablehlo.reshape %165 : (tensor<1x32x2xf32>) -> tensor<32x2xf32> loc(#loc208)
    %167 = stablehlo.transpose %arg11, dims = [1, 0] : (tensor<2x2xf32>) -> tensor<2x2xf32> loc(#loc209)
    %168 = stablehlo.broadcast_in_dim %cst_35, dims = [] : (tensor<f32>) -> tensor<2xf32> loc(#loc210)
    %169 = stablehlo.multiply %arg12, %168 : tensor<2xf32> loc(#loc210)
    %170 = stablehlo.dot_general %166, %167, contracting_dims = [1] x [0] : (tensor<32x2xf32>, tensor<2x2xf32>) -> tensor<32x2xf32> loc(#loc211)
    %171 = stablehlo.broadcast_in_dim %cst_35, dims = [] : (tensor<f32>) -> tensor<32x2xf32> loc(#loc212)
    %172 = stablehlo.multiply %171, %170 : tensor<32x2xf32> loc(#loc212)
    %173 = stablehlo.broadcast_in_dim %169, dims = [1] : (tensor<2xf32>) -> tensor<1x2xf32> loc(#loc213)
    %174 = stablehlo.broadcast_in_dim %173, dims = [0, 1] : (tensor<1x2xf32>) -> tensor<32x2xf32> loc(#loc214)
    %175 = stablehlo.add %174, %172 : tensor<32x2xf32> loc(#loc214)
    %176 = stablehlo.reshape %175 : (tensor<32x2xf32>) -> tensor<1x32x2xf32> loc(#loc208)
    %177 = stablehlo.broadcast_in_dim %cst_35, dims = [] : (tensor<f32>) -> tensor<1x32x2xf32> loc(#loc183)
    %178 = stablehlo.multiply %44, %177 : tensor<1x32x2xf32> loc(#loc183)
    %179 = stablehlo.add %176, %178 : tensor<1x32x2xf32> loc(#loc184)
    %180 = stablehlo.reduce(%179 init: %cst_34) applies stablehlo.add across dimensions = [2] : (tensor<1x32x2xf32>, tensor<f32>) -> tensor<1x32xf32> loc(#loc185)
    %181 = stablehlo.broadcast_in_dim %180, dims = [0, 1] : (tensor<1x32xf32>) -> tensor<1x32x1xf32> loc(#loc186)
    %182 = stablehlo.broadcast_in_dim %cst_33, dims = [] : (tensor<f32>) -> tensor<1x32x1xf32> loc(#loc187)
    %183 = stablehlo.divide %181, %182 : tensor<1x32x1xf32> loc(#loc187)
    %184 = call @_var(%179, %c_38) : (tensor<1x32x2xf32>, tensor<i32>) -> tensor<1x32x1xf32> loc(#loc188)
    %185 = stablehlo.broadcast_in_dim %cst_32, dims = [] : (tensor<f32>) -> tensor<1x32x1xf32> loc(#loc189)
    %186 = stablehlo.add %184, %185 : tensor<1x32x1xf32> loc(#loc189)
    %187 = stablehlo.rsqrt %186 : tensor<1x32x1xf32> loc(#loc190)
    %188 = stablehlo.broadcast_in_dim %183, dims = [0, 1, 2] : (tensor<1x32x1xf32>) -> tensor<1x32x2xf32> loc(#loc191)
    %189 = stablehlo.subtract %179, %188 : tensor<1x32x2xf32> loc(#loc191)
    %190 = stablehlo.broadcast_in_dim %187, dims = [0, 1, 2] : (tensor<1x32x1xf32>) -> tensor<1x32x2xf32> loc(#loc192)
    %191 = stablehlo.multiply %189, %190 : tensor<1x32x2xf32> loc(#loc192)
    %192 = stablehlo.broadcast_in_dim %arg13, dims = [2] : (tensor<2xf32>) -> tensor<1x1x2xf32> loc(#loc193)
    %193 = stablehlo.broadcast_in_dim %192, dims = [0, 1, 2] : (tensor<1x1x2xf32>) -> tensor<1x32x2xf32> loc(#loc194)
    %194 = stablehlo.multiply %191, %193 : tensor<1x32x2xf32> loc(#loc194)
    %195 = stablehlo.broadcast_in_dim %arg14, dims = [2] : (tensor<2xf32>) -> tensor<1x1x2xf32> loc(#loc195)
    %196 = stablehlo.broadcast_in_dim %195, dims = [0, 1, 2] : (tensor<1x1x2xf32>) -> tensor<1x32x2xf32> loc(#loc196)
    %197 = stablehlo.add %194, %196 : tensor<1x32x2xf32> loc(#loc196)
    %198 = stablehlo.reshape %197 : (tensor<1x32x2xf32>) -> tensor<32x2xf32> loc(#loc208)
    %199 = stablehlo.transpose %arg15, dims = [1, 0] : (tensor<4x2xf32>) -> tensor<2x4xf32> loc(#loc209)
    %200 = stablehlo.broadcast_in_dim %cst_35, dims = [] : (tensor<f32>) -> tensor<4xf32> loc(#loc210)
    %201 = stablehlo.multiply %arg16, %200 : tensor<4xf32> loc(#loc210)
    %202 = stablehlo.dot_general %198, %199, contracting_dims = [1] x [0] : (tensor<32x2xf32>, tensor<2x4xf32>) -> tensor<32x4xf32> loc(#loc211)
    %203 = stablehlo.broadcast_in_dim %cst_35, dims = [] : (tensor<f32>) -> tensor<32x4xf32> loc(#loc212)
    %204 = stablehlo.multiply %203, %202 : tensor<32x4xf32> loc(#loc212)
    %205 = stablehlo.broadcast_in_dim %201, dims = [1] : (tensor<4xf32>) -> tensor<1x4xf32> loc(#loc213)
    %206 = stablehlo.broadcast_in_dim %205, dims = [0, 1] : (tensor<1x4xf32>) -> tensor<32x4xf32> loc(#loc214)
    %207 = stablehlo.add %206, %204 : tensor<32x4xf32> loc(#loc214)
    %208 = stablehlo.reshape %207 : (tensor<32x4xf32>) -> tensor<1x32x4xf32> loc(#loc208)
    %209 = stablehlo.broadcast_in_dim %cst_28, dims = [] : (tensor<f32>) -> tensor<1x32x4xf32> loc(#loc229)
    %210 = stablehlo.multiply %209, %208 : tensor<1x32x4xf32> loc(#loc229)
    %211 = stablehlo.negate %208 : tensor<1x32x4xf32> loc(#loc230)
    %212 = stablehlo.broadcast_in_dim %cst_27, dims = [] : (tensor<f32>) -> tensor<1x32x4xf32> loc(#loc229)
    %213 = stablehlo.multiply %211, %212 : tensor<1x32x4xf32> loc(#loc229)
    %214 = stablehlo.multiply %213, %213 : tensor<1x32x4xf32> loc(#loc231)
    %215 = stablehlo.negate %214 : tensor<1x32x4xf32> loc(#loc231)
    %216 = stablehlo.abs %213 : tensor<1x32x4xf32> loc(#loc231)
    %217 = stablehlo.divide %cst_26, %214 : tensor<1x32x4xf32> loc(#loc231)
    %218 = stablehlo.exponential %215 : tensor<1x32x4xf32> loc(#loc231)
    %219 = stablehlo.divide %cst_26, %216 : tensor<1x32x4xf32> loc(#loc231)
    %220 = stablehlo.multiply %218, %219 : tensor<1x32x4xf32> loc(#loc231)
    %221 = stablehlo.compare  LT, %216, %cst_25 : (tensor<1x32x4xf32>, tensor<1x32x4xf32>) -> tensor<1x32x4xi1> loc(#loc231)
    %222 = stablehlo.multiply %cst_24, %217 : tensor<1x32x4xf32> loc(#loc231)
    %223 = stablehlo.add %222, %cst_23 : tensor<1x32x4xf32> loc(#loc231)
    %224 = stablehlo.multiply %223, %217 : tensor<1x32x4xf32> loc(#loc231)
    %225 = stablehlo.add %224, %cst_22 : tensor<1x32x4xf32> loc(#loc231)
    %226 = stablehlo.multiply %225, %217 : tensor<1x32x4xf32> loc(#loc231)
    %227 = stablehlo.add %226, %cst_21 : tensor<1x32x4xf32> loc(#loc231)
    %228 = stablehlo.multiply %227, %217 : tensor<1x32x4xf32> loc(#loc231)
    %229 = stablehlo.add %228, %cst_20 : tensor<1x32x4xf32> loc(#loc231)
    %230 = stablehlo.multiply %229, %217 : tensor<1x32x4xf32> loc(#loc231)
    %231 = stablehlo.add %230, %cst_19 : tensor<1x32x4xf32> loc(#loc231)
    %232 = stablehlo.multiply %231, %217 : tensor<1x32x4xf32> loc(#loc231)
    %233 = stablehlo.add %232, %cst_18 : tensor<1x32x4xf32> loc(#loc231)
    %234 = stablehlo.multiply %233, %217 : tensor<1x32x4xf32> loc(#loc231)
    %235 = stablehlo.add %234, %cst_17 : tensor<1x32x4xf32> loc(#loc231)
    %236 = stablehlo.multiply %235, %217 : tensor<1x32x4xf32> loc(#loc231)
    %237 = stablehlo.add %236, %cst_16 : tensor<1x32x4xf32> loc(#loc231)
    %238 = stablehlo.multiply %cst_15, %217 : tensor<1x32x4xf32> loc(#loc231)
    %239 = stablehlo.add %238, %cst_14 : tensor<1x32x4xf32> loc(#loc231)
    %240 = stablehlo.multiply %239, %217 : tensor<1x32x4xf32> loc(#loc231)
    %241 = stablehlo.add %240, %cst_13 : tensor<1x32x4xf32> loc(#loc231)
    %242 = stablehlo.multiply %241, %217 : tensor<1x32x4xf32> loc(#loc231)
    %243 = stablehlo.add %242, %cst_12 : tensor<1x32x4xf32> loc(#loc231)
    %244 = stablehlo.multiply %243, %217 : tensor<1x32x4xf32> loc(#loc231)
    %245 = stablehlo.add %244, %cst_11 : tensor<1x32x4xf32> loc(#loc231)
    %246 = stablehlo.multiply %245, %217 : tensor<1x32x4xf32> loc(#loc231)
    %247 = stablehlo.add %246, %cst_10 : tensor<1x32x4xf32> loc(#loc231)
    %248 = stablehlo.multiply %247, %217 : tensor<1x32x4xf32> loc(#loc231)
    %249 = stablehlo.add %248, %cst_9 : tensor<1x32x4xf32> loc(#loc231)
    %250 = stablehlo.multiply %249, %217 : tensor<1x32x4xf32> loc(#loc231)
    %251 = stablehlo.add %250, %cst_8 : tensor<1x32x4xf32> loc(#loc231)
    %252 = stablehlo.select %221, %237, %251 : tensor<1x32x4xi1>, tensor<1x32x4xf32> loc(#loc231)
    %253 = stablehlo.multiply %220, %252 : tensor<1x32x4xf32> loc(#loc231)
    %254 = stablehlo.compare  LT, %215, %cst_7 : (tensor<1x32x4xf32>, tensor<1x32x4xf32>) -> tensor<1x32x4xi1> loc(#loc231)
    %255 = stablehlo.select %254, %cst_6, %253 : tensor<1x32x4xi1>, tensor<1x32x4xf32> loc(#loc231)
    %256 = stablehlo.compare  LT, %213, %cst_6 : (tensor<1x32x4xf32>, tensor<1x32x4xf32>) -> tensor<1x32x4xi1> loc(#loc231)
    %257 = stablehlo.subtract %cst_25, %255 : tensor<1x32x4xf32> loc(#loc231)
    %258 = stablehlo.select %256, %257, %255 : tensor<1x32x4xi1>, tensor<1x32x4xf32> loc(#loc231)
    %259 = stablehlo.multiply %213, %213 : tensor<1x32x4xf32> loc(#loc231)
    %260 = stablehlo.multiply %cst_5, %259 : tensor<1x32x4xf32> loc(#loc231)
    %261 = stablehlo.add %260, %cst_4 : tensor<1x32x4xf32> loc(#loc231)
    %262 = stablehlo.multiply %261, %259 : tensor<1x32x4xf32> loc(#loc231)
    %263 = stablehlo.add %262, %cst_3 : tensor<1x32x4xf32> loc(#loc231)
    %264 = stablehlo.multiply %263, %259 : tensor<1x32x4xf32> loc(#loc231)
    %265 = stablehlo.add %264, %cst_2 : tensor<1x32x4xf32> loc(#loc231)
    %266 = stablehlo.multiply %265, %259 : tensor<1x32x4xf32> loc(#loc231)
    %267 = stablehlo.add %266, %cst_1 : tensor<1x32x4xf32> loc(#loc231)
    %268 = stablehlo.multiply %267, %259 : tensor<1x32x4xf32> loc(#loc231)
    %269 = stablehlo.add %268, %cst_0 : tensor<1x32x4xf32> loc(#loc231)
    %270 = stablehlo.multiply %269, %259 : tensor<1x32x4xf32> loc(#loc231)
    %271 = stablehlo.add %270, %cst : tensor<1x32x4xf32> loc(#loc231)
    %272 = stablehlo.multiply %213, %271 : tensor<1x32x4xf32> loc(#loc231)
    %273 = stablehlo.subtract %cst_26, %272 : tensor<1x32x4xf32> loc(#loc231)
    %274 = stablehlo.abs %213 : tensor<1x32x4xf32> loc(#loc231)
    %275 = stablehlo.compare  LT, %274, %cst_26 : (tensor<1x32x4xf32>, tensor<1x32x4xf32>) -> tensor<1x32x4xi1> loc(#loc231)
    %276 = stablehlo.select %275, %273, %258 : tensor<1x32x4xi1>, tensor<1x32x4xf32> loc(#loc231)
    %277 = stablehlo.multiply %210, %276 : tensor<1x32x4xf32> loc(#loc229)
    %278 = stablehlo.reshape %277 : (tensor<1x32x4xf32>) -> tensor<32x4xf32> loc(#loc208)
    %279 = stablehlo.transpose %arg17, dims = [1, 0] : (tensor<2x4xf32>) -> tensor<4x2xf32> loc(#loc209)
    %280 = stablehlo.broadcast_in_dim %cst_35, dims = [] : (tensor<f32>) -> tensor<2xf32> loc(#loc210)
    %281 = stablehlo.multiply %arg18, %280 : tensor<2xf32> loc(#loc210)
    %282 = stablehlo.dot_general %278, %279, contracting_dims = [1] x [0] : (tensor<32x4xf32>, tensor<4x2xf32>) -> tensor<32x2xf32> loc(#loc211)
    %283 = stablehlo.broadcast_in_dim %cst_35, dims = [] : (tensor<f32>) -> tensor<32x2xf32> loc(#loc212)
    %284 = stablehlo.multiply %283, %282 : tensor<32x2xf32> loc(#loc212)
    %285 = stablehlo.broadcast_in_dim %281, dims = [1] : (tensor<2xf32>) -> tensor<1x2xf32> loc(#loc213)
    %286 = stablehlo.broadcast_in_dim %285, dims = [0, 1] : (tensor<1x2xf32>) -> tensor<32x2xf32> loc(#loc214)
    %287 = stablehlo.add %286, %284 : tensor<32x2xf32> loc(#loc214)
    %288 = stablehlo.reshape %287 : (tensor<32x2xf32>) -> tensor<1x32x2xf32> loc(#loc208)
    %289 = stablehlo.broadcast_in_dim %cst_35, dims = [] : (tensor<f32>) -> tensor<1x32x2xf32> loc(#loc183)
    %290 = stablehlo.multiply %197, %289 : tensor<1x32x2xf32> loc(#loc183)
    %291 = stablehlo.add %288, %290 : tensor<1x32x2xf32> loc(#loc184)
    %292 = stablehlo.reduce(%291 init: %cst_34) applies stablehlo.add across dimensions = [2] : (tensor<1x32x2xf32>, tensor<f32>) -> tensor<1x32xf32> loc(#loc185)
    %293 = stablehlo.broadcast_in_dim %292, dims = [0, 1] : (tensor<1x32xf32>) -> tensor<1x32x1xf32> loc(#loc186)
    %294 = stablehlo.broadcast_in_dim %cst_33, dims = [] : (tensor<f32>) -> tensor<1x32x1xf32> loc(#loc187)
    %295 = stablehlo.divide %293, %294 : tensor<1x32x1xf32> loc(#loc187)
    %296 = call @_var(%291, %c_38) : (tensor<1x32x2xf32>, tensor<i32>) -> tensor<1x32x1xf32> loc(#loc188)
    %297 = stablehlo.broadcast_in_dim %cst_32, dims = [] : (tensor<f32>) -> tensor<1x32x1xf32> loc(#loc189)
    %298 = stablehlo.add %296, %297 : tensor<1x32x1xf32> loc(#loc189)
    %299 = stablehlo.rsqrt %298 : tensor<1x32x1xf32> loc(#loc190)
    %300 = stablehlo.broadcast_in_dim %295, dims = [0, 1, 2] : (tensor<1x32x1xf32>) -> tensor<1x32x2xf32> loc(#loc191)
    %301 = stablehlo.subtract %291, %300 : tensor<1x32x2xf32> loc(#loc191)
    %302 = stablehlo.broadcast_in_dim %299, dims = [0, 1, 2] : (tensor<1x32x1xf32>) -> tensor<1x32x2xf32> loc(#loc192)
    %303 = stablehlo.multiply %301, %302 : tensor<1x32x2xf32> loc(#loc192)
    %304 = stablehlo.broadcast_in_dim %arg19, dims = [2] : (tensor<2xf32>) -> tensor<1x1x2xf32> loc(#loc193)
    %305 = stablehlo.broadcast_in_dim %304, dims = [0, 1, 2] : (tensor<1x1x2xf32>) -> tensor<1x32x2xf32> loc(#loc194)
    %306 = stablehlo.multiply %303, %305 : tensor<1x32x2xf32> loc(#loc194)
    %307 = stablehlo.broadcast_in_dim %arg20, dims = [2] : (tensor<2xf32>) -> tensor<1x1x2xf32> loc(#loc195)
    %308 = stablehlo.broadcast_in_dim %307, dims = [0, 1, 2] : (tensor<1x1x2xf32>) -> tensor<1x32x2xf32> loc(#loc196)
    %309 = stablehlo.add %306, %308 : tensor<1x32x2xf32> loc(#loc196)
    %310 = stablehlo.reshape %309 : (tensor<1x32x2xf32>) -> tensor<32x2xf32> loc(#loc208)
    %311 = stablehlo.transpose %arg21, dims = [1, 0] : (tensor<2x2xf32>) -> tensor<2x2xf32> loc(#loc209)
    %312 = stablehlo.broadcast_in_dim %cst_35, dims = [] : (tensor<f32>) -> tensor<2xf32> loc(#loc210)
    %313 = stablehlo.multiply %arg22, %312 : tensor<2xf32> loc(#loc210)
    %314 = stablehlo.dot_general %310, %311, contracting_dims = [1] x [0] : (tensor<32x2xf32>, tensor<2x2xf32>) -> tensor<32x2xf32> loc(#loc211)
    %315 = stablehlo.broadcast_in_dim %cst_35, dims = [] : (tensor<f32>) -> tensor<32x2xf32> loc(#loc212)
    %316 = stablehlo.multiply %315, %314 : tensor<32x2xf32> loc(#loc212)
    %317 = stablehlo.broadcast_in_dim %313, dims = [1] : (tensor<2xf32>) -> tensor<1x2xf32> loc(#loc213)
    %318 = stablehlo.broadcast_in_dim %317, dims = [0, 1] : (tensor<1x2xf32>) -> tensor<32x2xf32> loc(#loc214)
    %319 = stablehlo.add %318, %316 : tensor<32x2xf32> loc(#loc214)
    %320 = stablehlo.reshape %319 : (tensor<32x2xf32>) -> tensor<1x32x2xf32> loc(#loc208)
    %321 = stablehlo.reshape %320 : (tensor<1x32x2xf32>) -> tensor<1x32x2x1xf32> loc(#loc208)
    %322 = stablehlo.transpose %321, dims = [0, 2, 1, 3] : (tensor<1x32x2x1xf32>) -> tensor<1x2x32x1xf32> loc(#loc209)
    %323 = stablehlo.reshape %309 : (tensor<1x32x2xf32>) -> tensor<32x2xf32> loc(#loc208)
    %324 = stablehlo.transpose %arg23, dims = [1, 0] : (tensor<2x2xf32>) -> tensor<2x2xf32> loc(#loc209)
    %325 = stablehlo.broadcast_in_dim %cst_35, dims = [] : (tensor<f32>) -> tensor<2xf32> loc(#loc210)
    %326 = stablehlo.multiply %arg24, %325 : tensor<2xf32> loc(#loc210)
    %327 = stablehlo.dot_general %323, %324, contracting_dims = [1] x [0] : (tensor<32x2xf32>, tensor<2x2xf32>) -> tensor<32x2xf32> loc(#loc211)
    %328 = stablehlo.broadcast_in_dim %cst_35, dims = [] : (tensor<f32>) -> tensor<32x2xf32> loc(#loc212)
    %329 = stablehlo.multiply %328, %327 : tensor<32x2xf32> loc(#loc212)
    %330 = stablehlo.broadcast_in_dim %326, dims = [1] : (tensor<2xf32>) -> tensor<1x2xf32> loc(#loc213)
    %331 = stablehlo.broadcast_in_dim %330, dims = [0, 1] : (tensor<1x2xf32>) -> tensor<32x2xf32> loc(#loc214)
    %332 = stablehlo.add %331, %329 : tensor<32x2xf32> loc(#loc214)
    %333 = stablehlo.reshape %332 : (tensor<32x2xf32>) -> tensor<1x32x2xf32> loc(#loc208)
    %334 = stablehlo.reshape %333 : (tensor<1x32x2xf32>) -> tensor<1x32x2x1xf32> loc(#loc208)
    %335 = stablehlo.transpose %334, dims = [0, 2, 1, 3] : (tensor<1x32x2x1xf32>) -> tensor<1x2x32x1xf32> loc(#loc209)
    %336 = stablehlo.reshape %309 : (tensor<1x32x2xf32>) -> tensor<32x2xf32> loc(#loc208)
    %337 = stablehlo.transpose %arg25, dims = [1, 0] : (tensor<2x2xf32>) -> tensor<2x2xf32> loc(#loc209)
    %338 = stablehlo.broadcast_in_dim %cst_35, dims = [] : (tensor<f32>) -> tensor<2xf32> loc(#loc210)
    %339 = stablehlo.multiply %arg26, %338 : tensor<2xf32> loc(#loc210)
    %340 = stablehlo.dot_general %336, %337, contracting_dims = [1] x [0] : (tensor<32x2xf32>, tensor<2x2xf32>) -> tensor<32x2xf32> loc(#loc211)
    %341 = stablehlo.broadcast_in_dim %cst_35, dims = [] : (tensor<f32>) -> tensor<32x2xf32> loc(#loc212)
    %342 = stablehlo.multiply %341, %340 : tensor<32x2xf32> loc(#loc212)
    %343 = stablehlo.broadcast_in_dim %339, dims = [1] : (tensor<2xf32>) -> tensor<1x2xf32> loc(#loc213)
    %344 = stablehlo.broadcast_in_dim %343, dims = [0, 1] : (tensor<1x2xf32>) -> tensor<32x2xf32> loc(#loc214)
    %345 = stablehlo.add %344, %342 : tensor<32x2xf32> loc(#loc214)
    %346 = stablehlo.reshape %345 : (tensor<32x2xf32>) -> tensor<1x32x2xf32> loc(#loc208)
    %347 = stablehlo.reshape %346 : (tensor<1x32x2xf32>) -> tensor<1x32x2x1xf32> loc(#loc208)
    %348 = stablehlo.transpose %347, dims = [0, 2, 1, 3] : (tensor<1x32x2x1xf32>) -> tensor<1x2x32x1xf32> loc(#loc209)
    %349 = call @_where_3(%85, %cst_34, %cst_29) : (tensor<1x1x32x32xi1>, tensor<f32>, tensor<f32>) -> tensor<1x1x32x32xf32> loc(#loc215)
    %350 = stablehlo.broadcast_in_dim %cst_35, dims = [] : (tensor<f32>) -> tensor<1x2x32x1xf32> loc(#loc216)
    %351 = stablehlo.multiply %322, %350 : tensor<1x2x32x1xf32> loc(#loc216)
    %352 = stablehlo.transpose %335, dims = [0, 1, 3, 2] : (tensor<1x2x32x1xf32>) -> tensor<1x2x1x32xf32> loc(#loc209)
    %353 = stablehlo.broadcast_in_dim %cst_35, dims = [] : (tensor<f32>) -> tensor<1x2x1x32xf32> loc(#loc216)
    %354 = stablehlo.multiply %352, %353 : tensor<1x2x1x32xf32> loc(#loc216)
    %355 = stablehlo.reshape %351 : (tensor<1x2x32x1xf32>) -> tensor<2x32x1xf32> loc(#loc208)
    %356 = stablehlo.reshape %354 : (tensor<1x2x1x32xf32>) -> tensor<2x1x32xf32> loc(#loc208)
    %357 = stablehlo.dot_general %355, %356, batching_dims = [0] x [0], contracting_dims = [2] x [1] : (tensor<2x32x1xf32>, tensor<2x1x32xf32>) -> tensor<2x32x32xf32> loc(#loc217)
    %358 = stablehlo.reshape %357 : (tensor<2x32x32xf32>) -> tensor<1x2x32x32xf32> loc(#loc208)
    %359 = stablehlo.broadcast_in_dim %cst_35, dims = [] : (tensor<f32>) -> tensor<1x1x32x32xf32> loc(#loc183)
    %360 = stablehlo.multiply %349, %359 : tensor<1x1x32x32xf32> loc(#loc183)
    %361 = stablehlo.broadcast_in_dim %360, dims = [0, 1, 2, 3] : (tensor<1x1x32x32xf32>) -> tensor<1x2x32x32xf32> loc(#loc184)
    %362 = stablehlo.add %358, %361 : tensor<1x2x32x32xf32> loc(#loc184)
    %363 = stablehlo.reduce(%362 init: %cst_29) applies stablehlo.maximum across dimensions = [3] : (tensor<1x2x32x32xf32>, tensor<f32>) -> tensor<1x2x32xf32> loc(#loc218)
    %364 = stablehlo.broadcast_in_dim %cst_29, dims = [] : (tensor<f32>) -> tensor<1x2x32xf32> loc(#loc219)
    %365 = stablehlo.maximum %364, %363 : tensor<1x2x32xf32> loc(#loc219)
    %366 = stablehlo.broadcast_in_dim %365, dims = [0, 1, 2] : (tensor<1x2x32xf32>) -> tensor<1x2x32x1xf32> loc(#loc220)
    %367 = stablehlo.broadcast_in_dim %366, dims = [0, 1, 2, 3] : (tensor<1x2x32x1xf32>) -> tensor<1x2x32x32xf32> loc(#loc221)
    %368 = stablehlo.subtract %362, %367 : tensor<1x2x32x32xf32> loc(#loc221)
    %369 = stablehlo.exponential %368 : tensor<1x2x32x32xf32> loc(#loc222)
    %370 = stablehlo.reduce(%369 init: %cst_34) applies stablehlo.add across dimensions = [3] : (tensor<1x2x32x32xf32>, tensor<f32>) -> tensor<1x2x32xf32> loc(#loc223)
    %371 = stablehlo.broadcast_in_dim %370, dims = [0, 1, 2] : (tensor<1x2x32xf32>) -> tensor<1x2x32x1xf32> loc(#loc220)
    %372 = stablehlo.broadcast_in_dim %371, dims = [0, 1, 2, 3] : (tensor<1x2x32x1xf32>) -> tensor<1x2x32x32xf32> loc(#loc224)
    %373 = stablehlo.divide %369, %372 : tensor<1x2x32x32xf32> loc(#loc224)
    %374 = stablehlo.broadcast_in_dim %cst_29, dims = [] : (tensor<f32>) -> tensor<1x2x32x32xf32> loc(#loc225)
    %375 = stablehlo.compare  EQ, %362, %374,  FLOAT : (tensor<1x2x32x32xf32>, tensor<1x2x32x32xf32>) -> tensor<1x2x32x32xi1> loc(#loc225)
    %376 = stablehlo.not %375 : tensor<1x2x32x32xi1> loc(#loc226)
    %377 = stablehlo.reduce(%376 init: %c) applies stablehlo.or across dimensions = [3] : (tensor<1x2x32x32xi1>, tensor<i1>) -> tensor<1x2x32xi1> loc(#loc263)
    %378 = stablehlo.broadcast_in_dim %377, dims = [0, 1, 2] : (tensor<1x2x32xi1>) -> tensor<1x2x32x1xi1> loc(#loc264)
    %379 = stablehlo.not %378 : tensor<1x2x32x1xi1> loc(#loc226)
    %380 = stablehlo.broadcast_in_dim %cst_34, dims = [] : (tensor<f32>) -> tensor<1x2x32x32xf32> loc(#loc228)
    %381 = call @_where_4(%379, %380, %373) : (tensor<1x2x32x1xi1>, tensor<1x2x32x32xf32>, tensor<1x2x32x32xf32>) -> tensor<1x2x32x32xf32> loc(#loc215)
    %382 = stablehlo.reshape %381 : (tensor<1x2x32x32xf32>) -> tensor<2x32x32xf32> loc(#loc208)
    %383 = stablehlo.reshape %348 : (tensor<1x2x32x1xf32>) -> tensor<2x32x1xf32> loc(#loc208)
    %384 = stablehlo.dot_general %382, %383, batching_dims = [0] x [0], contracting_dims = [2] x [1] : (tensor<2x32x32xf32>, tensor<2x32x1xf32>) -> tensor<2x32x1xf32> loc(#loc217)
    %385 = stablehlo.reshape %384 : (tensor<2x32x1xf32>) -> tensor<1x2x32x1xf32> loc(#loc208)
    %386 = stablehlo.transpose %385, dims = [2, 0, 1, 3] : (tensor<1x2x32x1xf32>) -> tensor<32x1x2x1xf32> loc(#loc209)
    %387 = stablehlo.transpose %386, dims = [1, 2, 0, 3] : (tensor<32x1x2x1xf32>) -> tensor<1x2x32x1xf32> loc(#loc209)
    %388 = stablehlo.transpose %387, dims = [0, 2, 1, 3] : (tensor<1x2x32x1xf32>) -> tensor<1x32x2x1xf32> loc(#loc209)
    %389 = stablehlo.reshape %388 : (tensor<1x32x2x1xf32>) -> tensor<1x32x2xf32> loc(#loc208)
    %390 = stablehlo.reshape %389 : (tensor<1x32x2xf32>) -> tensor<32x2xf32> loc(#loc208)
    %391 = stablehlo.transpose %arg27, dims = [1, 0] : (tensor<2x2xf32>) -> tensor<2x2xf32> loc(#loc209)
    %392 = stablehlo.broadcast_in_dim %cst_35, dims = [] : (tensor<f32>) -> tensor<2xf32> loc(#loc210)
    %393 = stablehlo.multiply %arg28, %392 : tensor<2xf32> loc(#loc210)
    %394 = stablehlo.dot_general %390, %391, contracting_dims = [1] x [0] : (tensor<32x2xf32>, tensor<2x2xf32>) -> tensor<32x2xf32> loc(#loc211)
    %395 = stablehlo.broadcast_in_dim %cst_35, dims = [] : (tensor<f32>) -> tensor<32x2xf32> loc(#loc212)
    %396 = stablehlo.multiply %395, %394 : tensor<32x2xf32> loc(#loc212)
    %397 = stablehlo.broadcast_in_dim %393, dims = [1] : (tensor<2xf32>) -> tensor<1x2xf32> loc(#loc213)
    %398 = stablehlo.broadcast_in_dim %397, dims = [0, 1] : (tensor<1x2xf32>) -> tensor<32x2xf32> loc(#loc214)
    %399 = stablehlo.add %398, %396 : tensor<32x2xf32> loc(#loc214)
    %400 = stablehlo.reshape %399 : (tensor<32x2xf32>) -> tensor<1x32x2xf32> loc(#loc208)
    %401 = stablehlo.broadcast_in_dim %cst_35, dims = [] : (tensor<f32>) -> tensor<1x32x2xf32> loc(#loc183)
    %402 = stablehlo.multiply %309, %401 : tensor<1x32x2xf32> loc(#loc183)
    %403 = stablehlo.add %400, %402 : tensor<1x32x2xf32> loc(#loc184)
    %404 = stablehlo.reduce(%403 init: %cst_34) applies stablehlo.add across dimensions = [2] : (tensor<1x32x2xf32>, tensor<f32>) -> tensor<1x32xf32> loc(#loc185)
    %405 = stablehlo.broadcast_in_dim %404, dims = [0, 1] : (tensor<1x32xf32>) -> tensor<1x32x1xf32> loc(#loc186)
    %406 = stablehlo.broadcast_in_dim %cst_33, dims = [] : (tensor<f32>) -> tensor<1x32x1xf32> loc(#loc187)
    %407 = stablehlo.divide %405, %406 : tensor<1x32x1xf32> loc(#loc187)
    %408 = call @_var(%403, %c_38) : (tensor<1x32x2xf32>, tensor<i32>) -> tensor<1x32x1xf32> loc(#loc188)
    %409 = stablehlo.broadcast_in_dim %cst_32, dims = [] : (tensor<f32>) -> tensor<1x32x1xf32> loc(#loc189)
    %410 = stablehlo.add %408, %409 : tensor<1x32x1xf32> loc(#loc189)
    %411 = stablehlo.rsqrt %410 : tensor<1x32x1xf32> loc(#loc190)
    %412 = stablehlo.broadcast_in_dim %407, dims = [0, 1, 2] : (tensor<1x32x1xf32>) -> tensor<1x32x2xf32> loc(#loc191)
    %413 = stablehlo.subtract %403, %412 : tensor<1x32x2xf32> loc(#loc191)
    %414 = stablehlo.broadcast_in_dim %411, dims = [0, 1, 2] : (tensor<1x32x1xf32>) -> tensor<1x32x2xf32> loc(#loc192)
    %415 = stablehlo.multiply %413, %414 : tensor<1x32x2xf32> loc(#loc192)
    %416 = stablehlo.broadcast_in_dim %arg29, dims = [2] : (tensor<2xf32>) -> tensor<1x1x2xf32> loc(#loc193)
    %417 = stablehlo.broadcast_in_dim %416, dims = [0, 1, 2] : (tensor<1x1x2xf32>) -> tensor<1x32x2xf32> loc(#loc194)
    %418 = stablehlo.multiply %415, %417 : tensor<1x32x2xf32> loc(#loc194)
    %419 = stablehlo.broadcast_in_dim %arg30, dims = [2] : (tensor<2xf32>) -> tensor<1x1x2xf32> loc(#loc195)
    %420 = stablehlo.broadcast_in_dim %419, dims = [0, 1, 2] : (tensor<1x1x2xf32>) -> tensor<1x32x2xf32> loc(#loc196)
    %421 = stablehlo.add %418, %420 : tensor<1x32x2xf32> loc(#loc196)
    %422 = stablehlo.reshape %421 : (tensor<1x32x2xf32>) -> tensor<32x2xf32> loc(#loc208)
    %423 = stablehlo.transpose %arg31, dims = [1, 0] : (tensor<4x2xf32>) -> tensor<2x4xf32> loc(#loc209)
    %424 = stablehlo.broadcast_in_dim %cst_35, dims = [] : (tensor<f32>) -> tensor<4xf32> loc(#loc210)
    %425 = stablehlo.multiply %arg32, %424 : tensor<4xf32> loc(#loc210)
    %426 = stablehlo.dot_general %422, %423, contracting_dims = [1] x [0] : (tensor<32x2xf32>, tensor<2x4xf32>) -> tensor<32x4xf32> loc(#loc211)
    %427 = stablehlo.broadcast_in_dim %cst_35, dims = [] : (tensor<f32>) -> tensor<32x4xf32> loc(#loc212)
    %428 = stablehlo.multiply %427, %426 : tensor<32x4xf32> loc(#loc212)
    %429 = stablehlo.broadcast_in_dim %425, dims = [1] : (tensor<4xf32>) -> tensor<1x4xf32> loc(#loc213)
    %430 = stablehlo.broadcast_in_dim %429, dims = [0, 1] : (tensor<1x4xf32>) -> tensor<32x4xf32> loc(#loc214)
    %431 = stablehlo.add %430, %428 : tensor<32x4xf32> loc(#loc214)
    %432 = stablehlo.reshape %431 : (tensor<32x4xf32>) -> tensor<1x32x4xf32> loc(#loc208)
    %433 = stablehlo.broadcast_in_dim %cst_28, dims = [] : (tensor<f32>) -> tensor<1x32x4xf32> loc(#loc229)
    %434 = stablehlo.multiply %433, %432 : tensor<1x32x4xf32> loc(#loc229)
    %435 = stablehlo.negate %432 : tensor<1x32x4xf32> loc(#loc230)
    %436 = stablehlo.broadcast_in_dim %cst_27, dims = [] : (tensor<f32>) -> tensor<1x32x4xf32> loc(#loc229)
    %437 = stablehlo.multiply %435, %436 : tensor<1x32x4xf32> loc(#loc229)
    %438 = stablehlo.multiply %437, %437 : tensor<1x32x4xf32> loc(#loc231)
    %439 = stablehlo.negate %438 : tensor<1x32x4xf32> loc(#loc231)
    %440 = stablehlo.abs %437 : tensor<1x32x4xf32> loc(#loc231)
    %441 = stablehlo.divide %cst_26, %438 : tensor<1x32x4xf32> loc(#loc231)
    %442 = stablehlo.exponential %439 : tensor<1x32x4xf32> loc(#loc231)
    %443 = stablehlo.divide %cst_26, %440 : tensor<1x32x4xf32> loc(#loc231)
    %444 = stablehlo.multiply %442, %443 : tensor<1x32x4xf32> loc(#loc231)
    %445 = stablehlo.compare  LT, %440, %cst_25 : (tensor<1x32x4xf32>, tensor<1x32x4xf32>) -> tensor<1x32x4xi1> loc(#loc231)
    %446 = stablehlo.multiply %cst_24, %441 : tensor<1x32x4xf32> loc(#loc231)
    %447 = stablehlo.add %446, %cst_23 : tensor<1x32x4xf32> loc(#loc231)
    %448 = stablehlo.multiply %447, %441 : tensor<1x32x4xf32> loc(#loc231)
    %449 = stablehlo.add %448, %cst_22 : tensor<1x32x4xf32> loc(#loc231)
    %450 = stablehlo.multiply %449, %441 : tensor<1x32x4xf32> loc(#loc231)
    %451 = stablehlo.add %450, %cst_21 : tensor<1x32x4xf32> loc(#loc231)
    %452 = stablehlo.multiply %451, %441 : tensor<1x32x4xf32> loc(#loc231)
    %453 = stablehlo.add %452, %cst_20 : tensor<1x32x4xf32> loc(#loc231)
    %454 = stablehlo.multiply %453, %441 : tensor<1x32x4xf32> loc(#loc231)
    %455 = stablehlo.add %454, %cst_19 : tensor<1x32x4xf32> loc(#loc231)
    %456 = stablehlo.multiply %455, %441 : tensor<1x32x4xf32> loc(#loc231)
    %457 = stablehlo.add %456, %cst_18 : tensor<1x32x4xf32> loc(#loc231)
    %458 = stablehlo.multiply %457, %441 : tensor<1x32x4xf32> loc(#loc231)
    %459 = stablehlo.add %458, %cst_17 : tensor<1x32x4xf32> loc(#loc231)
    %460 = stablehlo.multiply %459, %441 : tensor<1x32x4xf32> loc(#loc231)
    %461 = stablehlo.add %460, %cst_16 : tensor<1x32x4xf32> loc(#loc231)
    %462 = stablehlo.multiply %cst_15, %441 : tensor<1x32x4xf32> loc(#loc231)
    %463 = stablehlo.add %462, %cst_14 : tensor<1x32x4xf32> loc(#loc231)
    %464 = stablehlo.multiply %463, %441 : tensor<1x32x4xf32> loc(#loc231)
    %465 = stablehlo.add %464, %cst_13 : tensor<1x32x4xf32> loc(#loc231)
    %466 = stablehlo.multiply %465, %441 : tensor<1x32x4xf32> loc(#loc231)
    %467 = stablehlo.add %466, %cst_12 : tensor<1x32x4xf32> loc(#loc231)
    %468 = stablehlo.multiply %467, %441 : tensor<1x32x4xf32> loc(#loc231)
    %469 = stablehlo.add %468, %cst_11 : tensor<1x32x4xf32> loc(#loc231)
    %470 = stablehlo.multiply %469, %441 : tensor<1x32x4xf32> loc(#loc231)
    %471 = stablehlo.add %470, %cst_10 : tensor<1x32x4xf32> loc(#loc231)
    %472 = stablehlo.multiply %471, %441 : tensor<1x32x4xf32> loc(#loc231)
    %473 = stablehlo.add %472, %cst_9 : tensor<1x32x4xf32> loc(#loc231)
    %474 = stablehlo.multiply %473, %441 : tensor<1x32x4xf32> loc(#loc231)
    %475 = stablehlo.add %474, %cst_8 : tensor<1x32x4xf32> loc(#loc231)
    %476 = stablehlo.select %445, %461, %475 : tensor<1x32x4xi1>, tensor<1x32x4xf32> loc(#loc231)
    %477 = stablehlo.multiply %444, %476 : tensor<1x32x4xf32> loc(#loc231)
    %478 = stablehlo.compare  LT, %439, %cst_7 : (tensor<1x32x4xf32>, tensor<1x32x4xf32>) -> tensor<1x32x4xi1> loc(#loc231)
    %479 = stablehlo.select %478, %cst_6, %477 : tensor<1x32x4xi1>, tensor<1x32x4xf32> loc(#loc231)
    %480 = stablehlo.compare  LT, %437, %cst_6 : (tensor<1x32x4xf32>, tensor<1x32x4xf32>) -> tensor<1x32x4xi1> loc(#loc231)
    %481 = stablehlo.subtract %cst_25, %479 : tensor<1x32x4xf32> loc(#loc231)
    %482 = stablehlo.select %480, %481, %479 : tensor<1x32x4xi1>, tensor<1x32x4xf32> loc(#loc231)
    %483 = stablehlo.multiply %437, %437 : tensor<1x32x4xf32> loc(#loc231)
    %484 = stablehlo.multiply %cst_5, %483 : tensor<1x32x4xf32> loc(#loc231)
    %485 = stablehlo.add %484, %cst_4 : tensor<1x32x4xf32> loc(#loc231)
    %486 = stablehlo.multiply %485, %483 : tensor<1x32x4xf32> loc(#loc231)
    %487 = stablehlo.add %486, %cst_3 : tensor<1x32x4xf32> loc(#loc231)
    %488 = stablehlo.multiply %487, %483 : tensor<1x32x4xf32> loc(#loc231)
    %489 = stablehlo.add %488, %cst_2 : tensor<1x32x4xf32> loc(#loc231)
    %490 = stablehlo.multiply %489, %483 : tensor<1x32x4xf32> loc(#loc231)
    %491 = stablehlo.add %490, %cst_1 : tensor<1x32x4xf32> loc(#loc231)
    %492 = stablehlo.multiply %491, %483 : tensor<1x32x4xf32> loc(#loc231)
    %493 = stablehlo.add %492, %cst_0 : tensor<1x32x4xf32> loc(#loc231)
    %494 = stablehlo.multiply %493, %483 : tensor<1x32x4xf32> loc(#loc231)
    %495 = stablehlo.add %494, %cst : tensor<1x32x4xf32> loc(#loc231)
    %496 = stablehlo.multiply %437, %495 : tensor<1x32x4xf32> loc(#loc231)
    %497 = stablehlo.subtract %cst_26, %496 : tensor<1x32x4xf32> loc(#loc231)
    %498 = stablehlo.abs %437 : tensor<1x32x4xf32> loc(#loc231)
    %499 = stablehlo.compare  LT, %498, %cst_26 : (tensor<1x32x4xf32>, tensor<1x32x4xf32>) -> tensor<1x32x4xi1> loc(#loc231)
    %500 = stablehlo.select %499, %497, %482 : tensor<1x32x4xi1>, tensor<1x32x4xf32> loc(#loc231)
    %501 = stablehlo.multiply %434, %500 : tensor<1x32x4xf32> loc(#loc229)
    %502 = stablehlo.reshape %501 : (tensor<1x32x4xf32>) -> tensor<32x4xf32> loc(#loc208)
    %503 = stablehlo.transpose %arg33, dims = [1, 0] : (tensor<2x4xf32>) -> tensor<4x2xf32> loc(#loc209)
    %504 = stablehlo.broadcast_in_dim %cst_35, dims = [] : (tensor<f32>) -> tensor<2xf32> loc(#loc210)
    %505 = stablehlo.multiply %arg34, %504 : tensor<2xf32> loc(#loc210)
    %506 = stablehlo.dot_general %502, %503, contracting_dims = [1] x [0] : (tensor<32x4xf32>, tensor<4x2xf32>) -> tensor<32x2xf32> loc(#loc211)
    %507 = stablehlo.broadcast_in_dim %cst_35, dims = [] : (tensor<f32>) -> tensor<32x2xf32> loc(#loc212)
    %508 = stablehlo.multiply %507, %506 : tensor<32x2xf32> loc(#loc212)
    %509 = stablehlo.broadcast_in_dim %505, dims = [1] : (tensor<2xf32>) -> tensor<1x2xf32> loc(#loc213)
    %510 = stablehlo.broadcast_in_dim %509, dims = [0, 1] : (tensor<1x2xf32>) -> tensor<32x2xf32> loc(#loc214)
    %511 = stablehlo.add %510, %508 : tensor<32x2xf32> loc(#loc214)
    %512 = stablehlo.reshape %511 : (tensor<32x2xf32>) -> tensor<1x32x2xf32> loc(#loc208)
    %513 = stablehlo.broadcast_in_dim %cst_35, dims = [] : (tensor<f32>) -> tensor<1x32x2xf32> loc(#loc183)
    %514 = stablehlo.multiply %421, %513 : tensor<1x32x2xf32> loc(#loc183)
    %515 = stablehlo.add %512, %514 : tensor<1x32x2xf32> loc(#loc184)
    %516 = stablehlo.reduce(%515 init: %cst_34) applies stablehlo.add across dimensions = [2] : (tensor<1x32x2xf32>, tensor<f32>) -> tensor<1x32xf32> loc(#loc185)
    %517 = stablehlo.broadcast_in_dim %516, dims = [0, 1] : (tensor<1x32xf32>) -> tensor<1x32x1xf32> loc(#loc186)
    %518 = stablehlo.broadcast_in_dim %cst_33, dims = [] : (tensor<f32>) -> tensor<1x32x1xf32> loc(#loc187)
    %519 = stablehlo.divide %517, %518 : tensor<1x32x1xf32> loc(#loc187)
    %520 = call @_var(%515, %c_38) : (tensor<1x32x2xf32>, tensor<i32>) -> tensor<1x32x1xf32> loc(#loc188)
    %521 = stablehlo.broadcast_in_dim %cst_32, dims = [] : (tensor<f32>) -> tensor<1x32x1xf32> loc(#loc189)
    %522 = stablehlo.add %520, %521 : tensor<1x32x1xf32> loc(#loc189)
    %523 = stablehlo.rsqrt %522 : tensor<1x32x1xf32> loc(#loc190)
    %524 = stablehlo.broadcast_in_dim %519, dims = [0, 1, 2] : (tensor<1x32x1xf32>) -> tensor<1x32x2xf32> loc(#loc191)
    %525 = stablehlo.subtract %515, %524 : tensor<1x32x2xf32> loc(#loc191)
    %526 = stablehlo.broadcast_in_dim %523, dims = [0, 1, 2] : (tensor<1x32x1xf32>) -> tensor<1x32x2xf32> loc(#loc192)
    %527 = stablehlo.multiply %525, %526 : tensor<1x32x2xf32> loc(#loc192)
    %528 = stablehlo.broadcast_in_dim %arg35, dims = [2] : (tensor<2xf32>) -> tensor<1x1x2xf32> loc(#loc193)
    %529 = stablehlo.broadcast_in_dim %528, dims = [0, 1, 2] : (tensor<1x1x2xf32>) -> tensor<1x32x2xf32> loc(#loc194)
    %530 = stablehlo.multiply %527, %529 : tensor<1x32x2xf32> loc(#loc194)
    %531 = stablehlo.broadcast_in_dim %arg36, dims = [2] : (tensor<2xf32>) -> tensor<1x1x2xf32> loc(#loc195)
    %532 = stablehlo.broadcast_in_dim %531, dims = [0, 1, 2] : (tensor<1x1x2xf32>) -> tensor<1x32x2xf32> loc(#loc196)
    %533 = stablehlo.add %530, %532 : tensor<1x32x2xf32> loc(#loc196)
    %534 = stablehlo.slice %533 [0:1, 0:1, 0:2] : (tensor<1x32x2xf32>) -> tensor<1x1x2xf32> loc(#loc232)
    %535 = stablehlo.reshape %534 : (tensor<1x1x2xf32>) -> tensor<1x2xf32> loc(#loc233)
    %536 = stablehlo.transpose %arg37, dims = [1, 0] : (tensor<2x2xf32>) -> tensor<2x2xf32> loc(#loc209)
    %537 = stablehlo.broadcast_in_dim %cst_35, dims = [] : (tensor<f32>) -> tensor<2xf32> loc(#loc210)
    %538 = stablehlo.multiply %arg38, %537 : tensor<2xf32> loc(#loc210)
    %539 = stablehlo.dot_general %535, %536, contracting_dims = [1] x [0] : (tensor<1x2xf32>, tensor<2x2xf32>) -> tensor<1x2xf32> loc(#loc211)
    %540 = stablehlo.broadcast_in_dim %cst_35, dims = [] : (tensor<f32>) -> tensor<1x2xf32> loc(#loc212)
    %541 = stablehlo.multiply %540, %539 : tensor<1x2xf32> loc(#loc212)
    %542 = stablehlo.broadcast_in_dim %538, dims = [1] : (tensor<2xf32>) -> tensor<1x2xf32> loc(#loc213)
    %543 = stablehlo.add %542, %541 : tensor<1x2xf32> loc(#loc214)
    %544 = stablehlo.tanh %543 : tensor<1x2xf32> loc(#loc265)
    return %533, %544 : tensor<1x32x2xf32>, tensor<1x2xf32> loc(#loc)
  } loc(#loc)
  func.func private @_take(%arg0: tensor<28996x2xf32> loc("jit(func)/jit(main)/pjit"(#loc144)), %arg1: tensor<1x32xi32> loc("jit(func)/jit(main)/pjit"(#loc144))) -> tensor<1x32x2xf32> {
    %cst = stablehlo.constant dense<0x7FC00000> : tensor<f32> loc(#loc)
    %c = stablehlo.constant dense<true> : tensor<i1> loc(#loc)
    %c_0 = stablehlo.constant dense<28995> : tensor<1xi32> loc(#loc)
    %c_1 = stablehlo.constant dense<28996> : tensor<i32> loc(#loc)
    %c_2 = stablehlo.constant dense<0> : tensor<i32> loc(#loc)
    %0 = stablehlo.broadcast_in_dim %c_2, dims = [] : (tensor<i32>) -> tensor<1x32xi32> loc(#loc235)
    %1 = stablehlo.compare  LT, %arg1, %0,  SIGNED : (tensor<1x32xi32>, tensor<1x32xi32>) -> tensor<1x32xi1> loc(#loc235)
    %2 = stablehlo.broadcast_in_dim %c_1, dims = [] : (tensor<i32>) -> tensor<1x32xi32> loc(#loc236)
    %3 = stablehlo.add %arg1, %2 : tensor<1x32xi32> loc(#loc236)
    %4 = call @_where(%1, %3, %arg1) : (tensor<1x32xi1>, tensor<1x32xi32>, tensor<1x32xi32>) -> tensor<1x32xi32> loc(#loc237)
    %5 = stablehlo.broadcast_in_dim %4, dims = [0, 1] : (tensor<1x32xi32>) -> tensor<1x32x1xi32> loc(#loc238)
    %6 = stablehlo.broadcast_in_dim %c_2, dims = [] : (tensor<i32>) -> tensor<1x32x1xi32> loc(#loc239)
    %7 = stablehlo.compare  GE, %5, %6,  SIGNED : (tensor<1x32x1xi32>, tensor<1x32x1xi32>) -> tensor<1x32x1xi1> loc(#loc239)
    %8 = stablehlo.broadcast_in_dim %c_0, dims = [2] : (tensor<1xi32>) -> tensor<1x1x1xi32> loc(#loc238)
    %9 = stablehlo.broadcast_in_dim %8, dims = [0, 1, 2] : (tensor<1x1x1xi32>) -> tensor<1x32x1xi32> loc(#loc240)
    %10 = stablehlo.compare  LE, %5, %9,  SIGNED : (tensor<1x32x1xi32>, tensor<1x32x1xi32>) -> tensor<1x32x1xi1> loc(#loc240)
    %11 = stablehlo.and %7, %10 : tensor<1x32x1xi1> loc(#loc241)
    %12 = stablehlo.reduce(%11 init: %c) applies stablehlo.and across dimensions = [2] : (tensor<1x32x1xi1>, tensor<i1>) -> tensor<1x32xi1> loc(#loc242)
    %13 = "stablehlo.gather"(%arg0, %5) <{dimension_numbers = #stablehlo.gather<offset_dims = [2], collapsed_slice_dims = [0], start_index_map = [0], index_vector_dim = 2>, slice_sizes = array<i64: 1, 2>}> : (tensor<28996x2xf32>, tensor<1x32x1xi32>) -> tensor<1x32x2xf32> loc(#loc243)
    %14 = stablehlo.broadcast_in_dim %12, dims = [0, 1] : (tensor<1x32xi1>) -> tensor<1x32x2xi1> loc(#loc238)
    %15 = stablehlo.broadcast_in_dim %cst, dims = [] : (tensor<f32>) -> tensor<1x32x2xf32> loc(#loc238)
    %16 = stablehlo.select %14, %13, %15 : tensor<1x32x2xi1>, tensor<1x32x2xf32> loc(#loc244)
    return %16 : tensor<1x32x2xf32> loc(#loc182)
  } loc(#loc182)
  func.func private @_where(%arg0: tensor<1x32xi1> loc("jit(func)/jit(main)/jit(_take)/pjit"(#loc144)), %arg1: tensor<1x32xi32> loc("jit(func)/jit(main)/jit(_take)/pjit"(#loc144)), %arg2: tensor<1x32xi32> loc("jit(func)/jit(main)/jit(_take)/pjit"(#loc144))) -> tensor<1x32xi32> {
    %0 = stablehlo.select %arg0, %arg1, %arg2 : tensor<1x32xi1>, tensor<1x32xi32> loc(#loc245)
    return %0 : tensor<1x32xi32> loc(#loc237)
  } loc(#loc237)
  func.func private @_take_0(%arg0: tensor<2x2xf32> loc("jit(func)/jit(main)/pjit"(#loc144)), %arg1: tensor<1x32xi32> loc("jit(func)/jit(main)/pjit"(#loc144))) -> tensor<1x32x2xf32> {
    %cst = stablehlo.constant dense<0x7FC00000> : tensor<f32> loc(#loc)
    %c = stablehlo.constant dense<true> : tensor<i1> loc(#loc)
    %c_0 = stablehlo.constant dense<1> : tensor<1xi32> loc(#loc)
    %c_1 = stablehlo.constant dense<2> : tensor<i32> loc(#loc)
    %c_2 = stablehlo.constant dense<0> : tensor<i32> loc(#loc)
    %0 = stablehlo.broadcast_in_dim %c_2, dims = [] : (tensor<i32>) -> tensor<1x32xi32> loc(#loc235)
    %1 = stablehlo.compare  LT, %arg1, %0,  SIGNED : (tensor<1x32xi32>, tensor<1x32xi32>) -> tensor<1x32xi1> loc(#loc235)
    %2 = stablehlo.broadcast_in_dim %c_1, dims = [] : (tensor<i32>) -> tensor<1x32xi32> loc(#loc236)
    %3 = stablehlo.add %arg1, %2 : tensor<1x32xi32> loc(#loc236)
    %4 = call @_where(%1, %3, %arg1) : (tensor<1x32xi1>, tensor<1x32xi32>, tensor<1x32xi32>) -> tensor<1x32xi32> loc(#loc237)
    %5 = stablehlo.broadcast_in_dim %4, dims = [0, 1] : (tensor<1x32xi32>) -> tensor<1x32x1xi32> loc(#loc238)
    %6 = stablehlo.broadcast_in_dim %c_2, dims = [] : (tensor<i32>) -> tensor<1x32x1xi32> loc(#loc239)
    %7 = stablehlo.compare  GE, %5, %6,  SIGNED : (tensor<1x32x1xi32>, tensor<1x32x1xi32>) -> tensor<1x32x1xi1> loc(#loc239)
    %8 = stablehlo.broadcast_in_dim %c_0, dims = [2] : (tensor<1xi32>) -> tensor<1x1x1xi32> loc(#loc238)
    %9 = stablehlo.broadcast_in_dim %8, dims = [0, 1, 2] : (tensor<1x1x1xi32>) -> tensor<1x32x1xi32> loc(#loc240)
    %10 = stablehlo.compare  LE, %5, %9,  SIGNED : (tensor<1x32x1xi32>, tensor<1x32x1xi32>) -> tensor<1x32x1xi1> loc(#loc240)
    %11 = stablehlo.and %7, %10 : tensor<1x32x1xi1> loc(#loc241)
    %12 = stablehlo.reduce(%11 init: %c) applies stablehlo.and across dimensions = [2] : (tensor<1x32x1xi1>, tensor<i1>) -> tensor<1x32xi1> loc(#loc242)
    %13 = "stablehlo.gather"(%arg0, %5) <{dimension_numbers = #stablehlo.gather<offset_dims = [2], collapsed_slice_dims = [0], start_index_map = [0], index_vector_dim = 2>, slice_sizes = array<i64: 1, 2>}> : (tensor<2x2xf32>, tensor<1x32x1xi32>) -> tensor<1x32x2xf32> loc(#loc243)
    %14 = stablehlo.broadcast_in_dim %12, dims = [0, 1] : (tensor<1x32xi1>) -> tensor<1x32x2xi1> loc(#loc238)
    %15 = stablehlo.broadcast_in_dim %cst, dims = [] : (tensor<f32>) -> tensor<1x32x2xf32> loc(#loc238)
    %16 = stablehlo.select %14, %13, %15 : tensor<1x32x2xi1>, tensor<1x32x2xf32> loc(#loc244)
    return %16 : tensor<1x32x2xf32> loc(#loc182)
  } loc(#loc182)
  func.func private @_take_1(%arg0: tensor<512x2xf32> loc("jit(func)/jit(main)/pjit"(#loc144)), %arg1: tensor<1x32xi32> loc("jit(func)/jit(main)/pjit"(#loc144))) -> tensor<1x32x2xf32> {
    %cst = stablehlo.constant dense<0x7FC00000> : tensor<f32> loc(#loc)
    %c = stablehlo.constant dense<true> : tensor<i1> loc(#loc)
    %c_0 = stablehlo.constant dense<511> : tensor<1xi32> loc(#loc)
    %c_1 = stablehlo.constant dense<512> : tensor<i32> loc(#loc)
    %c_2 = stablehlo.constant dense<0> : tensor<i32> loc(#loc)
    %0 = stablehlo.broadcast_in_dim %c_2, dims = [] : (tensor<i32>) -> tensor<1x32xi32> loc(#loc235)
    %1 = stablehlo.compare  LT, %arg1, %0,  SIGNED : (tensor<1x32xi32>, tensor<1x32xi32>) -> tensor<1x32xi1> loc(#loc235)
    %2 = stablehlo.broadcast_in_dim %c_1, dims = [] : (tensor<i32>) -> tensor<1x32xi32> loc(#loc236)
    %3 = stablehlo.add %arg1, %2 : tensor<1x32xi32> loc(#loc236)
    %4 = call @_where(%1, %3, %arg1) : (tensor<1x32xi1>, tensor<1x32xi32>, tensor<1x32xi32>) -> tensor<1x32xi32> loc(#loc237)
    %5 = stablehlo.broadcast_in_dim %4, dims = [0, 1] : (tensor<1x32xi32>) -> tensor<1x32x1xi32> loc(#loc238)
    %6 = stablehlo.broadcast_in_dim %c_2, dims = [] : (tensor<i32>) -> tensor<1x32x1xi32> loc(#loc239)
    %7 = stablehlo.compare  GE, %5, %6,  SIGNED : (tensor<1x32x1xi32>, tensor<1x32x1xi32>) -> tensor<1x32x1xi1> loc(#loc239)
    %8 = stablehlo.broadcast_in_dim %c_0, dims = [2] : (tensor<1xi32>) -> tensor<1x1x1xi32> loc(#loc238)
    %9 = stablehlo.broadcast_in_dim %8, dims = [0, 1, 2] : (tensor<1x1x1xi32>) -> tensor<1x32x1xi32> loc(#loc240)
    %10 = stablehlo.compare  LE, %5, %9,  SIGNED : (tensor<1x32x1xi32>, tensor<1x32x1xi32>) -> tensor<1x32x1xi1> loc(#loc240)
    %11 = stablehlo.and %7, %10 : tensor<1x32x1xi1> loc(#loc241)
    %12 = stablehlo.reduce(%11 init: %c) applies stablehlo.and across dimensions = [2] : (tensor<1x32x1xi1>, tensor<i1>) -> tensor<1x32xi1> loc(#loc242)
    %13 = "stablehlo.gather"(%arg0, %5) <{dimension_numbers = #stablehlo.gather<offset_dims = [2], collapsed_slice_dims = [0], start_index_map = [0], index_vector_dim = 2>, slice_sizes = array<i64: 1, 2>}> : (tensor<512x2xf32>, tensor<1x32x1xi32>) -> tensor<1x32x2xf32> loc(#loc243)
    %14 = stablehlo.broadcast_in_dim %12, dims = [0, 1] : (tensor<1x32xi1>) -> tensor<1x32x2xi1> loc(#loc238)
    %15 = stablehlo.broadcast_in_dim %cst, dims = [] : (tensor<f32>) -> tensor<1x32x2xf32> loc(#loc238)
    %16 = stablehlo.select %14, %13, %15 : tensor<1x32x2xi1>, tensor<1x32x2xf32> loc(#loc244)
    return %16 : tensor<1x32x2xf32> loc(#loc182)
  } loc(#loc182)
  func.func private @_var(%arg0: tensor<1x32x2xf32> loc("jit(func)/jit(main)/pjit"(#loc147)), %arg1: tensor<i32> loc("jit(func)/jit(main)/pjit"(#loc147))) -> tensor<1x32x1xf32> {
    %cst = stablehlo.constant dense<0x7FC00000> : tensor<f32> loc(#loc)
    %cst_0 = stablehlo.constant dense<2.000000e+00> : tensor<f32> loc(#loc)
    %cst_1 = stablehlo.constant dense<0.000000e+00> : tensor<f32> loc(#loc)
    %0 = stablehlo.reduce(%arg0 init: %cst_1) applies stablehlo.add across dimensions = [2] : (tensor<1x32x2xf32>, tensor<f32>) -> tensor<1x32xf32> loc(#loc246)
    %1 = stablehlo.broadcast_in_dim %0, dims = [0, 1] : (tensor<1x32xf32>) -> tensor<1x32x1xf32> loc(#loc247)
    %2 = stablehlo.broadcast_in_dim %cst_0, dims = [] : (tensor<f32>) -> tensor<1x32x1xf32> loc(#loc248)
    %3 = stablehlo.divide %1, %2 : tensor<1x32x1xf32> loc(#loc248)
    %4 = stablehlo.broadcast_in_dim %3, dims = [0, 1, 2] : (tensor<1x32x1xf32>) -> tensor<1x32x2xf32> loc(#loc249)
    %5 = stablehlo.subtract %arg0, %4 : tensor<1x32x2xf32> loc(#loc249)
    %6 = stablehlo.multiply %5, %5 : tensor<1x32x2xf32> loc(#loc250)
    %7 = stablehlo.convert %arg1 : (tensor<i32>) -> tensor<f32> loc(#loc251)
    %8 = stablehlo.subtract %cst_0, %7 : tensor<f32> loc(#loc249)
    %9 = stablehlo.reduce(%6 init: %cst_1) applies stablehlo.add across dimensions = [2] : (tensor<1x32x2xf32>, tensor<f32>) -> tensor<1x32xf32> loc(#loc246)
    %10 = stablehlo.broadcast_in_dim %9, dims = [0, 1] : (tensor<1x32xf32>) -> tensor<1x32x1xf32> loc(#loc247)
    %11 = stablehlo.broadcast_in_dim %8, dims = [] : (tensor<f32>) -> tensor<1x32x1xf32> loc(#loc248)
    %12 = stablehlo.divide %10, %11 : tensor<1x32x1xf32> loc(#loc248)
    %13 = stablehlo.compare  GT, %8, %cst_1,  FLOAT : (tensor<f32>, tensor<f32>) -> tensor<i1> loc(#loc252)
    %14 = call @_where_2(%13, %12, %cst) : (tensor<i1>, tensor<1x32x1xf32>, tensor<f32>) -> tensor<1x32x1xf32> loc(#loc253)
    return %14 : tensor<1x32x1xf32> loc(#loc188)
  } loc(#loc188)
  func.func private @_where_2(%arg0: tensor<i1> loc("jit(func)/jit(main)/jit(_var)/pjit"(#loc147)), %arg1: tensor<1x32x1xf32> loc("jit(func)/jit(main)/jit(_var)/pjit"(#loc147)), %arg2: tensor<f32> loc("jit(func)/jit(main)/jit(_var)/pjit"(#loc147))) -> tensor<1x32x1xf32> {
    %0 = stablehlo.convert %arg2 : tensor<f32> loc(#loc254)
    %1 = stablehlo.broadcast_in_dim %0, dims = [] : (tensor<f32>) -> tensor<1x32x1xf32> loc(#loc255)
    %2 = stablehlo.select %arg0, %arg1, %1 : tensor<i1>, tensor<1x32x1xf32> loc(#loc256)
    return %2 : tensor<1x32x1xf32> loc(#loc253)
  } loc(#loc253)
  func.func private @_where_3(%arg0: tensor<1x1x32x32xi1> loc("jit(func)/jit(main)/pjit"(#loc162)), %arg1: tensor<f32> loc("jit(func)/jit(main)/pjit"(#loc162)), %arg2: tensor<f32> loc("jit(func)/jit(main)/pjit"(#loc162))) -> tensor<1x1x32x32xf32> {
    %0 = stablehlo.broadcast_in_dim %arg1, dims = [] : (tensor<f32>) -> tensor<1x1x32x32xf32> loc(#loc257)
    %1 = stablehlo.broadcast_in_dim %arg2, dims = [] : (tensor<f32>) -> tensor<1x1x32x32xf32> loc(#loc257)
    %2 = stablehlo.select %arg0, %0, %1 : tensor<1x1x32x32xi1>, tensor<1x1x32x32xf32> loc(#loc258)
    return %2 : tensor<1x1x32x32xf32> loc(#loc215)
  } loc(#loc215)
  func.func private @_where_4(%arg0: tensor<1x2x32x1xi1> loc("jit(func)/jit(main)/pjit"(#loc162)), %arg1: tensor<1x2x32x32xf32> loc("jit(func)/jit(main)/pjit"(#loc162)), %arg2: tensor<1x2x32x32xf32> loc("jit(func)/jit(main)/pjit"(#loc162))) -> tensor<1x2x32x32xf32> {
    %0 = stablehlo.broadcast_in_dim %arg0, dims = [0, 1, 2, 3] : (tensor<1x2x32x1xi1>) -> tensor<1x2x32x32xi1> loc(#loc257)
    %1 = stablehlo.select %0, %arg1, %arg2 : tensor<1x2x32x32xi1>, tensor<1x2x32x32xf32> loc(#loc258)
    return %1 : tensor<1x2x32x32xf32> loc(#loc215)
  } loc(#loc215)
} loc(#loc)